barents_states/both_0.0005_96_Adam_MSELoss_[8].pt (torch, 175117 bytes, 7 tensors)

lstm.weight_ih_l0 f4 [384, 6]
0	0x3ce9e42c	0.028551184
1	0xbdbbcfec	-0.09170517
2	0x3dadb6be	0.08482121
3	0x3d6598fd	0.056054104
4	0xbdc92744	-0.098219424
5	0xbd1f626b	-0.038912218
6	0xbd9ab821	-0.07554651
7	0x3d4ab945	0.049493093
8	0xba8d8046	-0.0010795675
9	0x3cd22afa	0.025655258
10	0x3dbe2dd9	0.092860885
11	0xbdd6bca7	-0.10485201
12	0xbdb3c248	-0.087772906
13	0x3c9006f9	0.01758145
14	0xbd74d62e	-0.05977457
15	0x3d41437e	0.047183506
16	0xbd5ec757	-0.054389324
17	0xbd37660f	-0.044775065
18	0xbda5b534	-0.080912024
19	0x3d198783	0.03748275
20	0xbcc24ce8	-0.023718312
21	0xbdf32e95	-0.11874119
22	0x3d75b4cf	0.059986886
23	0xbd98370c	-0.07432374
24	0x3d384d99	0.044995878
25	0xbd1ec575	-0.03876253
26	0xbe0ab014	-0.13543731
27	0xbe06518e	-0.13117048
28	0xbd45a56a	-0.048253454
29	0x3d7a3ce7	0.061093237
30	0xbc34e9a0	-0.011042029
31	0xbd0eff76	-0.034911595
32	0x3d5dbf7a	0.054137684
33	0xbd1bbe16	-0.038023077
34	0xbd34c6f4	-0.04413505
35	0xbc4c9606	-0.01248694
36	0xba4ef38a	-0.00078945665
37	0xbd1ad3b9	-0.03779957
38	0x3d93e14f	0.072207086
39	0xbcd0bac6	-0.025479686
40	0xbcd83a1f	-0.026394902
41	0xbcefea63	-0.029286569
42	0x3da9fc7a	0.08300109
43	0x3c6740e4	0.014114592
44	0x3d31eb01	0.043437008
45	0xbd12c8d0	-0.03583604
46	0x3c4540f4	0.012039412
47	0xbdb95347	-0.09049087
48	0x3c9d74ce	0.019220736
49	0xbc9e04e5	-0.019289443
50	0x3d83021a	0.06396885
51	0xbdd61274	-0.104527384
52	0xbd6ac3d5	-0.057315666
53	0x3d75bfba	0.059997298
54	0x3c1f5c87	0.00972665
55	0xbda03c6d	-0.07824025
56	0x3d242f1f	0.040084
57	0xbd4bdf3a	-0.049773432
58	0x3d58dbcc	0.05294399
59	0xbc9f7564	-0.019465156
60	0x3afed986	0.0019443489
61	0xbb029d2e	-0.0019930112
62	0xbd2f71ec	-0.042833254
63	0x3d24c57c	0.0402274
64	0x3c326850	0.010889128
65	0xbc383461	-0.011242957
66	0x3d96537e	0.073401436
67	0x3d537383	0.051623832
68	0xbd04808a	-0.032349147
69	0xbdbadc96	-0.09124105
70	0xbcd4b17a	-0.025963534
71	0x3d6a687c	0.05722855
72	0x3d75c78c	0.060004756
73	0xbce8f87e	-0.028438803
74	0xbd8d123b	-0.06888243
75	0xb9cd422c	-0.0003914995
76	0xbde87301	-0.1135006
77	0xbd02e7db	-0.031959396
78	0x3dc7e0d2	0.09759678
79	0xbc5d526b	-0.0135084195
80	0x3d8c4967	0.06849938
81	0xbd4ee2b2	-0.050509162
82	0x3c01adba	0.007914955
83	0xbc982bb1	-0.018575521
84	0x3d143784	0.036185756
85	0xbcd9dd86	-0.026594888
86	0x3d362cd1	0.044476334
87	0x3d5c9a89	0.053858314
88	0xbd4526da	-0.048132755
89	0xbd8d7216	-0.06906526
90	0x3ccf3cca	0.025297541
91	0xbd52e8c9	-0.051491532
92	0xbd7f6c6d	-0.062359262
93	0xbcc00e57	-0.023444338
94	0x3d7dec3d	0.061992873
95	0xbd987d02	-0.07445718
96	0xbd109f20	-0.035308003
97	0x3cfb755d	0.030695612
98	0x3d0f6b84	0.035014644
99	0x3dac30b1	0.08407725
100	0xbd3b9032	-0.045791812
101	0x3c5119a8	0.012762465
102	0x3bad2d02	0.0052849064
103	0x3d3c8638	0.04602644
104	0x3c6a3532	0.014294909
105	0xbc13ca13	-0.009020346
106	0xbd8b188e	-0.06791793
107	0xbdee8780	-0.11646938
108	0x3d3779c7	0.04479387
109	0xbca70857	-0.020389719
110	0xbb44b7c4	-0.003001676
111	0xbc0ac5c7	-0.008470005
112	0x3bc8077a	0.006104407
113	0xbc240a80	-0.010012269
114	0xbddc8f15	-0.10769478
115	0x3c9481d5	0.018128315
116	0xbc53e0b3	-0.01293199
117	0xbdd6c220	-0.10486245
118	0xbd702b28	-0.058634907
119	0xbdf829b6	-0.12117331
120	0x3ced8b1d	0.028996998
121	0x3db1e795	0.08686749
122	0x3d889cca	0.0667053
123	0x3d22c5ef	0.039739545
124	0x3d3f5c7a	0.046719052
125	0x3c89ebbb	0.016836038
126	0xbd8c9dff	-0.06866073
127	0x3dc710b9	0.097199865
128	0xbc767785	-0.015043144
129	0x3d545fbc	0.051849112
130	0x3ce7ba44	0.02828706
131	0xbca76e0f	-0.020438222
132	0xbc815e77	-0.015792115
133	0xbcd91d2e	-0.026503172
134	0xbd2acf2c	-0.04170148
135	0x3d4380e1	0.04773033
136	0xbc927f99	-0.017883109
137	0xbd09cd81	-0.03364325
138	0xbd82086f	-0.06349265
139	0xbd80b146	-0.06283812
140	0xba4238b3	-0.00074089615
141	0x3c32a4a0	0.0109035075
142	0xbd459a02	-0.048242576
143	0x3d86e8a9	0.06587345
144	0x3d9d0a2a	0.07667954
145	0xbac99473	-0.0015379324
146	0x3d94d3bf	0.0726695
147	0x3d08daca	0.03341178
148	0x3c1fe6ad	0.009759587
149	0x3d084962	0.03327311
150	0x3cb8165d	0.022471601
151	0x3d3a6608	0.04550746
152	0xbce3c296	-0.027802747
153	0x3d3a0cde	0.045422427
154	0x3d65078c	0.0559154
155	0x3d4b089c	0.049568757
156	0x3dc4df9e	0.09612964
157	0x3d9555ab	0.072917305
158	0x3d68ac7f	0.05680513
159	0x3dd5c01c	0.104370326
160	0x3dd2713b	0.10275503
161	0x3d441cb7	0.047878947
162	0xbd9f68c2	-0.07783653
163	0x3d332f99	0.043746565
164	0xbd8682e6	-0.06567936
165	0x3cc7bd09	0.024382131
166	0xbd9520a7	-0.072816186
167	0xbd01f4ca	-0.03172759
168	0x3d268811	0.040657107
169	0xbdd7a10e	-0.105287656
170	0xbdc7cebc	-0.09756228
171	0xbd153fad	-0.03643768
172	0xbddd5cad	-0.10808692
173	0x3d9029be	0.07039212
174	0xbd63eb0d	-0.055644084
175	0xbcce2ba3	-0.025167292
176	0xbce809c3	-0.028324967
177	0x3d037387	0.032092597
178	0xbd35b1c8	-0.044359
179	0xbd17864c	-0.03699331
180	0xbd950418	-0.072761714
181	0x3d38155b	0.04494224
182	0x3d77a86b	0.06046335
183	0x3da1d72d	0.0790237
184	0xbdc5bf4a	-0.09655626
185	0x3d82ed61	0.06392933
186	0x3dad99b7	0.084765844
187	0xbdd35f3a	-0.103208974
188	0x3d83624e	0.064152345
189	0xba861252	-0.0010228849
190	0xbd1d28e1	-0.038369063
191	0xbde20495	-0.1103603
192	0x3d31d4a8	0.043415695
193	0xbda53c3d	-0.0806813
194	0x3d4de80f	0.050270136
195	0xbdb98429	-0.09058411
196	0xbcc83d7a	-0.024443377
197	0xbd520f53	-0.051284146
198	0xbdc9e084	-0.09857276
199	0x3c4e365c	0.0125862025
200	0xbcfad949	-0.030621188
201	0xbd8d9c08	-0.06914526
202	0x3dda8828	0.10670501
203	0x3b7e4f19	0.003880447
204	0x3a749824	0.0009330532
205	0xbdf1926f	-0.11795508
206	0xbad94109	-0.0016575168
207	0xbd60fb51	-0.054927174
208	0x3d061e31	0.032743637
209	0x3d3c0c7b	0.04591034
210	0xbd111dc3	-0.035428774
211	0xbdc32799	-0.09529037
212	0xbcaa196f	-0.02076408
213	0x3d63c9db	0.055612426
214	0xba283d93	-0.00064178667
215	0xbd61ab3e	-0.05509495
216	0xbdacbbd2	-0.084342614
217	0x3da918d4	0.08256689
218	0xbdbf158e	-0.09330283
219	0x3d8cdd1b	0.0687811
220	0x3d8f7f70	0.07006729
221	0x3bc3bec2	0.005973668
222	0x3d4713f5	0.048603017
223	0x3da83697	0.08213537
224	0x3d57c0b2	0.052674003
225	0xbd64d5a9	-0.055867825
226	0xbd4a2b88	-0.04935792
227	0x3d872a3a	0.06599851
228	0xbdb4801e	-0.08813499
229	0xbd9f9c62	-0.077934995
230	0xbc139608	-0.009007938
231	0xbd8f030d	-0.06983004
232	0x3dd94053	0.10607972
233	0x3d17e37f	0.03708219
234	0x3d1dc9df	0.038522597
235	0xbc9e495f	-0.019322095
236	0xbd65a981	-0.056069855
237	0xbd35b09b	-0.044357877
238	0x3d0e3c8e	0.03472572
239	0x3dc039a9	0.09385998
240	0xbcb5d0b1	-0.022194238
241	0x3da13f07	0.0787335
242	0xbdadc8d8	-0.084855735
243	0xbd414e41	-0.04719377
244	0x3d42847c	0.04748963
245	0x3cdc9604	0.026927002
246	0xbc2fa5a2	-0.010720642
247	0xbd2fc436	-0.04291173
248	0xbdcfc768	-0.101454556
249	0xbd13a936	-0.036050044
250	0x3c643bb4	0.01393025
251	0xbd9bf8f3	-0.07615843
252	0xbe32737e	-0.1742687
253	0x3a1cb487	0.00059778284
254	0x3cd0d1c0	0.025490642
255	0x3d101dd5	0.0351847

lstm.weight_hh_l0 f4 [384, 96]
0	0xbd025853	-0.031822514
1	0x3d849e57	0.064755134
2	0x3d026410	0.03183371
3	0x3da6f529	0.08152229
4	0x3cd8a68d	0.026446605
5	0x3d4c0212	0.049806662
6	0x3d8f8193	0.07007136
7	0x3c5e507f	0.013568996
8	0x3db24f24	0.08706501
9	0xbdd286dd	-0.102796294
10	0x3daeed21	0.085413225
11	0x3ce589fe	0.028019901
12	0x3c85d021	0.016334595
13	0x3cb8843e	0.022523995
14	0xbd8b6eaa	-0.06808217
15	0x3dadd6cd	0.084882356
16	0xbd3a2945	-0.045449514
17	0xbc6ad81d	-0.014333752
18	0x3d4eeeaf	0.050520595
19	0x3d11930d	0.03554063
20	0xbdd6c9e4	-0.10487726
21	0xbc390aba	-0.011294061
22	0xbdd235d1	-0.10264171
23	0xbd27cc4a	-0.04096631
24	0x3d3ed2dd	0.046587814
25	0xbd797d2d	-0.060910393
26	0xbd6d9e30	-0.058012187
27	0xbdc9fa19	-0.098621555
28	0x3daa3143	0.08310177
29	0xbc94bb5b	-0.018155744
30	0x3d9845ae	0.07435165
31	0xbd6c3c1c	-0.057674512
32	0xbd9ab6db	-0.07554408
33	0xbce6a68c	-0.028155588
34	0x3db3a16a	0.08771022
35	0xbd3c6ac1	-0.046000246
36	0x3da0d927	0.078539185
37	0xbd57ca69	-0.052683268
38	0x3a2fe0c2	0.0006709212
39	0xbd6ef979	-0.058343384
40	0xbd152985	-0.03641655
41	0x3d1fc87c	0.039009556
42	0xbda2ef84	-0.0795584
43	0xbd1506dd	-0.0363835
44	0xbc598955	-0.013277371
45	0x3d76350a	0.060109176
46	0xbcbbfdb9	-0.022948133
47	0xbddbebc3	-0.10738327
48	0x3db5bcc0	0.08873892
49	0x3daddc78	0.08489317
50	0xbd826002	-0.06365968
51	0xbdbe8eeb	-0.09304603
52	0x3d2a9a68	0.04165116
53	0x3dc81ed6	0.097715065
54	0xbdbf4671	-0.093396075
55	0x3dba3def	0.09093844
56	0x3c7301e2	0.014831992
57	0x3dc171ed	0.09445558
58	0xbcd9c9da	-0.026585508
59	0xbd7f57f6	-0.062339745
60	0x3dbf79ff	0.09349441
61	0xbcb659b1	-0.022259565
62	0xbbd1e182	-0.0064050565
63	0xbd853df7	-0.065059595
64	0x3d7427fb	0.05960844
65	0xbcf5d15d	-0.030007059
66	0x3d86e7d3	0.06587186
67	0x3d3ef9e3	0.04662503
68	0xbdb13916	-0.086534664
69	0x3d9bd5aa	0.076091126
70	0xbdd1b8fe	-0.102403626
71	0xbc29b899	-0.010358953
72	0xbd5fe127	-0.05465808
73	0x3cb12ec8	0.021628752
74	0xbddea9c6	-0.108722255
75	0x3d6d0db8	0.05787441
76	0xbce2b900	-0.027676105
77	0x3db1f98e	0.08690177
78	0x3d3dca92	0.046335764
79	0x3daf04c6	0.08545832
80	0x3c4e9099	0.012607717
81	0x3de15d67	0.11004143
82	0xbdd79270	-0.105259776
83	0x3cbeebd7	0.023305817
84	0xbcc17a84	-0.02361799
85	0x3d3d49ba	0.04621289
86	0x3d5520a9	0.0520331
87	0x3db2a691	0.08723176
88	0xbd9c11cc	-0.07620582
89	0x3c490579	0.012269371
90	0x3d8a7105	0.06759838
91	0x3bae98b1	0.005328261
92	0xbd9b8b5e	-0.075949416
93	0xbdad63b9	-0.08466286
94	0x3b195912	0.0023399037
95	0xbd9055e8	-0.07047635
96	0x3d3163e4	0.043308154
97	0x3bab9d10	0.005237229
98	0xbdcfa2f5	-0.101385035
99	0x3d38af87	0.04508927
100	0xbdb63e55	-0.08898608
101	0xbd85681c	-0.06513998
102	0xbcc290ca	-0.023750681
103	0xbbdd82b6	-0.0067599667
104	0xbd46d51d	-0.048543084
105	0xbbc5788b	-0.0060263327
106	0x3d0566d3	0.032568764
107	0x3beeacf5	0.0072838017
108	0xbdc22d1d	-0.09481261
109	0xbda4cfbb	-0.08047434
110	0xbc090974	-0.00836407
111	0x3d818cca	0.063256815
112	0xbcecc429	-0.02890213
113	0xbd2c3215	-0.04203995
114	0x3dd54c35	0.10414926
115	0x3ca57cb9	0.020201074
116	0xbd6b5dc2	-0.05746246
117	0xbc0fd0d8	-0.00877782
118	0x3d9f4c36	0.07778208
119	0xbcb96c47	-0.022634638
120	0xbc29a5ea	-0.010354498
121	0xbc2218af	-0.00989358
122	0xbdb328a7	-0.08747988
123	0x3db7bdc2	0.0897174
124	0xbde64b17	-0.11244791
125	0xbdd03cbd	-0.10167835
126	0xbd0cb46a	-0.034351744
127	0xbcf2cb6d	-0.029638017
128	0x3cde15ea	0.027110059
129	0xbcb5acd2	-0.022177134
130	0x3c83cc05	0.016088495
131	0x3d130bfc	0.0359001
132	0xbd1c4095	-0.038147528
133	0x3d91c2a1	0.07117201
134	0xbd3c0678	-0.045904607
135	0xbdce1997	-0.100634746
136	0xbd901ff2	-0.07037343
137	0x3d87b938	0.066271245
138	0xbd1da0e4	-0.038483515
139	0xbdba285d	-0.0908973
140	0xbc9bbb0a	-0.019010086
141	0xbd59a105	-0.053132076
142	0xbdb49c57	-0.08818882
143	0xbda7fbda	-0.08202334
144	0xbd03a8ae	-0.032143287
145	0x3d4b6009	0.049652133
146	0xbceded63	-0.029043859
147	0xbb855889	-0.004069392
148	0xbcb2fc62	-0.021848861
149	0xbd9540df	-0.07287764
150	0xbcc9b23a	-0.024621118
151	0x3cfd3334	0.030908205
152	0xbd96881e	-0.07350181
153	0x3d9c3e13	0.07629027
154	0x3d4b9a1b	0.049707513
155	0xbd4c2983	-0.049844276
156	0xbda18530	-0.078867316
157	0xbd62014a	-0.05517701
158	0x3dc5e66b	0.09663089
159	0x3d70b4d1	0.05876619
160	0x3cf21e56	0.02955548
161	0x3d36e329	0.04465023
162	0xbd2222d6	-0.039584003
163	0xbdb2198c	-0.08696279
164	0xbb4ca658	-0.0031227078
165	0xbc31e787	-0.010858423
166	0xbda8dead	-0.08245597
167	0xbd4164e1	-0.047215346
168	0x3d9297a9	0.07157833
169	0xbdd5e7fc	-0.10444638
170	0x3d3a302a	0.04545609
171	0xbd8f6908	-0.07002455
172	0xbd5bb385	-0.053638
173	0x3c31b546	0.010846442
174	0xbd24eb2d	-0.040263344
175	0xbdbd6cfe	-0.09249304
176	0xbd819975	-0.06328098
177	0x3b45b4ec	0.0030167652
178	0xbd4c486c	-0.049873754
179	0x3d60439e	0.054751985
180	0xbd838d35	-0.064234175
181	0xbddbd777	-0.10734456
182	0xbb73d154	-0.0037203627
183	0xbd84e36a	-0.06488688
184	0xbc97df71	-0.018539162
185	0xbc653175	-0.013988842
186	0x3dcf7939	0.10130543
187	0xbd7222ee	-0.059115343
188	0x3d0515b3	0.032491397
189	0x3c949f66	0.018142413
190	0xbd32761d	-0.043569673
191	0x3d9142da	0.07092829
192	0x3dbc4ec7	0.09194713
193	0xbda95950	-0.08268988
194	0xbd9a5139	-0.07535023
195	0x3da3caa3	0.07997634
196	0xbd970420	-0.07373834
197	0xbd6974d5	-0.056996185
198	0xbdb47797	-0.088118725
199	0xbdcb226f	-0.09918677
200	0x3d5397ef	0.051658567
201	0x3c91c687	0.01779486
202	0x3d13dedf	0.03610122
203	0xb9965a85	-0.00028677672
204	0x3cd44f5d	0.02591675
205	0x3d85c9f8	0.06532663
206	0xbd92fa37	-0.07176631
207	0xbd0d32db	-0.034472328
208	0x3dbff4a6	0.09372835
209	0x3c1ac915	0.009447356
210	0xbc4d9a87	-0.012549049
211	0x3db56b4a	0.088583544
212	0xbd27adc7	-0.04093721
213	0xbd2dcb0e	-0.042429976
214	0xbd9ce220	-0.076603174
215	0xbda6cd2c	-0.08144602
216	0x3c561b5a	0.013068045
217	0xbd6a252d	-0.05716436
218	0x3d093484	0.03349735
219	0xbc3f92f4	-0.011692751
220	0x3cf98962	0.030461017
221	0x3d4af73a	0.04955218
222	0xbb07f944	-0.002074794
223	0x3d79883d	0.060920943
224	0xbc90e1f0	-0.01768586
225	0xbd41474b	-0.04718713
226	0xbdaf6147	-0.08563476
227	0xbd4dc2fe	-0.050234787
228	0x3d7e05f2	0.06201739
229	0x3ccc7d89	0.024962204
230	0x3d138bae	0.03602188
231	0xbaae8275	-0.0013314026
232	0xbd5caf73	-0.05387826
233	0x3db25540	0.087076664
234	0xbdc5b09a	-0.09652825
235	0xbd3040e2	-0.043030627
236	0x3d432671	0.047644082
237	0x3dcc0476	0.09961788
238	0x3d40cd9b	0.04707108
239	0xbc664017	-0.014053366
240	0x3d34ab7c	0.044108853
241	0x3da0289c	0.078202456
242	0xbdd43019	-0.103607364
243	0x3d12e73e	0.03586506
244	0xbdaf0d95	-0.085475124
245	0xbd56c1c0	-0.05243087
246	0xbdab4e12	-0.083645
247	0x3dab6c4f	0.083702676
248	0x3c7e943e	0.015538273
249	0x3dce5e42	0.10076572
250	0xba21eaa0	-0.00061766244
251	0xbd5b4fb7	-0.05354282
252	0x3d171b1f	0.0368911
253	0x3ca743c5	0.020418057
254	0xbcae3e5c	-0.02126997
255	0xbd6963d5	-0.056979973

lstm.bias_ih_l0 f4 [384]
0	0xbd8fa331	-0.07013548
1	0x3d85643f	0.06513261
2	0x3db6335c	0.08896515
3	0xbc9dcc9f	-0.01926261
4	0x3df5ea0a	0.1200753
5	0xbd4c4860	-0.04987371
6	0x3c536e32	0.012904691
7	0x3d8ff0b3	0.070283316
8	0x3dbf288e	0.09333907
9	0x3bd37214	0.006452808
10	0xbd806864	-0.06269911
11	0x3da4cf0e	0.08047305
12	0x3d50d172	0.050980993
13	0xbc27acdd	-0.010234085
14	0x3dbd5a1c	0.092457026
15	0x3c414c54	0.011797983
16	0xbd684898	-0.056709856
17	0xbc17fbe6	-0.009276366
18	0x3d12c7cd	0.035835076
19	0xbd92ff84	-0.07177642
20	0x3daaebe3	0.08345773
21	0xbc5d8c93	-0.013522285
22	0x3d8a9d46	0.06768279
23	0xbbd3d908	-0.006465081
24	0xbd3e6b94	-0.046489313
25	0x3de1a6d1	0.11018146
26	0xbc9e33f9	-0.019311892
27	0xbd615ee3	-0.05502213
28	0xbd56c786	-0.052436374
29	0x3dd9aa50	0.10628188
30	0x3dda5a47	0.1066175
31	0xbc78a716	-0.015176555
32	0x3dca24a3	0.09870269
33	0x3d462b33	0.04838104
34	0x3db973a7	0.09055262
35	0x3d8cafb6	0.06869452
36	0x3db36c49	0.08760888
37	0x3dd8a925	0.10579137
38	0x3daafb15	0.08348671
39	0xbd9cb5cf	-0.07651865
40	0xbd379340	-0.044818163
41	0x3d725d85	0.05917122
42	0x3cb7ee58	0.022452518
43	0x3d21046d	0.03931086
44	0xbc0bd8fb	-0.008535619
45	0x3d17cfbe	0.037063353
46	0x3d6fc844	0.058540598
47	0xbd4e45e4	-0.05035962
48	0x3d28aa20	0.04117787
49	0xbdbfa873	-0.09358301
50	0xbc85d393	-0.016336238
51	0x3df97fe6	0.12182598
52	0xbdacee92	-0.08443941
53	0x3dd270fd	0.10275457
54	0xbd8b3bb3	-0.06798496
55	0xbd635701	-0.055502895
56	0xbce56f57	-0.028007193
57	0x3dca8502	0.098886505
58	0x3dbfae1b	0.0935938
59	0xbd7a0543	-0.061040174
60	0xbdd1b0a5	-0.102387704
61	0xbd184786	-0.037177585
62	0x3d7ea1b7	0.062165942
63	0x3c9f0d4a	0.019415516
64	0xbd913fe4	-0.07092264
65	0x3e080814	0.13284332
66	0x3d88395c	0.066515654
67	0xbdad3dc0	-0.084590435
68	0xbda843be	-0.08216046
69	0xbd4f505b	-0.050613742
70	0x3cb0dd39	0.021589862
71	0x3d718e09	0.058973346
72	0xbc77b408	-0.015118606
73	0x3d17f791	0.037101332
74	0x3dd678dc	0.10472271
75	0xbce59e14	-0.02802948
76	0xbd9cb7f5	-0.076522745
77	0xbcb5516a	-0.022133548
78	0xbd85130e	-0.06497775
79	0xbd0f8778	-0.035041302
80	0x3d38fd71	0.045163576
81	0xbd627338	-0.055285662
82	0x3dfa03bb	0.12207743
83	0x3d311e79	0.04324195
84	0x3dab07c7	0.08351093
85	0xbccd2156	-0.02504031
86	0x3da5bed8	0.08093041
87	0xbd9a3d75	-0.07531253
88	0x3d8ad7d2	0.06779446
89	0x3dcc2c3e	0.09969376
90	0x3c79484e	0.015214993
91	0xbd2e7aa0	-0.042597413
92	0xbca302b9	-0.01989876
93	0xbd878160	-0.06616473
94	0x3d423df8	0.04742238
95	0x3d38d7e9	0.045127783
96	0x3d8e331f	0.06943344
97	0xbda098c6	-0.07841639
98	0xbd895cba	-0.06707139
99	0x3c1cb5a6	0.009564793
100	0xbd16758e	-0.036733203
101	0x3d88d0f3	0.06680479
102	0xbdb11822	-0.08647181
103	0x3d900f2f	0.07034146
104	0xbca74423	-0.020418232
105	0x3cb93e2b	0.022612652
106	0x3d0e3b4e	0.034724526
107	0xbbe3a384	-0.006946983
108	0xbdbef33f	-0.09323739
109	0xbd85ffd3	-0.06542935
110	0x3ce4349c	0.027857117
111	0x3d757bca	0.059932508
112	0x3ce1866e	0.027529921
113	0xbda7cc6d	-0.08193288
114	0xbdbc05e6	-0.091808125
115	0x3af2d42b	0.0018526366
116	0xbd719c75	-0.0589871
117	0xbddf6dd9	-0.10909624
118	0x3cb1aed6	0.021689814
119	0xbd62b3c7	-0.05534723
120	0x3b630d62	0.0034645428
121	0xbdb98eb4	-0.090604216
122	0xbc076488	-0.008263715
123	0xbc6735e7	-0.014111972
124	0xbd89f7c7	-0.06736713
125	0xbd4415ec	-0.04787247
126	0xbd11d340	-0.035601854
127	0xbd95dfc9	-0.07318074
128	0xbd3e31dd	-0.046434272
129	0xbd645039	-0.05574057
130	0x3be7e698	0.0070770495
131	0x3d99c88a	0.07508953
132	0x3dc4ac19	0.096031375
133	0xbce1749b	-0.027521422
134	0xbc879d27	-0.016554428
135	0xbdd0e846	-0.10200553
136	0x3dae110f	0.084993474
137	0x3d9279db	0.07152148
138	0xbc8b960a	-0.017039318
139	0x3d4d0844	0.05005671
140	0xbd073443	-0.033008825
141	0x3c6bf4cd	0.014401627
142	0xbd82ccf2	-0.063867465
143	0x3d133014	0.035934523
144	0x3d3e3e54	0.04644616
145	0xbd9c223b	-0.076237164
146	0x3d9335d2	0.07188
147	0x3d61023e	0.05493378
148	0x3ba2df54	0.0049704704
149	0x3d83c303	0.0643368
150	0xbdb24f7e	-0.08706568
151	0xbdca330e	-0.09873019
152	0xbc6d571f	-0.014486103
153	0xbadbcb9c	-0.0016769054
154	0x3cb18464	0.021669574
155	0xbc76203b	-0.015022333
156	0xbd3b5a0e	-0.04574018
157	0xbb323222	-0.0027190526
158	0x3d87ada1	0.06624914
159	0xba62dda0	-0.00086542405
160	0x3d6c91a5	0.057756085
161	0xbd4220de	-0.047394626
162	0xbd0a347f	-0.03374147
163	0xbd96821a	-0.07349034
164	0xbd68c10b	-0.056824725
165	0x3ad7851c	0.0016442868
166	0x3cedd809	0.029033678
167	0x3bb9fdbe	0.0056760004
168	0x3c6ca6de	0.014444081
169	0x3d029bf9	0.03188703
170	0x3d575b3b	0.05257724
171	0xbdd6d077	-0.1048898
172	0xbd4dea00	-0.050271988
173	0xbc6a7e6e	-0.01431237
174	0x3da4943d	0.08036087
175	0x3d53b80a	0.051689185
176	0xbd71bda6	-0.059018753
177	0xbcd180a9	-0.025574045
178	0xbc829072	-0.015938018
179	0x3d1f3b05	0.038874645
180	0x3d8defb3	0.069304846
181	0x3d041eea	0.032256044
182	0x3d12e84f	0.035866078
183	0xbda53aaf	-0.08067834
184	0x3ac78992	0.0015223494
185	0xbc0dd846	-0.008657521
186	0xba3b08eb	-0.0007134813
187	0xbd8e417e	-0.069460854
188	0x3d895ce8	0.067071736
189	0xbda24421	-0.07923151
190	0x3c1c5647	0.0095420545
191	0xbd2af32d	-0.041735817
192	0xbd7bc369	-0.061465655
193	0x3dd3f741	0.10349894
194	0xbd857e49	-0.065182276
195	0xbc979fa0	-0.018508732
196	0xbd8c2110	-0.06842244
197	0xbcc0f5d7	-0.023554726
198	0x3d93bcbf	0.07213735
199	0xbce465c2	-0.027880553
200	0x3dc0b254	0.094090134
201	0x3c32178d	0.010869873
202	0x3d431b70	0.04763359
203	0x3d3884fa	0.04504869
204	0xbd697a7f	-0.057001587
205	0xbdb32cfc	-0.087488145
206	0xbba16b0f	-0.0049260925
207	0x3df82d83	0.12118056
208	0xbbe6322f	-0.0070250253
209	0x3c6b423f	0.014359056
210	0x3a511548	0.00079758884
211	0xbd8b160b	-0.06791314
212	0x3dc3ed72	0.095667735
213	0x3c8dd574	0.017313696
214	0xbca6be06	-0.020354282
215	0xbced2634	-0.02894888
216	0x3dbdf3e7	0.09275036
217	0x3b8c00ed	0.0042725713
218	0xbc6bf379	-0.01440131
219	0x3daaeb8c	0.08345708
220	0x3d545c84	0.051846042
221	0x3da3606b	0.07977375
222	0xbc9e24d8	-0.019304678
223	0x3c027d4c	0.007964443
224	0x3bc07828	0.0058736987
225	0x3dcee4fc	0.10102269
226	0xbb16005f	-0.0022888405
227	0x3d5a37c2	0.05327583
228	0x3ddd1e8a	0.107968405
229	0x3d78e1b2	0.060762115
230	0xbce47903	-0.027889734
231	0xbd0c549d	-0.03426038
232	0x3d51acc9	0.05119017
233	0x3d076373	0.033053827
234	0xbcb8cbf7	-0.022558196
235	0x3c7e605f	0.015525906
236	0xbda0d129	-0.07852394
237	0x3d4cd1d4	0.050004795
238	0x3b1cf3ab	0.0023948948
239	0x3c14c25e	0.009079544
240	0xbd348fcc	-0.044082448
241	0x3d8260bc	0.06366107
242	0xbdae3c4e	-0.08507596
243	0x3de937b5	0.113875784
244	0xbd594511	-0.053044382
245	0xbda5cdda	-0.08095904
246	0xbcbb48fe	-0.022861954
247	0x3d8b657e	0.068064675
248	0x3d02a0f5	0.03189178
249	0x3d2d9744	0.042380586
250	0xbd4d168e	-0.050070338
251	0x3daf5567	0.08561211
252	0x3d4ec8e1	0.05048454
253	0x3d3362f4	0.04379554
254	0xbd92598c	-0.07145986
255	0x3d1ad64f	0.037802037

lstm.bias_hh_l0 f4 [384]
0	0xbda93a2b	-0.08263048
1	0xbda90de1	-0.082546
2	0xbca9687f	-0.02067971
3	0xbc034c9e	-0.008013872
4	0x3d8e017d	0.069338776
5	0x3d44fb0a	0.048090972
6	0xbcc58c4b	-0.024114748
7	0x3ced8713	0.028995072
8	0xbc12d024	-0.008960757
9	0x3d0ba224	0.034090176
10	0x3da6eb0b	0.081503
11	0x3d8ed860	0.06974864
12	0x3df9cc01	0.12197114
13	0x3d9e2fd6	0.07723968
14	0xbd18dab6	-0.037317954
15	0x3db95ae8	0.09050542
16	0xbc9c0f5e	-0.019050296
17	0x3ddd21e1	0.107974775
18	0x3dc13ec4	0.094358
19	0x3aa7a36f	0.0012789796
20	0xbda2e06b	-0.079529606
21	0xbcf30750	-0.029666573
22	0x3e0242c0	0.12720776
23	0xbda3ae62	-0.07992245
24	0x3db99c21	0.09062982
25	0xbda317ae	-0.07963501
26	0xbbe8341c	-0.00708629
27	0xbd83c741	-0.06434489
28	0x39d04f2e	0.00039731845
29	0x3daae349	0.083441325
30	0xbd737779	-0.05944011
31	0x3c503e17	0.012710116
32	0x3c0c9f0d	0.008582843
33	0xbd5a7fcb	-0.05334453
34	0xbcff578c	-0.031169675
35	0xbd8820f3	-0.066469096
36	0xbc7bdb19	-0.015372061
37	0x3d8e14ed	0.06937585
38	0xbc974539	-0.018465625
39	0xbc068c17	-0.008212111
40	0xbce50a1c	-0.027958922
41	0xbd83cc40	-0.06435442
42	0x3dcb76b8	0.09934753
43	0x3d7a600f	0.061126765
44	0xbd872133	-0.06598129
45	0xbdb84cd8	-0.08999032
46	0xbd6f97e8	-0.05849448
47	0xbccb8985	-0.024845848
48	0x3dcfe022	0.10150172
49	0x3d66a822	0.056312688
50	0x3d1c5ab6	0.038172446
51	0xbbccf53c	-0.00625482
52	0xbdba8f60	-0.09109378
53	0x3d663e09	0.056211505
54	0x3d8441ac	0.064578384
55	0x3daeeb30	0.08540952
56	0x3da40301	0.080083854
57	0x3d9848a5	0.07435731
58	0xbce6dde9	-0.028181987
59	0x3d8dbf88	0.06921297
60	0xbdb39f41	-0.0877061
61	0xbda91919	-0.0825674
62	0xbdb5d808	-0.08879095
63	0x3d6463cc	0.055759236
64	0x3c7a1288	0.015263207
65	0x3d9c2350	0.07623923
66	0xbd113977	-0.035455193
67	0xbd008d92	-0.031385012
68	0x3d1f53ca	0.038898267
69	0xbdbeee82	-0.093228355
70	0x3c6ffd3f	0.014647781
71	0xbce0b561	-0.027430238
72	0xbb6183fb	-0.0034410942
73	0x3d37b861	0.04485357
74	0x3d9d761e	0.07688545
75	0x3de2cdc1	0.11074401
76	0x3d800bf0	0.06252277
77	0x3d222080	0.039581776
78	0xbd52d291	-0.051470343
79	0x3d9ee3e3	0.0775831
80	0xbc88b8ae	-0.016689625
81	0xbdc0780a	-0.09397896
82	0x3c965c96	0.018354695
83	0xbb1cd4c8	-0.0023930538
84	0x3cdfed64	0.027334876
85	0x3da5f39f	0.08103108
86	0x3c88fb37	0.016721351
87	0xbd37d483	-0.0448804
88	0xbd89bfa4	-0.06726006
89	0x3c2cd682	0.0105491895
90	0xbda4fcf3	-0.08056059
91	0x3dab2a11	0.08357633
92	0xbc61816a	-0.013763765
93	0x3dbbc219	0.091678806
94	0x3c9b9c76	0.018995505
95	0xbd9d398e	-0.07676993
96	0xbd3d77bf	-0.046256777
97	0xbdb4a8fd	-0.088212945
98	0xbd3decb7	-0.046368327
99	0xbc68970a	-0.014196167
100	0x3b7ccfbd	0.003857597
101	0xbd782c35	-0.060589034
102	0xbdb64328	-0.08899528
103	0xbce4048f	-0.027834205
104	0x3d70d89d	0.05880033
105	0x3d96df07	0.07366758
106	0x3db9812c	0.09057841
107	0xbd0c0a28	-0.034189373
108	0x3d3dfa04	0.04638101
109	0x3d628714	0.0553046
110	0x3dbf8e1b	0.09353276
111	0x3c102b57	0.0087993955
112	0xbd32708a	-0.043564357
113	0xbde8e70e	-0.11372195
114	0x3c7b38ab	0.015333335
115	0x3d1da50d	0.038487483
116	0xbdb926b8	-0.09040588
117	0x3d8fa598	0.070140064
118	0x3d016922	0.031594403
119	0xbd177b3c	-0.03698276
120	0xbde3ce6a	-0.11123355
121	0xbbbffd17	-0.005859028
122	0x3d00114c	0.031266496
123	0xbcbf885c	-0.02338045
124	0xbce48b49	-0.027898448
125	0x3d417a18	0.04723558
126	0x3cac345c	0.02102106
127	0xbce1dbaa	-0.027570564
128	0xbd99f9de	-0.075183615
129	0xbdec53f4	-0.1153945
130	0xbab93229	-0.0014129329
131	0xb9fb4539	-0.00047926026
132	0xbc0875d9	-0.008328878
133	0xbd292b56	-0.041301094
134	0x3da76b5a	0.081747726
135	0x3cc7cafa	0.024388779
136	0xbd43058f	-0.047612723
137	0x3d2337d3	0.03984816
138	0xbce32b0a	-0.027730484
139	0xbca221ac	-0.019791447
140	0x3c57f04b	0.013179849
141	0x3c6774e1	0.014126987
142	0x3da3997e	0.07988261
143	0xbd8a7f18	-0.067625225
144	0xbdbdf2f9	-0.09274859
145	0x3da3f371	0.08005417
146	0xbd0ef430	-0.034900844
147	0x3d3df53b	0.046376448
148	0xbc947aa0	-0.018124878
149	0xbcc80cbd	-0.024420137
150	0x3b9698e8	0.0045958646
151	0x3d8e1455	0.06937472
152	0x3d53cb9a	0.05170784
153	0xbd5f20c1	-0.054474596
154	0x3d8e5c37	0.06951182
155	0x3d82dcf9	0.063898034
156	0x3d7f690e	0.062356047
157	0x3c572208	0.013130672
158	0xbdc044ce	-0.093881235
159	0x3d9612de	0.073278174
160	0x3d936227	0.071964554
161	0xbd4ae2a9	-0.049532566
162	0x3cf8a3ec	0.030351602
163	0x3ce432fb	0.02785634
164	0x3d4d1fb8	0.050079077
165	0xbdb9d470	-0.09073722
166	0xbcabf006	-0.020988476
167	0xbda220e5	-0.079164304
168	0xbc828e1e	-0.015936907
169	0x3d2388ab	0.03992526
170	0xbdd3418a	-0.10315235
171	0xbca64f3e	-0.020301457
172	0xbd4763d4	-0.048679188
173	0x3db027af	0.08601319
174	0xbd3bd81f	-0.045860406
175	0xbd2771dc	-0.04088007
176	0xbc83d3d6	-0.016092222
177	0x3d11b2e5	0.035570998
178	0xbc1814f8	-0.009282343
179	0xbdb57703	-0.0886059
180	0xbda576ed	-0.08079324
181	0xbce7cb09	-0.028295057
182	0x3cc219e6	0.02369399
183	0x3da4e01e	0.080505595
184	0xbd096216	-0.033540808
185	0x3da48048	0.0803228
186	0xbc6da54c	-0.014504742
187	0x3b96a5ae	0.0045973873
188	0x3cc8c361	0.024507226
189	0xbccd8d1e	-0.025091704
190	0x3d4081a1	0.046998624
191	0xbde070d2	-0.10959019
192	0xbd7efe33	-0.062254142
193	0x3d9cd395	0.076575436
194	0x3b439f5f	0.0029849631
195	0xbd3493f8	-0.044086426
196	0x3dd6a784	0.1048117
197	0xbd77bd5a	-0.060483314
198	0x3d889d26	0.06670599
199	0xbdb27c0b	-0.087150656
200	0x3d04afdd	0.03239428
201	0xbd9ce7cb	-0.076613985
202	0xbd6a5723	-0.057212006
203	0x3d88b82f	0.06675755
204	0x3dcd404d	0.1002203
205	0xbca4a75f	-0.02009934
206	0x3d563517	0.052296724
207	0x3d8d738b	0.06906804
208	0x3da63b34	0.08116761
209	0x3c76fb99	0.015074634
210	0xbde129a1	-0.10994268
211	0x3d550eee	0.05201619
212	0xbd4a07e7	-0.049323943
213	0xbabb3185	-0.0014281726
214	0x3dd486ba	0.103772596
215	0x3bc0c86f	0.0058832685
216	0x3d36a7e3	0.044593703
217	0xbd7152dd	-0.058916915
218	0xbd805700	-0.06266594
219	0xbd94b1aa	-0.07260449
220	0x3de6cfe1	0.112701185
221	0x3caf49df	0.02139753
222	0xbb936a92	-0.004498788
223	0x3d6f9777	0.058494058
224	0xbd8f4586	-0.069956824
225	0x3b8cb4c3	0.0042940094
226	0xbac0e243	-0.0014715869
227	0x3d12ba56	0.035822235
228	0x3d96cdda	0.07363482
229	0xba7d9e8c	-0.00096748094
230	0xbdc52b47	-0.09627395
231	0x3d7a40a8	0.061096817
232	0xbd3e6830	-0.04648608
233	0xbdab46d7	-0.08363121
234	0x3c40ee42	0.011775555
235	0xbdbe08ef	-0.09279048
236	0xbcef8bb4	-0.02924142
237	0xbc425cb0	-0.011862919
238	0xbd060b85	-0.03272583
239	0x3dce463c	0.1007199
240	0x3d5da140	0.054108858
241	0xbcd105dc	-0.02551549
242	0xbd19e6fc	-0.0375738
243	0xbda70287	-0.08154779
244	0x3dccb91b	0.099962436
245	0xbdcd7f22	-0.10034014
246	0xbd1718d4	-0.036888912
247	0xbc9f8f7a	-0.019477595
248	0x3c05b5a3	0.008160981
249	0xbd20c966	-0.03925457
250	0xbd40ac5b	-0.04703937
251	0x3d3ae5bb	0.045629244
252	0xbc97a7cd	-0.01851263
253	0x3d21c1ac	0.03949134
254	0xbd927145	-0.07150511
255	0x3d7ed387	0.062213447

fc_layers.0.weight f4 [8, 384]
0	0xbbb5e219	-0.0055506346
1	0x3c9240ae	0.017853107
2	0x3c476ffd	0.012172696
3	0xbd1ebb45	-0.038752813
4	0x3ca5832a	0.020204145
5	0x3d2a8534	0.04163094
6	0xbd6f4f1a	-0.058425047
7	0x3cce151a	0.025156546
8	0x3ceb871a	0.028750945
9	0xbd51a06f	-0.051178392
10	0x3ca1024e	0.01965442
11	0xbd014476	-0.03155943
12	0x3d0b2fd0	0.033981144
13	0xbcdb24b0	-0.026750892
14	0x3d3fb504	0.04680349
15	0xbce7b6da	-0.028285433
16	0xbb3fa967	-0.0029245259
17	0x3cc3f7b8	0.023921832
18	0xbcb8b7ec	-0.022548638
19	0xbceb02fe	-0.02868795
20	0xbc9d3bc6	-0.019193541
21	0x3cfca185	0.030838737
22	0xbb23f8bf	-0.002502009
23	0x38d9a79e	0.000103785875
24	0x3d0336a0	0.032034516
25	0xbcadd54c	-0.021219872
26	0x3d1d9003	0.03846742
27	0x3b89afbd	0.004201858
28	0xbd82bf30	-0.06384122
29	0x3b090624	0.00209082
30	0xbcb47c63	-0.022031968
31	0x3cb8b8e4	0.0225491
32	0x3d5ca3ca	0.05386714
33	0x3d35d407	0.04439166
34	0xbcfe5b9f	-0.031049548
35	0xbc324802	-0.010881426
36	0xbd359122	-0.044327863
37	0xbd0e100f	-0.034683283
38	0x3d1449e6	0.036203288
39	0x3cc5fe2a	0.024169046
40	0xbae92273	-0.0017786756
41	0x3c82d1b9	0.015969144
42	0x3d8957d6	0.067062065
43	0xbcbd56e8	-0.02311273
44	0x3d54518e	0.05183559
45	0xbcd8c74c	-0.02646222
46	0x3ce7c2e4	0.028291173
47	0xbd635b06	-0.05550673
48	0x3d577b72	0.05260796
49	0xbca30acb	-0.019902607
50	0x3d0dc061	0.034607295
51	0xbbfecb8a	-0.0077757286
52	0x3b7d67ca	0.00386666
53	0xbbca5cbf	-0.006175607
54	0xbc780783	-0.01513851
55	0xbd3c6d3f	-0.046002623
56	0xbac814b1	-0.0015264956
57	0xbd545508	-0.051838905
58	0xbcf17d80	-0.029478788
59	0xbd13f69c	-0.036123857
60	0x3af11bfc	0.0018395181
61	0xbd229212	-0.039690085
62	0x3d4ce604	0.050024047
63	0xbc21393d	-0.009840307
64	0x3c1e9008	0.009677894
65	0xbd7d74e6	-0.06187906
66	0x3d517289	0.05113462
67	0x3d52c981	0.0514617
68	0x3c12412b	0.00892667
69	0xbb3ace30	-0.0028504245
70	0x3d3b0f74	0.045669034
71	0x3d0afefe	0.033934586
72	0xbb9a9aea	-0.004718174
73	0xbd7e7f0e	-0.062132888
74	0x3c219d74	0.0098642
75	0x3c3f287c	0.011667367
76	0x3d40c696	0.047064386
77	0x3c04e5a1	0.008111388
78	0xbce720c9	-0.028213875
79	0xbcf9912c	-0.030464731
80	0x3c3117d3	0.010808903
81	0xbaddb862	-0.0016915912
82	0xbc8d32d5	-0.017236153
83	0x3b9d7c73	0.0048060953
84	0xbc7a4898	-0.015276097
85	0x3d19322d	0.037401367
86	0x3c102f5c	0.008800354
87	0xbd1ca31e	-0.0382415
88	0xbd2a641f	-0.04159939
89	0xbc92e67b	-0.017932167
90	0xbc92b696	-0.01790933
91	0xbcb7ad92	-0.022421632
92	0x3d4e6854	0.050392464
93	0x3d68a0b1	0.056793872
94	0xbd65c0e4	-0.056092158
95	0x3cd4d17a	0.025978792
96	0xbd245fa0	-0.040130258
97	0x3c46d456	0.012135586
98	0xbcb0e77d	-0.021594757
99	0xbd6df295	-0.058092672
100	0xbd607049	-0.054794583
101	0xbcb3989f	-0.021923361
102	0xbc353374	-0.011059631
103	0x3d34b344	0.044116274
104	0xbc94b68c	-0.018153451
105	0x3d123398	0.035693735
106	0x3cbc2c7b	0.022970429
107	0xbbd3b75a	-0.006461066
108	0xbd213943	-0.03936125
109	0x3c96e4ae	0.01841959
110	0x3cd77725	0.02630193
111	0xbd4f8a06	-0.05066874
112	0xbcb0ecb9	-0.021597253
113	0x3d0b619b	0.03402863
114	0xbbc14a05	-0.0058987164
115	0x3d1bf13a	0.03807185
116	0x3ca2e350	0.019883782
117	0x3d07d103	0.033158313
118	0x3c84a9ed	0.016194308
119	0x3d4ca3c0	0.04996085
120	0xbd2e3b22	-0.042536862
121	0xbcf29fd8	-0.029617235
122	0x3d1a11d3	0.037614655
123	0x3c4f0d20	0.012637407
124	0xbd761be6	-0.0600852
125	0xbd42bcbb	-0.04754327
126	0x3d2ac44e	0.041691117
127	0xbd2f1b6b	-0.042750757
128	0x3c99cbb7	0.018773897
129	0xbd3a5633	-0.045492362
130	0xbd110f6b	-0.035415094
131	0xbd18de61	-0.037321452
132	0x3d1e7aec	0.038691446
133	0x3d4ea333	0.050448608
134	0x3d00e452	0.031467743
135	0xbc214c2f	-0.009844824
136	0x3c54900e	0.012973798
137	0x3d72713b	0.059190016
138	0x3cf17fff	0.029479979
139	0x3b835822	0.004008309
140	0x3d38a4e2	0.04507912
141	0xbcbf5a5a	-0.023358513
142	0xbcac1f50	-0.021011025
143	0x3c8770db	0.016533306
144	0xbc981d84	-0.018568762
145	0xbd4410a3	-0.04786743
146	0xbcc4f6a8	-0.024043396
147	0xbd863da7	-0.06554728
148	0xbc348e77	-0.011020294
149	0xbb950912	-0.0045482004
150	0xbcc862ec	-0.024461232
151	0xbd5fb1a8	-0.054612786
152	0xbd0afe4e	-0.03393393
153	0x3d1fc951	0.03901035
154	0xbd10883f	-0.035286184
155	0xbc025fde	-0.007957427
156	0x3c4947ca	0.012285182
157	0x3b901a19	0.0043976423
158	0xbcd881cc	-0.02642908
159	0xbc17c707	-0.00926376
160	0xbc837170	-0.016045302
161	0xbca100c7	-0.019653691
162	0x3d12388b	0.035698455
163	0x3c608926	0.013704574
164	0xbccad3f5	-0.024759272
165	0x3cda7d1e	0.026670989
166	0x3d1b2a82	0.037882335
167	0xbc844110	-0.016144305
168	0x3d472fb1	0.048629466
169	0x3cb9f11b	0.022697976
170	0xbc772bae	-0.015086098
171	0x3c9e271c	0.019305758
172	0xbca118a7	-0.019665075
173	0x3c38b549	0.0112736905
174	0xbd34516b	-0.04402296
175	0xbcdf44c5	-0.027254472
176	0x3d614d97	0.055005636
177	0xbca8754c	-0.020563744
178	0x3c0eb2b6	0.0087096
179	0xbd4de715	-0.050269205
180	0xbd338875	-0.043831307
181	0xbc3663bb	-0.011132176
182	0xbd456611	-0.04819304
183	0x3b9a26b0	0.004704319
184	0x3c8e2910	0.017353565
185	0xbd7185b8	-0.058965415
186	0x3d5453bf	0.05183768
187	0x3bba3c77	0.0056834775
188	0x3cc039ab	0.023464998
189	0x3d445f44	0.047942415
190	0xbd013b67	-0.03155079
191	0x3d3751f6	0.0447559
192	0x3c11e42a	0.008904496
193	0xbd60f52a	-0.054921307
194	0x3d850170	0.06494415
195	0xbd7edbaa	-0.062221207
196	0x3ce2a2b6	0.027665477
197	0xbd106f66	-0.035262488
198	0xbd341e26	-0.043974064
199	0x3cb627de	0.022235807
200	0xba89aa7a	-0.0010503076
201	0xbd4b9e63	-0.049711596
202	0x3d67407a	0.056457974
203	0x3caff3b9	0.02147852
204	0x3d072c05	0.033000965
205	0xbd1e248e	-0.03860908
206	0x3c4bc7a6	0.012437737
207	0x3d069b85	0.03286316
208	0x3c529a53	0.012854177
209	0x3d5a8c49	0.053356443
210	0x3aef3236	0.0018249217
211	0xbbd8b3de	-0.0066132387
212	0xbca98265	-0.02069206
213	0xbc18285b	-0.009286965
214	0xbca93384	-0.020654447
215	0xbd14e58a	-0.036351718
216	0xbd7fc485	-0.062443275
217	0x3d07bbe3	0.033138167
218	0x3d108eb9	0.03529236
219	0x3c84edd9	0.016226696
220	0x3b92759b	0.004469586
221	0xbd530efe	-0.05152797
222	0x3c7cb388	0.015423663
223	0x3c0bb86f	0.008527859
224	0xbc332f8a	-0.010936627
225	0x3c083d83	0.008315447
226	0xbc37f011	-0.01122667
227	0x3c63117b	0.013859148
228	0x3c738bd7	0.014864883
229	0xbabe101c	-0.001450065
230	0x3c8f464e	0.017489579
231	0xbcccd1d4	-0.025002398
232	0xbcbe1cf4	-0.023207165
233	0x3ced3661	0.028956594
234	0xba35fc47	-0.00069421943
235	0xbd22e3ad	-0.03976791
236	0x3cf8783f	0.030330775
237	0x3b569a68	0.0032745842
238	0xbcefae95	-0.029258052
239	0xbd0384a7	-0.03210893
240	0x3c3270be	0.010891138
241	0xbcb9ac12	-0.022665057
242	0x3c5abe72	0.01335107
243	0xbd182a81	-0.03714991
244	0xbc203a71	-0.0097795585
245	0x3c4ad20e	0.0123791825
246	0xbc8fd46d	-0.017557347
247	0xbcc32141	-0.023819568
248	0xbc3ab2db	-0.0113951815
249	0xbc74b65c	-0.014936056
250	0xbd09e928	-0.03366962
251	0xba478ada	-0.0007611938
252	0x3d18f218	0.037340254
253	0x3c853eb6	0.016265254
254	0x3d300d41	0.04298139
255	0x3d38fead	0.045164753

fc_layers.0.bias f4 [8]
0	0xbcd6f280	-0.02623868
1	0x3c27a585	0.010232334
2	0xbc84948f	-0.01618412
3	0xbbbfd1f1	-0.0058538844
4	0xbd00e50d	-0.03146844
5	0xbc5ff26e	-0.01366864
6	0xbcd971de	-0.026543554
7	0x3c8071f9	0.015679346

output_layer.weight f4 [1, 8]
0	0xbe598def	-0.2124555
1	0x3d938096	0.0720226
2	0xbda8b221	-0.082371004
3	0xbea4e7f7	-0.32208225
4	0xbe603309	-0.21894468
5	0xbe31f568	-0.17378771
6	0xbea0a12b	-0.3137296
7	0x3de91a7a	0.11382003
