barents_states/sst_0.001_64_Adam_L1Loss_[].pt (torch, 76695 bytes, 5 tensors)

lstm.weight_ih_l0 f4 [256, 6]
0.052999686 -0.11255599 0.12724447 0.10206738 -0.08597261 -0.045093738 -0.07367498 0.07552669
-0.0030981037 0.03864152 0.12098882 -0.10111168 -0.0882115 0.026864644 -0.049951307 0.08358782
-0.055428278 -0.094936796 -0.09049723 0.039109997 -0.009945195 -0.1219844 0.077092424 -0.12789047
0.07614386 -0.03548667 -0.15692493 -0.14673945 -0.046170652 0.05509696 -0.004683005 -0.041422382
0.06844616 -0.038758554 -0.06905315 -0.06828951 -0.01287086 -0.06171716 0.06206921 -0.047682717
-0.0696758 -0.048207857 0.11391756 0.012847286 0.06311254 -0.032409333 0.014973315 -0.12163535
-0.097471215 -0.15971091 -0.03532736 -0.23846807 -0.21356712 -0.05770891 0.018875211 -0.086657025
0.05042112 -0.06491832 0.04737303 -0.040239498 -0.05466028 -0.077802286 -0.115106784 -0.01877286
-0.084087975 -0.10935841 0.0633944 0.02649773 -0.058120225 -0.13260671 -0.07166618 0.0023206924
0.08062605 -0.051570624 -0.08383037 0.015590982 -0.14316358 -0.09808275 0.12352369 -0.015404011
0.08416631 -0.054503817 0.006687634 -0.030783214 0.06183779 -0.051953662 0.11566346 0.13734558
-0.0017274253 -0.14114815 0.06519913 -0.053442612 -0.024621231 0.03366274 0.13458739 -0.08248348
-0.042485535 0.027670361 0.04519578 0.10330509 -0.06543738 -0.0117779765 0.1006814 0.134627
0.15590517 0.13543305 0.08393715 -0.05238993 0.07319966 -0.009380127 0.018105619 0.031243738
0.052070756 0.030773358 -0.11142889 0.018905338 0.014700631 -0.103875 -0.049077995 -0.18552893
0.025320675 0.0826549 0.079835966 0.0495989 0.047518726 -0.015697682 -0.097656876 0.102515645
-0.03477903 0.040330302 -0.0035096556 -0.086841494 -0.0056123706 -0.030713348 -0.03566755 0.07616111
-0.015834851 -0.053030416 -0.07553618 -0.085129835 0.0099341 0.02139438 -0.057525184 0.05805052
0.010952372 -0.09813432 0.015585685 -0.031032326 -0.088928886 -0.105445966 0.06441184 0.082243934
0.0050534266 0.092286035 0.09747359 0.08591646 0.1062738 0.08440224 0.07486974 0.10882202
0.0962737 0.08200267 -0.13178775 0.012452198 -0.111302935 0.0029759207 -0.12741154 -0.10124691
0.08532577 -0.10208366 -0.065939404 0.0123248035 -0.086322725 0.096721485 -0.03156411 0.0053634355
-0.003847224 0.07857796 -0.017247822 -0.006290587 -0.14716466 -0.033749305 -0.008038714 0.018974822
-0.23064767 -0.0693168 0.08245548 -0.15502828 0.03099537 -0.04231297 -0.106966995 -0.19254269
-0.06313275 -0.22873361 -0.10885124 -0.254271 -0.19748493 -0.2007858 -0.1368953 -0.020956025
-0.06327968 -0.11246033 0.06949814 -0.063381575 0.011196888 -0.13391386 0.01620692 -0.046305135
0.04809497 0.04825769 -0.017303951 -0.06820323 0.038225163 0.1298739 0.095567115 0.029438637
-0.060898907 0.13570172 -0.060544007 0.13931096 0.12875527 0.052780334 0.10048815 0.14573638
0.11695106 -0.012845156 0.0012733622 0.15788414 -0.19466753 -0.19531208 -0.11849454 -0.16826797
0.019096548 -0.013418711 0.071378455 -0.012595931 -0.040528886 -0.0240585 0.06703133 0.11947738
-0.040693954 0.077826455 -0.1170826 -0.071167335 0.036619477 -0.010188578 0.0004445123 -0.008650787
0.011991361 0.075396195 0.17877644 -0.05320353 -0.09495306 0.08318666 0.11809302 0.13110298
00000000: 3316 593d c183 e6bd 604c 023e b408 d13d
00000010: 6812 b0bd 36b4 38bd e8e2 96bd bdad 9a3d
00000020: 8e09 4bbb 9246 1e3d fdc8 f73d a413 cfbd
00000030: 3ba8 b4bd 3e13 dc3c be99 4cbd 1730 ab3d
00000040: c308 63bd 396e c2bd 9d56 b9bd ce31 203d
00000050: 2cf1 22bc f5d2 f9bd a2e2 9d3d b8f5 02be
00000060: 50f1 9b3d 785a 11bd eeb0 20be de42 16be
00000070: 701d 3dbd 5aad 613d e573 99bb 84aa 29bd
00000080: 802d 8c3d 4ac1 1ebd bd6b 8dbd 5fdb 8bbd
00000090: 4de0 52bc 22cb 7cbd 493c 7e3d f44e 43bd
000000a0: 30b2 8ebd 9a75 45bd 9c4d e93d 6c7d 523c
000000b0: 2641 813d a6bf 04bd a352 753c f41b f9bd
000000c0: fd9e c7bd 428b 23be 6cb3 10bd f930 74be
000000d0: 57b1 5abe 2e60 6cbd 30a0 9a3c 3d79 b1bd
000000e0: 6086 4e3d e5f3 84bd 390a 423d 2cd2 24bd
000000f0: 75e3 5fbd ce56 9fbd 1bbd ebbd 8ac9 99bc
00000100: 5136 acbd 4df7 dfbd ecd4 813d c411 d93c
00000110: 790f 6ebd 0eca 07be b8c5 92bd c216 183b
00000120: 451f a53d b83b 53bd 42af abbd 5171 7f3c
00000130: 7999 12be 9cdf c8bd fdf9 fc3d 1b61 7cbc
00000140: 635f ac3d 653f 5fbd f123 db3b 142d fcbc
00000150: 9f49 7d3d 5dcd 54bd f7e0 ec3d 52a4 0c3e
00000160: c66a e2ba 2489 10be 1f87 853d a4e6 5abd
00000170: 77b2 c9bc f1e1 093d 47d1 093e 19ed a8bd
00000180: 5005 2ebd f4ac e23c 361f 393d 9e91 d33d
00000190: 0804 86bd 6af8 40bc 0d32 ce3d a9db 093e
000001a0: 9ba5 1f3e f6ae 0a3e 3ee7 ab3d d396 56bd
000001b0: b4e9 953d 1baf 19bc 3c52 943c def2 ff3c
000001c0: 2548 553d 6918 fc3c d434 e4bd 5edf 9a3c
000001d0: eada 703c 6abc d4bd 0206 49bd 4cfb 3dbe
000001e0: 4e6d cf3c f946 a93d 0a81 a33d 3728 4b3d
000001f0: ffa2 423d 6d98 80bc 5400 c8bd b9f3 d13d
00000200: 7574 0ebd 6331 253d 4002 66bb f4d9 b1bd
00000210: fae7 b7bb 8f9a fbbc 2318 12bd 5bfa 9b3d
00000220: 17b8 81bc 6c36 59bd b6b2 9abd 8d58 aebd
00000230: a3c2 223c 4443 af3c 879f 6bbd 62c6 6d3d
00000240: 9471 333c a5fa c8bd 1a5b 7f3c 8137 febc
00000250: 5920 b6bd 0ef4 d7bd 5bea 833d 826f a83d
00000260: 3797 a53b 7600 bd3d 3ca0 c73d f8f4 af3d
00000270: 14a6 d93d 15db ac3d 4e55 993d 14de de3d
00000280: 252b c53d 04f1 a73d 5ef3 06be 4e04 4c3c
00000290: cbf2 e3bd aa07 433b 2c78 02be 8a5a cfbd
000002a0: 47bf ae3d 3d11 d1bd 3d0b 87bd f9ed 493c
000002b0: f8c9 b0bd ea15 c63d 5e49 01bd c2bf af3b
000002c0: b521 7cbb 7bed a03d 4e4b 8dbc 4521 cebb
000002d0: 55b2 16be b63c 0abd cfb4 03bc 1671 9b3c
000002e0: e72e 6cbe f7f5 8dbd 6bde a83d bcbf 1ebe
000002f0: 01ea fd3c 5d50 2dbd 8311 dbbd e929 45be
00000300: be4b 81bd 2539 6abe 66ed debd cf2f 82be
00000310: 7d39 4abe cb9a 4dbe 482e 0cbe f8ab abbc
00000320: c798 81bd 9a51 e6bd 0a55 8e3d 33ce 81bd
00000330: 2773 373c b720 09be 60c4 843c 74aa 3dbd
00000340: 3bff 443d dba9 453d 04c1 8dbc 23ae 8bbd
00000350: fd91 1c3d aafd 043e b1b8 c33d 4c29 f13c
00000360: 2271 79bd 64f5 0a3e fefc 77bd 88a7 0e3e
00000370: 6cd8 033e 3130 583d bbcc cd3d eb3b 153e
00000380: 0a84 ef3d 7d74 52bc f2e6 a63a 61ac 213e
00000390: ed56 47be e4ff 47be 44ad f2bd 704e 2cbe
000003a0: 5d70 9c3c 27da 5bbc de2e 923d 2a5f 4ebc
000003b0: 9e01 26bd 5516 c5bc b947 893d 8eb0 f43d
000003c0: b4ae 26bd 7a63 9f3d 01c9 efbd 2ec0 91bd
000003d0: 4efe 153d feed 26bc 6e0d e939 08bc 0dbc
000003e0: 6a77 443c 5269 9a3d 2c11 373e f2eb 59bd
000003f0: c076 c2bd c55d aa3d c1da f13d dc3f 063e

lstm.weight_hh_l0 f4 [256, 64]
0.05856883 -0.04330588 -0.10547859 0.0037368697 -0.01708126 -0.011392793 -0.10113142 -0.013909533
-0.063735075 -0.06255933 0.094750814 0.0066732103 -0.058495738 0.103961945 0.1360872 -0.08230583
0.014495922 0.07045531 -0.03185318 0.116309315 -0.050016984 -0.060657073 0.013546142 -0.13007762
0.06479961 0.04877584 -0.053254265 0.059251305 0.12259352 0.07319545 -0.08385201 0.14876597
0.09382442 -0.04623908 0.051356286 -0.066835076 0.04180966 -0.021849353 0.0070711807 -0.119537964
-0.042689044 0.16580309 -0.06424959 -0.0024123155 -0.07693554 0.08281111 -0.11866604 0.0075515015
-0.0068821353 0.05226419 -0.011785906 0.0059105502 -0.049217455 -0.0801578 0.124421194 0.025871104
-0.032291245 -0.059511717 -0.06323079 0.020499751 -0.023850512 -0.084585406 0.13116342 0.022753797
-0.09202896 0.064404145 -0.055006027 -0.07437729 -0.07608057 -0.010791903 0.07205765 0.14285067
-0.13912728 -0.04028909 -0.07173413 0.05429406 -0.07385571 0.0936411 -0.0068182764 0.08907772
-0.119829 0.021744598 -0.05605799 -0.056143444 0.06022644 -0.006831056 0.087848425 -0.06915057
-0.11489399 -0.100427814 0.10413185 -0.03776464 0.07208861 0.097322606 -0.021889295 0.053728487
-0.07710503 0.0071787448 -0.14405131 0.13545573 0.12600267 0.057609208 0.011009082 -0.01987882
0.030802703 -0.13649665 -0.08563358 0.05367925 0.051306225 0.016162409 -0.004527825 -0.14263742
-0.12671736 0.092655495 -0.013791598 0.062962316 -0.036632046 0.02832832 0.040559657 -0.13186261
-0.09314432 0.10101406 0.09354295 -0.08724314 -0.06771764 -0.057062056 -0.02919118 -0.019262379
-0.010726656 0.020239709 -0.11415873 0.0400484 -0.12763043 0.0772359 -0.10011228 0.00094502064
-0.103512265 0.047453046 -0.029976489 0.06737697 -0.15566081 0.07352638 0.15689528 0.07149218
-0.08203268 -0.07988293 -0.14809972 0.008947239 0.041627325 0.0069148387 0.022197021 -0.14548546
-0.00949155 -0.1601942 0.032846875 0.0077399607 0.085801266 0.05327629 0.051441584 0.11787244
-0.069187015 -0.1353389 0.049917616 0.017348317 0.019315185 -0.029016685 -0.060281117 -0.085448004
-0.012802044 0.12007792 -0.050249137 -0.031130958 0.008589136 0.04636048 -0.02915053 0.028249864
0.012293458 0.101908796 0.07852777 0.055428658 -0.13029811 -0.035855006 0.04286566 -0.0856738
-0.012718692 0.06609686 0.12761968 -0.045777097 0.04774105 0.131225 0.020544497 0.06622697
0.02723685 0.042804647 -0.10711084 0.0014980412 -0.11370809 0.0046570543 0.08400431 0.09972867
0.009379568 -0.11178401 0.09592732 -0.06905307 -0.04336929 0.074078485 0.10082153 -0.19920152
0.0042708744 -0.04010068 -0.1651795 0.04791862 -0.022100583 0.00033640195 -0.059814945 0.040368266
-0.1305968 -0.15394835 0.026532948 0.05579115 0.07563657 0.10258982 -0.035328135 0.026538694
-0.01421483 -0.15280001 -0.028619392 0.062736064 -0.06918353 0.061709363 -0.003924747 0.069734
0.016717294 0.16932738 0.007211385 -0.12551756 -0.14979066 0.15751329 -0.17622104 -0.04036961
0.09176924 -0.048756555 -0.020342277 -0.013515687 0.11467086 -0.13465083 0.034879476 0.075188175
-0.034431305 0.15873037 -0.011961129 0.113314226 0.0054257344 -0.07087393 0.09497232 0.15007561
00000000: dfe5 6f3d 8261 31bd 2905 d8bd 45e6 743b
00000010: 00ee 8bbc d6a8 3abc fd1d cfbd cfe4 63bc
00000020: 8987 82bd 1b1f 80bd b70c c23d f2aa da3b
00000030: 3a99 6fbd 00ea d43d 715a 0b3e f68f a8bd
00000040: 4e80 6d3c e04a 903d 7b78 02bd 9433 ee3d
00000050: 9cde 4cbd 8d73 78bd a3f0 5d3c 1133 05be
00000060: a8b5 843d 2dc9 473d 2521 5abd 7fb1 723d
00000070: 5012 fb3d 7fe7 953d 9aba abbd 1b56 183e
00000080: 0427 c03d 3165 3dbd f85a 523d d4e0 88bd
00000090: 9b40 2b3d 6afd b2bc 5db5 e73b 52d0 f4bd
000000a0: b5da 2ebd 49c8 293e 4a95 83bd f017 1ebb
000000b0: 6190 9dbd df98 a93d 2e07 f3bd 9672 f73b
000000c0: 8983 e1bb fa12 563d ac19 41bc 4aad c13b
000000d0: 3e98 49bd c629 a4bd 8ad0 fe3d a3ef d33c
000000e0: d343 04bd 8fc2 73bd 257f 81bd 18ef a73c
000000f0: 2662 c3bc 1d3b adbd b44f 063e 2c66 ba3c
00000100: ae79 bcbd 52e6 833d 004e 61bd 1f53 98bd
00000110: 21d0 9bbd 86d0 30bc f692 933d 7247 123e
00000120: 6277 0ebe 2c06 25bd 58e9 92bd 7363 5e3d
00000130: aa41 97bd e8c6 bf3d d96b dfbb 616e b63d
00000140: e868 f5bd ba21 b23c 109d 65bd abf6 65bd
00000150: 00b0 763d 0dd7 dfbb e0e9 b33d d09e 8dbd
00000160: 8a4d ebbd 19ad cdbd 1443 d53d 18af 1abd
00000170: 31a3 933d 1351 c73d 2e51 b3bc 6712 5c3d
00000180: 3ee9 9dbd ad3b eb3b 3082 13be e8b4 0a3e
00000190: d806 013e a2f7 6b3d 705f 343c e8d8 a2bc
000001a0: f355 fc3c c7c5 0bbe a960 afbd c6de 5b3d
000001b0: 7a26 523d 0767 843c 265e 94bb 8b0f 12be
000001c0: 32c2 01be 2ac2 bd3d 28f6 61bc 63f2 803d
000001d0: 7c0b 16bd cb10 e83c e221 263d fe06 07be
000001e0: 73c2 bebd 76e0 ce3d 7293 bf3d 88ac b2bd
000001f0: 8caf 8abd e7b9 69bd 5722 efbc 23cc 9dbc
00000200: dbbe 2fbc bfcd a53c 0dcc e9bd cb09 243d
00000210: 8db1 02be db2d 9e3d ab07 cdbd 43bb 773a
00000220: 3dfe d3bd 205e 423d 4191 f5bc f0fc 893d
00000230: 8c65 1fbe 0095 963d 28a9 203e 7e6a 923d
00000240: c000 a8bd a999 a3bd 74a7 17be 7197 123c
00000250: 6a81 2a3d df95 e23b 87d6 b53c 24fa 14be
00000260: 7282 1bbc f309 24be 728a 063d 7f9f fd3b
00000270: 93b8 af3d 3d38 5a3d 69b4 523d 1b67 f13d
00000280: ecb1 8dbd 4896 0abe 6a76 4c3d 0f1e 8e3c
00000290: e13a 9e3c 66b4 edbc 55e9 76bd 5dff aebd
000002a0: aabf 51bc 6aeb f53d 0ad2 4dbd 5a06 ffbc
000002b0: 73b9 0c3c 7de4 3d3d 18cd eebc 426c e73c
000002c0: 806a 493c 8fb5 d03d 2bd3 a03d 2909 633d
000002d0: de6c 05be b3dc 12bd e793 2f3d bf75 afbd
000002e0: 1062 50bc ca5d 873d bcae 023e c480 3bbd
000002f0: 1f8c 433d d95f 063e ef4c a83c 01a2 873d
00000300: d01f df3c ed53 2f3d ee5c dbbd ec59 c43a
00000310: c9df e8bd 349a 983b 740a ac3d 8c3e cc3d
00000320: c2ac 193c 04ef e4bd 8b75 c43d b26b 8dbd
00000330: ffa3 31bd 76b6 973d 857b ce3d 7cfb 4bbe
00000340: b1f2 8b3b 9c40 24bd d124 29be 5146 443d
00000350: 480c b5bc 1b5f b039 8400 75bd 3259 253d
00000360: 2bbb 05be a3a4 1dbe a05b d93c 4385 643d
00000370: 59e7 9a3d 9d1a d23d 3cb4 10bd ad67 d93c
00000380: 51e5 68bc 9b77 1cbe 3773 eabc c47b 803d
00000390: 18b0 8dbd f5c2 7c3d 2a9b 80bb b3d0 8e3d
000003a0: b5f2 883c 2864 2d3e 7b4d ec3b ad87 00be
000003b0: b962 19be 2a4b 213e 4a73 34be 9b5a 25bd
000003c0: 83f1 bb3d f4b4 47bd d9a4 a6bc e670 5dbc
000003d0: 8ed8 ea3d e8e1 09be c8dd 0e3d 42fc 993d
000003e0: d707 0dbd 378a 223e 9cf8 43bc 4a11 e83d
000003f0: 5cca b13b 5a26 91bd d980 c23d 6cad 193e

lstm.bias_ih_l0 f4 [256]
0.030781304 -0.118714236 -0.08342609 0.1507771 -0.07945469 -0.010881593 -0.071234174 0.10926772
0.06646099 -0.050511185 0.122030206 0.14900042 0.021908164 -0.106202595 0.15321833 0.0790915
0.12902121 0.05243579 -0.08364911 0.0041235387 0.1288294 -0.048426554 -0.048586175 0.0027604226
-0.03108832 -0.11136182 0.038243566 -0.075921334 0.15082827 0.054447237 0.080139205 -0.04241449
0.03655197 -0.067726105 -0.051049937 -0.0029063146 -0.06421192 -0.0023218743 0.059634678 -0.11743335
-0.021348026 0.24395639 -0.058984745 -0.05985836 0.09250515 0.06158834 -0.04155615 0.15949963
-0.0923815 0.055049732 -0.045735884 -0.09460957 0.012839119 -0.05827257 0.0032367876 0.011046803
0.054440953 -0.11046913 0.020474304 0.049855217 0.11417322 -0.051327188 0.063068904 0.016742092
0.05868142 0.036719285 0.024837757 -0.009304277 -0.03096083 -0.13124165 -0.05546365 0.07408692
-0.088924825 -0.12741585 0.06029324 0.032668423 0.02112486 -0.100936376 -0.10529058 0.09209937
-0.043971013 0.055433244 -0.113259114 0.09222683 0.1142529 -0.10138893 -0.008913737 -0.04672362
-0.06745003 0.09683264 -0.0287838 0.068887256 0.0050228382 0.021793876 -0.15785135 0.04240186
-0.036648907 0.011626524 0.104989015 0.011498613 -0.06643849 -0.09145516 -0.034933764 -0.14522794
0.077790186 -0.052973267 0.028655676 -0.061765313 0.011094103 -0.06623535 0.06343481 -0.032822475
-0.02772502 -0.11508933 -0.10120171 -0.10003293 0.036695343 0.080736175 0.03400601 -0.023436677
0.025496894 -0.12623568 0.08390595 -0.071899004 -0.11918484 0.005969198 -0.15008846 0.02838643
0.03322736 -0.014475182 0.107192256 -0.010975384 -0.04628684 -0.09186049 0.03824729 -0.08693629
0.14100984 0.0028706498 -0.037755307 -0.18564358 -0.032752883 -0.119981624 -0.1685315 0.11823387
0.13289085 0.12359413 0.09818557 -0.0591408 0.18376379 0.11181543 -0.16795368 0.1700477
0.08283943 0.10646167 0.022664621 -0.033977136 -0.10718457 -0.044753607 0.05437023 0.048737776
0.013659635 -0.018614318 0.15968566 0.1545068 -0.1006079 -0.008751657 0.08649536 0.1056428
0.12632056 -0.17928894 0.15251084 0.1285106 0.1987654 -0.1760534 0.06315469 0.13638122
0.05017796 0.01831453 -0.056012675 -0.03928588 0.06840831 0.11680494 -0.021262517 0.012842587
0.040892053 0.057980143 -0.15906143 0.04698816 -0.14553823 -0.008066776 -0.16398726 -0.21699095
-0.028928105 0.020083152 0.073524244 -0.065298796 0.019900313 0.028222354 0.05218056 -0.08001154
0.22612008 -0.11190595 0.09485809 0.112543926 -0.02606657 0.07907332 0.020959845 -0.020638376
-0.0037298347 -0.034921445 -0.12393437 -0.0135201635 0.11926106 0.099149145 0.11011563 0.091709316
0.149147 -0.060443915 -0.15223794 0.05402973 -0.077698916 -0.029738897 0.13301346 0.12153743
0.1320989 0.044283483 -0.052078858 0.101481624 -0.11132997 -0.12061099 0.10800139 -0.14392443
0.09644676 0.055917203 0.097185895 -0.09100292 0.12723796 -0.03382486 -0.112627976 0.078789316
-0.06143492 0.12183227 -0.017639624 0.06843856 -0.13517483 0.021140479 0.13965158 0.048478786
0.10021887 0.0034389086 -0.09089618 -0.074072786 0.006143684 -0.0002241819 -0.008499084 0.0025882733
00000000: 1329 fc3c 7320 f3bd 4cdb aabd 5065 1a3e
00000010: 24b9 a2bd b648 32bc 39e3 91bd c1c7 df3d
00000020: b31c 883d d1e4 4ebd f9ea f93d 9193 183e
00000030: c078 b33c bf80 d9bd 44e5 1c3e b9fa a13d
00000040: 231e 043e e9c6 563d 3950 abbd c01e 873b
00000050: dbeb 033e ec5a 46bd 4c02 47bd 35e8 343b
00000060: efac febc aa11 e4bd 49a5 1c3d a57c 9bbd
00000070: ba72 1a3e 1104 5f3d 0620 a43d d1ba 2dbd
00000080: 85b7 153d fcb3 8abd bd19 51bd de77 3ebb
00000090: 8a81 83bd 962a 18bb 7e43 743d e580 f0bd
000000a0: 0ee2 aebc b4cf 793e fd99 71bd 0a2e 75bd
000000b0: 5773 bd3d 0e44 7c3d c836 2abd df53 233e
000000c0: 8332 bdbd d47b 613d 8d55 3bbd aac2 c1bd
000000d0: 2b5b 523c 38af 6ebd 4920 543b a6fd 343c
000000e0: 7afd 5e3d a43d e2bd bab9 a73c fc34 4c3d
000000f0: a6d3 e93d 753c 52bd 452a 813d b626 893c
00000100: ee5b 703d f666 163d 8d78 cb3c f770 18bc
00000110: 91a1 fdbc 3664 06be da2d 63bd e2ba 973d
00000120: 381e b6bd 4d79 02be 0bf6 763d 53cf 053d
00000130: 0b0e ad3c bbb7 cebd 96a2 d7bd 989e bc3d
00000140: f31a 34bd f80d 633d 65f4 e7bd 6ce1 bc3d
00000150: 6dfd e93d 00a5 cfbd ec0a 12bc 4461 3fbd
00000160: 3e23 8abd 3150 c63d 01cc ebbc c314 8d3d
00000170: 9f96 a43b 1289 b23c c9a3 21be 93ad 2d3d
00000180: 2a1d 16bd 2d7d 3e3c 7b04 d73d ae64 3c3c
00000190: e710 88bd d84c bbbd b516 0fbd a2b6 14be
000001a0: 7650 9f3d 7ffa 58bd 4fbf ea3c a0fd 7cbd
000001b0: 0ac4 353c 66a6 87bd 1cea 813d dc70 06bd
000001c0: 951f e3bc f4b3 ebbd d842 cfbd 11de ccbd
000001d0: db4d 163d 0259 a53d e349 0b3d 46fe bfbc
000001e0: ddde d03c ed43 01be e2d6 ab3d c93f 93bd
000001f0: 2e17 f4bd 4399 c33b cab0 19be a98a e83c
00000200: 6a19 083d 5029 6dbc 9d87 db3d 19d2 33bc
00000210: 4597 3dbd 5a21 bcbd 31a9 1c3d a70b b2bd
00000220: e264 103e 8321 3c3b 4fa5 1abd 5a19 3ebe
00000230: e327 06bd edb8 f5bd 8693 2cbe 9924 f23d
00000240: 8a14 083e eb1e fd3d 8415 c93d a03d 72bd
00000250: 932c 3c3e 7dff e43d 0dfc 2bbe fc20 2e3e
00000260: b8a7 a93d 9308 da3d 28ab b93c 9c2b 0bbd
00000270: 9583 dbbd 8f4f 37bd 51b3 5e3d 43a1 473d
00000280: a9cc 5f3c 0e7d 98bc a384 233e 0837 1e3e
00000290: 840b cebd 1c63 0fbc 7b24 b13d 415b d83d
000002a0: 2d5a 013e 8597 37be cd2b 1c3e 4898 033e
000002b0: 2889 4b3e 5847 34be 3f57 813d 85a7 0b3e
000002c0: 6887 4d3d 5a08 963c 8c6d 65bd 3bea 20bd
000002d0: a819 8c3d 6e37 ef3d bb2e aebc b769 523c
000002e0: 6d7e 273d 967c 6d3d 00e1 22be a876 403d
000002f0: f907 15be 832a 04bc 47ec 27be e032 5ebe
00000300: a2fa ecbc 6c85 a43c e193 963d 60bb 85bd
00000310: fb05 a33c 9132 e73c 48bb 553d 17dd a3bd
00000320: 068c 673e f22e e5bd f544 c23d 6e7d e63d
00000330: 8f89 d5bc 31f1 a13d fbb3 ab3c d011 a9bc
00000340: 3e70 74bb ca09 0fbd 4ed1 fdbd ad83 5dbc
00000350: 253f f43d b50e cb3d 4e84 e13d 18d2 bb3d
00000360: feb9 183e 0a94 77bd 43e4 1bbe 474e 5d3d
00000370: 9c20 9fbd fd9e f3bc ae34 083e 9ee8 f83d
00000380: ef44 073e 9962 353d a450 55bd 99d5 cf3d
00000390: f800 e4bd e502 f7bd d52f dd3d ed60 13be
000003a0: e185 c53d 7009 653d 6609 c73d bd5f babd
000003b0: ab4a 023e f08b 0abd 7fa9 e6bd 4b5c a13d
000003c0: 2fa3 7bbd 3283 f93d f980 90bc 8429 8c3d
000003d0: 456b 0abe cc2e ad3c d300 0f3e b191 463d
000003e0: 8d3f cd3d 505f 613b c727 babd 79b3 97bd
000003f0: f550 c93b 5f12 6bb9 be3f 0bbc 05a0 293b

lstm.bias_hh_l0 f4 [256]
-0.090063564 0.0015593291 -0.100460775 -0.04549936 0.038436 0.071665 0.11936188 -0.044529658
0.085770994 0.07172624 0.087583184 0.07890112 -0.07838005 0.07950779 0.085235454 -0.07794878
0.022526294 0.00835259 0.082390144 -0.014332267 0.15579332 0.10373122 0.124175586 0.05836142
0.13554199 0.019132016 -0.08241166 0.0006908115 0.14741883 0.032662604 0.17547043 0.03676408
0.14008565 0.052620817 -0.009395124 0.10060252 0.076642014 -0.054791704 0.028969776 -0.10094297
-0.05811382 0.028091306 -0.09419595 -0.03480929 0.011802328 0.12499847 0.059324462 -0.01558142
-0.07298236 0.058416095 -0.09934474 0.09334469 -0.07040682 0.08917863 0.10940361 0.017211242
0.09737653 -0.016997036 -0.036367916 -0.13396284 0.13511579 -0.10707267 0.005384638 0.11884105
0.12078783 0.014639512 0.07183305 0.09563361 -0.04601067 -0.04727587 -0.11280362 -0.018121542
-0.08957068 -0.020888431 -0.08405945 -0.09904578 -0.044820774 -0.06543809 -0.040780712 -0.06251313
0.064044 -0.06548271 0.021700708 0.018458575 -0.0196029 -0.070268385 -0.011490976 0.069608666
0.048377734 -0.01157821 5.601284e-05 0.006051378 0.06834497 0.0008748326 -0.010984492 0.0609199
-0.03186035 0.07996877 0.07663435 -0.116795264 0.043258414 -0.15091845 0.00072263 0.087453686
0.09240251 0.0411122 0.03278044 0.041629195 -0.12763844 -0.07437869 -0.113492936 0.024432242
-0.014885152 -0.09691366 -0.14011173 -0.12868516 0.05778933 -0.04537858 -0.03006925 0.09777181
0.10787608 -0.13750452 -0.07644634 0.035020147 -0.00047063077 0.053451207 0.029250788 -0.062416293
0.13590582 0.03774887 -0.038683616 -0.13752972 0.16062693 -0.009198575 0.047734175 -0.08114828
0.023252517 0.027301725 0.011818501 -0.17219524 0.14386867 0.012087067 -0.11739832 0.028967213
0.12830168 0.18839043 -0.0806878 -0.16118135 0.17890897 0.20178802 0.04354027 0.07421422
0.052122075 0.009770486 -0.14803694 -0.07112765 -0.07861199 0.046310157 0.08051099 -0.12808564
-0.11553795 -0.024997447 0.15478994 0.095237516 0.026076442 -0.11280391 0.07128581 -0.0078048636
0.15605064 -0.20054299 -0.002215712 0.04434808 0.049306888 -0.15706418 -0.091239735 0.12917314
0.05566126 0.0037999782 -0.05137766 -0.059703503 -0.0035047417 0.16781911 -0.18887879 0.12548484
-0.013205118 0.01685227 -0.0039675185 -0.03240294 -0.063386485 0.10675475 -0.035734702 -0.08673101
-0.1147495 -0.07681611 -0.00747983 -0.09554172 0.025507785 -0.020388559 0.06580936 0.0074159694
0.040050033 0.033208672 -0.043640256 0.0063090343 -0.0749223 -0.045563173 0.13618818 -0.01620391
-0.05746895 -0.051508524 -0.13634658 0.05057709 -0.008224198 -0.029199403 0.11976494 -0.03612391
0.14363088 -0.056642823 0.06567037 0.12216238 0.069077 -0.13925816 0.09430375 0.048491918
0.21927983 0.07528359 0.065037325 -0.031452253 0.011244494 0.042773798 0.11788825 -0.08169724
-0.0034990483 0.10128629 -0.113824435 0.13748689 0.10244952 -0.074025564 -0.04813904 0.05437198
0.12710649 -0.118065774 0.048342615 -0.017513758 -0.07983303 0.14447881 0.027641531 0.018564597
-0.084885545 0.098939754 0.1321562 -0.16017762 -0.1029025 0.07721698 0.0023653924 0.09709797
00000000: 3f73 b8bd 6762 cc3a 61be cdbd 895d 3abd
00000010: 116f 1d3d 19c5 923d 0074 f43d bb64 36bd
00000020: b4a8 af3d 35e5 923d d05e b33d e996 a13d
00000030: b885 a0bd fbd4 a23d ed8f ae3d 9ca3 9fbd
00000040: 1089 b83c 4dd9 083c 2abc a83d e3d1 6abc
00000050: 4988 1f3e 0971 d43d c54f fe3d 620c 6f3d
00000060: 85cb 0a3e bfba 9c3c 72c7 a8bd 9317 353a
00000070: f6f4 163e 39c9 053d 85ae 333e ef95 163d
00000080: 9d72 0f3e ed88 573d 02ee 19bc b208 ce3d
00000090: 7df6 9c3d 446d 60bd 0652 ed3c 30bb cebd
000000a0: c208 6ebd bd1f e63c cee9 c0bd 3094 0ebd
000000b0: 8d5e 413c 33ff ff3d 35fe 723d 3649 7fbc
000000c0: c777 95bd b745 6f3d 4175 cbbd 802b bf3d
000000d0: 7331 90bd 49a3 b63d 000f e03d 97fe 8c3c
000000e0: 596d c73d 5e3d 8bbc 86f6 14bd 8e2d 09be
000000f0: cb5b 0a3e ea48 dbbd 9e71 b03b f062 f33d
00000100: 9c5f f73d 90da 6f3c 351d 933d 8edb c33d
00000110: af75 3cbd 58a4 41bd 9605 e7bd a173 94bc
00000120: d570 b7bd 371e abbc 5c27 acbd 84d8 cabd
00000130: fd95 37bd 6804 86bd ad09 27bd e206 80bd
00000140: 8029 833d cd1b 86bd afc5 b13c 7036 973c
00000150: 4396 a0bc dfe8 8fbd a644 3cbc fd8e 8e3d
00000160: bb27 463d 88b2 3dbc 54ef 6a38 a34a c63b
00000170: 73f8 8b3d 0655 653a 4cf8 33bc 2587 793d
00000180: 0080 02bd abc6 a33d 78f2 9c3d 5b32 efbd
00000190: bc2f 313d 5e8a 1abe e16e 3d3a eb1a b33d
000001a0: 873d bd3d 4465 283d c844 063d 6083 2a3d
000001b0: a7b3 02be db53 98bd fc6e e8bd 2026 c83c
000001c0: dae0 73bc ab7a c6bd 7379 0fbe 0bc6 03be
000001d0: 81b4 6c3d e4de 39bd ca53 f6bc 963c c83d
000001e0: 22ee dc3d fccd 0cbe e68f 9cbd 4971 0f3d
000001f0: febe f6b9 a7ef 5a3d 599f ef3c 3aa8 7fbd
00000200: e52a 0b3e 8f9e 1a3d b672 1ebd 97d4 0cbe
00000210: 637b 243e 9fb5 16bc e984 433d 1231 a6bd
00000220: 107c be3c dea7 df3c 63a2 413c f353 30be
00000230: 4f52 133e d508 463c 886e f0bd a64c ed3c
00000240: 8461 033e 6ce9 403e a53f a5bd b90c 25be
00000250: ea33 373e 85a1 4e3e 4857 323d a0fd 973d
00000260: f57d 553d 6314 203c ff96 17be 60ab 91bd
00000270: 53ff a0bd b8af 3d3d f2e2 a43d e228 03be
00000280: 299f ecbd 72c7 ccbc 4181 1e3e e30b c33d
00000290: 439e d53c bd05 e7bd 4bfe 913d f1bf ffbb
000002a0: bdcb 1f3e 245b 4dbe 7b35 11bb 55a6 353d
000002b0: 05f6 493d 6fd5 20be e6db babd f745 043e
000002c0: 10fd 633d 0e09 793b 6271 52bd a98b 74bd
000002d0: cfaf 65bb c6d8 2b3e 7169 41be 197f 003e
000002e0: 475a 58bc c60d 8a3c f501 82bb f2b8 04bd
000002f0: c6d0 81bd 3ca2 da3d 8d5e 12bd 07a0 b1bd
00000300: c901 ebbd c451 9dbd 5d19 f5bb 61ab c3bd
00000310: b4f5 d03c e805 a7bc 0fc7 863d a901 f33b
00000320: 810b 243d d105 083d 20c0 32bd 04bc ce3b
00000330: dd70 99bd 73a0 3abd ea74 0b3e 10be 84bc
00000340: 9064 6bbd 9afa 52bd 709e 0bbe ec29 4f3d
00000350: c9be 06bc 9633 efbc 5247 f53d aaf6 13bd
00000360: f913 133e 4e02 68bd 307e 863d 4530 fa3d
00000370: 3e78 8d3d b199 0ebe 5322 c13d 769f 463d
00000380: e48a 603e 482e 9a3d 4a32 853d 14d4 00bd
00000390: d33a 383c 9433 2f3d 656f f13d e250 a7bd
000003a0: 4a50 65bb 306f cf3d c91c e9bd 5dc9 0c3e
000003b0: 0ed1 d13d b79a 97bd 712d 45bd 27b5 5e3d
000003c0: 3428 023e 78cc f1bd e802 463d 0379 8fbc
000003d0: 807f a3bd 41f2 133e 7e70 e23c c814 983c
000003e0: 79d8 adbd eda0 ca3d f453 073e 9a05 24be
000003f0: 8cbe d2bd f023 9e3d b304 1b3b 4ddb c63d

output_layer.weight f4 [1, 128]
-0.055440918 0.05170057 0.024737773 -0.01706961 0.08756601 -0.08037358 0.077456295 -0.089633994
0.0924495 0.05880954 -0.03855173 -0.033596206 0.027268136 -0.053296305 0.013777912 -0.01053269
0.07838929 0.06280825 -0.029421391 0.0005126087 0.023951983 0.112210825 -0.059650127 0.04550109
0.08861013 0.050135296 -0.0016937408 -0.027592193 -0.09856988 -0.03432564 0.06533408 -0.11165437
-0.16475965 0.09188821 0.099264205 0.010544425 -0.0068291575 -0.059025973 0.08005059 -0.009603105
0.090968065 -0.10363939 0.06274068 0.065664396 0.056558628 -0.10846026 -0.042747796 0.07352296
0.10199746 -0.019391214 -0.040773995 -0.024717094 0.001715871 0.11880057 0.034293946 0.04948364
-0.098088406 0.061797496 -0.118184365 -0.027312685 -0.053769737 0.018442966 -0.11283083 -0.09227328
0.10816473 -0.006194983 0.04047895 -0.0802705 0.06504098 -0.09069621 -0.02539893 -0.07670011
0.11258239 -0.009980194 -0.04009033 -0.05679857 0.09317853 0.013187298 -0.0923148 0.064668626
0.06130622 0.07374009 0.04119524 -0.10785781 0.110529765 -0.012702389 -0.105822936 0.06293956
0.09932859 0.015670035 -0.05365601 -0.015086785 -0.05873014 -0.025666406 0.04532892 0.002287714
-0.054856636 0.049544502 0.03307948 0.080481894 -0.009237136 -0.030058928 -0.027632313 0.039541703
0.056441404 -0.073569484 0.063614026 0.038531583 0.037202526 -0.102230914 -0.006827274 0.11064291
0.007066874 -0.05179647 -0.018819999 0.006685803 0.033650756 -0.05867906 -0.11586608 0.03874211
-0.008292598 -0.0007753965 0.0027150258 -0.022350613 -0.080809556 0.035312552 -0.11863281 -0.032709822
00000000: 0416 63bd fac3 533d dfa6 ca3c 91d5 8bbc
00000010: cf55 b33d e79a a4bd 68a1 9e3d 0792 b7bd
00000020: 2a56 bd3d 46e2 703d 6be8 1dbd 2d9c 09bd
00000030: 6d61 df3c 3a4d 5abd c0bc 613c 4e91 2cbc
00000040: 908a a03d 9da1 803d 2105 f1bc 9660 063a
00000050: f336 c43c cace e53d b153 74bd 5a5f 3a3d
00000060: 3a79 b53d ab5a 4d3d 8300 deba 0609 e2bc
00000070: 01df c9bd 0b99 0cbd e0cd 853d 0cab e4bd
00000080: c1b6 28be e32f bc3d 084b cb3d 86c2 2c3c
00000090: 20c7 dfbb 38c5 71bd 90f1 a33d 5756 1dbc
000000a0: 774d ba3d e340 d4bd 307e 803d 0e7b 863d
000000b0: 05aa 673d 6a20 debd 5018 2fbd 3593 963d
000000c0: 0be4 d03d 53da 9ebc a202 27bd 817b cabc
000000d0: 14e7 e03a b74d f33d cf77 0c3d 5baf 4a3d
000000e0: 93e2 c8bd 5f1f 7d3d a50a f2bd dabe dfbc
000000f0: a83d 5cbd b415 973c da13 e7bd c6f9 bcbd
00000100: 7885 dd3d 49ff cabb 41cd 253d dc64 a4bd
00000110: 3534 853d efbe b9bd 6b11 d0bc f314 9dbd
00000120: 9991 e63d f883 23bc c235 24bd 9ea5 68bd
00000130: 63d4 be3d 890f 583c 8b0f bdbd fc70 843d
00000140: 3b1c 7b3d 0b05 973d 57bc 283d 8ee4 dcbd
00000150: 6e5d e23d ae1d 50bc b2b9 d8bd 75e6 803d
00000160: ca6c cb3d 725e 803c 68c6 5bbd 902e 77bc
00000170: 048f 70bd 5b42 d2bc d1aa 393d 79ed 153b
00000180: 5ab1 60bd 2def 4a3d 597e 073d b1d3 a43d
00000190: 5b57 17bc 243e f6bc 295d e2bc 7bf6 213d
000001a0: 1a2f 673d 99ab 96bd 1248 823d 4bd3 1d3d
000001b0: ad61 183d 715e d1bd 53b7 dfbb c098 e23d
000001c0: 3c91 e73b 8928 54bd 662c 9abc 9514 db3b
000001d0: 60d5 093d 7459 70bd 324b edbd 0cb0 1e3d
000001e0: addd 07bc fa43 4bba 93ee 313b a218 b7bc
000001f0: 7b7f a5bd e5a3 103d c2f5 f2bd bcfa 05bd
