barents_states/tas_0.001_64_Adam_L1Loss_[].pt (torch, 76695 bytes, 5 tensors)

lstm.weight_ih_l0 f4 [256, 6]
000000 8a 2e 38 3d 59 34 f9 bd 9a 3c 02 3e 12 db a5 3d
       0.044966258 -0.12168188 0.1271843 0.08098425
000010 96 59 d6 bd 75 02 8b bd 35 db ae bd 6a f5 74 3d
       -0.10466306 -0.06787578 -0.08537904 0.059804358
000020 30 b7 d5 3c f4 6d a5 3d 60 b8 f8 3d bc cf b0 bd
       0.026088327 0.080776125 0.12144542 -0.08633372
000030 1a eb b5 bd b0 c6 12 3d 19 69 4f bd 09 21 a0 3d
       -0.08882733 0.035834014 -0.05063734 0.07818801
000040 94 e8 4b bd 68 aa ab bd 91 63 b9 bd 3c 44 25 3d
       -0.04978235 -0.08382112 -0.09052194 0.040348276
000050 1e 51 6d bc ae 34 ff bd 67 0a 95 3d 58 3e fa bd
       -0.014484672 -0.1246122 0.07277375 -0.122189224
000060 69 d9 7c 3d f1 e8 02 bd 6b a7 1d be e4 e0 04 be
       0.061730776 -0.03196043 -0.15395896 -0.12976414
000070 5e 12 21 bd 0f e7 94 3d da fc 46 3c 1e 8c 30 bd
       -0.039324157 0.072706334 0.012145245 -0.043102376
000080 3e 2d 8b 3d b5 0c c1 bc 4d 8b 92 bd 96 21 81 bd
       0.06795739 -0.02356563 -0.07155476 -0.06305234
000090 7a 5b 14 bd 37 b7 8a bd fa 0d 6f 3d 0c 5d 13 bd
       -0.03622005 -0.06773227 0.05836294 -0.03597741
0000a0 45 6a ba bd 24 0a 9d bd 0f 27 f0 3d 16 41 71 3c
       -0.091023006 -0.0766795 0.117262 0.01472499
0000b0 3d ad 50 3d 6f 34 11 bd 4e 13 2e 3c 47 7d e7 bd
       0.050946463 -0.035450395 0.01062472 -0.11303192
0000c0 e1 02 fd bd a7 09 05 be 26 88 f1 3c 62 51 2a be
       -0.12354065 -0.12991963 0.029483866 -0.16632608
0000d0 a5 f7 0a be d4 cb 6c 3c fc c1 da 3b eb 82 d1 bd
       -0.13571031 0.014452893 0.006675957 -0.10230049
0000e0 ae 63 13 3d 0a 17 7d bd 13 74 d5 3c ec 5b 22 bd
       0.035983734 -0.06178955 0.026056325 -0.039638445
0000f0 7b e3 1f 3e fb 6a 6f 3d a8 2b 1d bc 61 51 80 3d
       0.1561412 0.058451634 -0.009592928 0.06265522
000100 d5 28 ea 3d c2 a6 1e ba b1 84 95 3d a4 49 08 3d
       0.11433569 -0.00060520705 0.073006995 0.033273354
000110 a1 c1 83 bd 90 be 0a be a6 2c 9a bd 79 d7 0f 3c
       -0.06433416 -0.13549256 -0.07528047 0.0087794
000120 32 69 d6 3d 73 59 d1 bc cb 8d 87 bd bd 5e ce 3c
       0.10469283 -0.025555348 -0.06618842 0.02519166
000130 22 cc e8 bd ef 38 8c bd 66 cd 38 3e c1 da e9 3c
       -0.1136706 -0.06846797 0.18047103 0.028546693
000140 b1 2a 32 3d ac a0 91 bd 98 1b 0a 3d 49 24 73 bc
       0.043497745 -0.07110724 0.03371772 -0.014840194
000150 ac 6e a2 3d 52 dc 45 bd 41 ad e5 3d 7c cb ce 3d
       0.07931265 -0.048305817 0.11214686 0.10097405
000160 7f 2b 27 bc 4c b4 32 be 16 7c ac 3d 22 46 0d bd
       -0.010203241 -0.1745159 0.08422105 -0.034490712
000170 69 38 89 bc 73 a3 23 3c 75 48 03 3e 45 48 db bd
       -0.016750531 0.0099877 0.12820609 -0.10707144
000180 80 24 45 bd 06 11 cc 3c 00 b9 25 3d 5f 15 e2 3d
       -0.048130512 0.024910461 0.040459633 0.110392325
000190 b3 3c 89 bd 06 49 ab 3a 3d e2 e7 3d 7f eb 10 3e
       -0.067010306 0.0013068027 0.113224484 0.14152335
0001a0 17 07 01 3e 35 97 f3 3d 9d 0e 88 3d fd 3a 8a bd
       0.12600361 0.11894075 0.06643412 -0.06749532
0001b0 70 bd b1 3d 07 66 87 3c f8 bf 30 3d ec 63 2c 3d
       0.086787105 0.016528143 0.043151826 0.04208748
0001c0 eb 8c 92 3d d4 8f 96 ba 5a e4 c9 bd 5a 9b 00 3d
       0.07155784 -0.0011486956 -0.09858008 0.031398155
0001d0 b5 74 c5 3c d9 d3 d6 bd 80 85 20 bd 00 02 34 be
       0.024103502 -0.104896255 -0.039189816 -0.17578888
0001e0 9b 45 07 3d 6c 50 bf 3d a4 8e a9 3d 4b b1 54 3d
       0.033025365 0.09341511 0.0827916 0.051926892
0001f0 31 12 51 3d 10 54 1d bb df c9 bb bd 8e 49 d1 3d
       0.05104274 -0.0024006404 -0.09169363 0.102191076
000200 e2 a4 35 bd c3 6d 7e 3d 50 72 aa 3b 74 1a 3e bd
       -0.044346698 0.062116396 0.0052016154 -0.046411946
000210 9f 92 9c bb 7e b8 d1 bc c7 74 1c bd 36 79 a1 3d
       -0.004778221 -0.025600668 -0.038197305 0.07884447
000220 cc ac 76 bc 5a 7b 2b bd f7 3e 97 bd 68 4a a5 bd
       -0.015055846 -0.041865684 -0.073850565 -0.080708325
000230 af d7 35 3a d5 7c 90 3c 86 91 77 bd e9 41 85 3d
       0.00069367414 0.01763765 -0.060441516 0.06506712
000240 b8 75 e7 3c a4 6c 6d bd d6 70 88 3d f0 3d 2e 3d
       0.028254375 -0.057964936 0.06662147 0.042539537
000250 6a 8e 23 bd db 05 56 bd c1 3c 5e 3d 25 90 af 3d
       -0.03993074 -0.052251678 0.05425716 0.08572415
000260 4e 35 83 bc 64 ed a4 3d 96 18 be 3d a5 10 d5 3d
       -0.016016629 0.08053091 0.09282033 0.10403565
000270 3a cc 90 3d a8 d5 26 3d 82 17 ae 3d 98 ca 18 3e
       0.07070203 0.040731102 0.085005775 0.14921033
000280 56 50 eb 3d bc 4f 5c 3d d1 31 0d be 5d 5a 31 3c
       0.11489932 0.053786978 -0.13788535 0.010824767
000290 9c f2 0a be f8 1b 49 bc 4b 9a 01 be ee 68 c0 bd
       -0.1356911 -0.012274735 -0.12656514 -0.09395014
0002a0 88 28 af 3d 5c 28 d3 bd 97 e6 d4 bd bb e6 9a bc
       0.085526526 -0.10310432 -0.10395544 -0.018908849
0002b0 32 0d ee bd d2 31 94 3d 84 c1 91 bb 29 5f 10 3c
       -0.116236106 0.07236065 -0.0044481177 0.00881175
0002c0 83 f1 ad 3a 0e 44 97 3d 09 c4 fe bc 30 d1 b7 bc
       0.0013270829 0.07386027 -0.031099336 -0.022438616
0002d0 6f 66 f9 bd c3 20 41 3c d3 63 ba 3c f3 32 85 3d
       -0.12177741 0.011787596 0.022752678 0.065038584
0002e0 41 b7 3d be cd 08 9b bc 6f 0b d3 3d 7b fb 0d be
       -0.18526937 -0.018925095 0.10304915 -0.13865463
0002f0 0d 2c 7d 3d aa f9 27 3c 74 02 b2 bd 1e 9d 1d be
       0.06180959 0.010252396 -0.08691874 -0.15391967
000300 b1 25 cb 3d 30 49 cd bd 2b 9c 0c 3e fd 99 94 bd
       0.099192984 -0.10023725 0.13731448 -0.072559334
000310 48 21 b5 bc b0 ca e4 bd 54 03 24 be 85 07 de bc
       -0.022110596 -0.11171472 -0.16016895 -0.027103195
000320 8e 87 8a bd 84 3e ca bd 98 42 8b 3d fc 09 32 bd
       -0.06764136 -0.09875205 0.06799811 -0.043466553
000330 3d 44 e5 3c 34 fa 05 be b4 18 01 3c 6b a5 31 bd
       0.02798664 -0.13083726 0.007879425 -0.043370645
000340 1a 17 39 3d 0f da 83 3d d8 f6 46 bc 26 22 98 bd
       0.045188047 0.06438076 -0.012143813 -0.07428388
000350 67 6e e6 3c a5 e4 06 3e 81 4f 96 3d c6 59 4c bc
       0.028128816 0.13173158 0.07339383 -0.0124725755
000360 f7 de 91 bd 67 0e f9 3d 41 43 9e bd 34 74 02 3e
       -0.07122605 0.1216095 -0.077276714 0.1273964
000370 70 fc e4 3d f0 59 23 3d c7 ed ac 3d 59 16 1a 3e
       0.11180961 0.039880693 0.0844379 0.15047587
000380 c7 72 04 3e 9e f8 c3 3b 94 f4 a8 3c 27 41 2c 3e
       0.12934409 0.005980565 0.020624436 0.16821729
000390 62 57 92 be 31 47 28 be 5d f8 b9 bd d2 60 cd bd
       -0.28582293 -0.16433407 -0.09080575 -0.10028233
0003a0 84 19 78 3d 12 8d 7b 3d 47 35 84 3d 18 ae a7 bc
       0.06057121 0.061413832 0.06455474 -0.020468757
0003b0 1f 11 44 bd ca e8 29 bd f7 8b 69 3d 68 b5 e8 3d
       -0.04786789 -0.04148177 0.057018247 0.113627255
0003c0 9e 2f 37 bd 38 11 97 3d f7 98 08 be da 4c a0 bd
       -0.044723146 0.07376331 -0.13339601 -0.07827158
0003d0 ee 68 df 3c 75 96 b3 bb f7 0c 2e bb 2b e1 e7 bc
       0.027271714 -0.0054805824 -0.002655802 -0.02830561
0003e0 ea 8c 84 bc 67 59 88 3d ab 8f 36 3e 7e bc dd bb
       -0.016180474 0.06657677 0.17828242 -0.006766855
0003f0 f0 28 d7 bd cb d9 a4 3d 52 23 b4 3d b0 54 eb 3d
       -0.10505855 0.08049353 0.08795799 0.11490762

lstm.weight_hh_l0 f4 [256, 64]
000000 bd 70 78 3d 89 f4 4a bd f6 fb e3 bd f9 73 5b 3a
       0.06065439 -0.049549613 -0.11132042 0.0008371468
000010 a9 39 5a bc fb c7 2f bc 8f a0 bb bd c5 2f 98 bc
       -0.013319411 -0.010728831 -0.091614835 -0.018577466
000020 58 ab 7f bd 5e f7 7c bd b4 54 15 3d 81 39 ef 3a
       -0.062419266 -0.061759345 0.036457732 0.001825139
000030 22 a6 40 bd 67 0a d5 3d ff 39 0f 3e 02 ca a2 bd
       -0.047033437 0.10402375 0.13986968 -0.07948686
000040 d7 ad 94 3c 1e 0e 8d 3d ff 02 e6 bc e1 fb e5 3d
       0.0181493 0.06887458 -0.0280776 0.11229683
000050 e7 53 3b bd 12 47 61 bd 1e e4 17 3c 06 c0 fb bd
       -0.045734312 -0.05499942 0.009270696 -0.12292485
000060 d3 3c 91 3d c2 9f 5a 3d 9d 8a df bc 96 a7 73 3d
       0.070916794 0.053375013 -0.027287776 0.059485994
000070 ae 63 f7 3d 00 a6 86 3d 2d 29 a2 bd c2 59 10 3e
       0.12079559 0.06574631 -0.0791801 0.1409674
000080 7f 02 bb 3c e8 fc 33 bd 83 2e 5d 3d 7e c8 84 bd
       0.022828339 -0.043942362 0.053999435 -0.06483553
000090 b3 05 1a 3d 36 68 3b 3b 30 23 ea 3b ef 72 f5 bd
       0.03760309 0.002859605 0.007145308 -0.119848125
0000a0 dd 3b 1b bd f3 1f 2d 3e 4b 34 74 bd a4 5c b6 ba
       -0.037898887 0.16906719 -0.059620183 -0.0013913107
0000b0 7d 54 94 bd 32 2c 9f 3d 9b 61 e8 bd 1c e7 49 3c
       -0.07242677 0.077721015 -0.11346742 0.012323167
0000c0 15 1b c4 bc b9 31 49 3d f1 81 48 bc d0 32 08 3b
       -0.023938695 0.049119685 -0.012238012 0.002078224
0000d0 a5 ec 76 bd b8 c9 97 bd a7 98 f8 3d f5 52 ec 3c
       -0.060284276 -0.07411522 0.12138491 0.02884815
0000e0 aa 4a 19 bd 22 cc 88 bd f5 2c 8e bd ce 1f 2d 3d
       -0.03742472 -0.0667956 -0.069421686 0.04226666
0000f0 4f a2 dd bc 16 52 cf bd 2b bb fa 3d 27 1f f6 3c
       -0.027054934 -0.101230785 0.12242731 0.030044151
000100 42 71 de bd ea 20 81 3d a2 f7 8b bd 56 21 59 bd
       -0.10861446 0.06305106 -0.068343416 -0.053010307
000110 60 c4 bc bd 29 9e 85 3c 7a d7 4e 3d e2 49 28 3e
       -0.09217143 0.016310768 0.050498463 0.16434434
000120 03 40 02 be 27 46 82 bd 13 bb e8 bd 60 17 95 3d
       -0.12719731 -0.06361037 -0.113638066 0.07279849
000130 f4 df af bd e5 f2 f1 3d f9 a0 96 3c e3 13 8b 3d
       -0.085876375 0.118139066 0.018387305 0.067909025
000140 5e 88 0e be 28 82 58 3c 6c a0 9b bd bb b5 1f bd
       -0.13919207 0.013214625 -0.075989574 -0.03899167
000150 b7 5a 3d 3d a5 15 c8 bc ec f1 d8 3d c6 d1 b4 bd
       0.04622909 -0.024424383 0.10593018 -0.088290736
000160 3d 97 08 be 0f 55 ee bd ae bc df 3d ad fc 6b ba
       -0.13338943 -0.116373174 0.1092466 -0.000900219
000170 ec 7b ce 3d ae 9e c6 3d 43 ff 35 bd 58 cb 89 3d
       0.1008223 0.096982345 -0.04443289 0.06728238
000180 c8 44 f0 bd 55 91 59 bc 70 8f 27 be 0a eb 0b 3e
       -0.11731869 -0.013279279 -0.16363311 0.13663879
000190 61 7a 0d 3e d4 e5 5d 3d 2a 8a 29 bc 9f 51 f1 bc
       0.13816215 0.05417426 -0.010347882 -0.029457865
0001a0 c9 3e 16 3c 05 50 06 be fb 15 e9 bd a4 cb 23 3d
       0.009170243 -0.13116463 -0.113811456 0.03998913
0001b0 fd d6 f4 3c 92 51 14 3d 4a b8 e7 bc 08 c8 26 be
       0.02988767 0.036210604 -0.028286118 -0.16287243
0001c0 f5 27 fa bd de b0 df 3d 78 27 68 bb 22 4c 18 3d
       -0.122146524 0.109224066 -0.0035423916 0.03718198
0001d0 e3 ef 24 bd ff ce a9 3b a1 bb 6e 3d e1 10 19 be
       -0.040267836 0.0051821466 0.058284406 -0.14947845
0001e0 1b 1b 98 bd f3 2f ce 3d ad 2e f0 3d ff b6 b4 bd
       -0.07427045 0.10067739 0.11727653 -0.08823966
0001f0 03 06 3c bd 28 05 5d bd 74 ad 92 bc bc 58 6f bb
       -0.04590417 -0.053959996 -0.017904975 -0.0036521396
000200 b9 e0 a1 bb 6e 16 bd 3c 39 90 e6 bd f3 bc ea 3c
       -0.004940119 0.023081984 -0.11257977 0.028654551
000210 a4 91 ee bd 4d cf 53 3d c6 e3 83 bd 1e b0 91 bc
       -0.116488725 0.05171137 -0.06439929 -0.017784175
000220 22 38 8b bd 24 69 76 3d 04 63 bf bd 24 f4 74 3d
       -0.06797816 0.060158864 -0.093450576 0.059803143
000230 7b 62 f9 bd ec 6a 49 3d 85 f0 fa 3d 02 ad aa 3d
       -0.12176987 0.049174234 0.12252907 0.0833378
000240 f3 38 8b bd f2 a1 8f bd c4 e7 03 be a0 b8 fb bb
       -0.067979716 -0.070133105 -0.1288138 -0.007681921
000250 4e 14 56 3d e4 6b b0 3c 88 d9 17 3c 19 1e 05 be
       0.052265458 0.021535821 0.009268172 -0.12999763
000260 10 3b 6a 3c 4d c3 0a be 3f 55 48 3d 96 00 8c bc
       0.014296308 -0.13551064 0.048909422 -0.017090123
000270 46 13 5b 3d fa 23 3a 3d 59 57 9d 3d 4b e0 db 3d
       0.053485177 0.045444466 0.07682676 0.1073614
000280 6e b2 22 be 47 20 f6 bd ab d1 8e 3d e3 e8 cc 3c
       -0.15888378 -0.12017875 0.06973585 0.025013393
000290 f9 df a9 3c 88 9d b9 bc 98 d0 53 bd 61 1c bb bd
       0.020736681 -0.022658125 -0.051712602 -0.09136272
0002a0 b2 04 30 bb 12 62 c9 3d d1 51 80 bc 95 3b 98 bc
       -0.0026858267 0.098331586 -0.015664013 -0.018583098
0002b0 63 fa 04 3d 04 6a c9 3c 38 bc 9e bc 2e de 31 3d
       0.03246535 0.024586685 -0.01937686 0.043424778
0002c0 15 8d e7 3b 20 8d c5 3d 15 31 82 3d d2 57 8c 3d
       0.007066379 0.09646058 0.06357018 0.06852688
0002d0 fc f4 0f be 6b e5 ac bc f6 3c 06 3d 78 72 94 bd
       -0.14058298 -0.021105489 0.03277298 -0.07248396
0002e0 76 a2 c4 bc c4 24 9c 3d 41 f8 df 3d 59 e4 03 bd
       -0.024003249 0.076242 0.109360225 -0.03220019
0002f0 62 29 80 3c 1f f6 fd 3d 98 cf 7b bc c0 d6 5c 3d
       0.015644733 0.124004595 -0.015369318 0.05391574
000300 18 a9 f0 3c 64 c1 29 3d cd d9 e0 bd 05 8a 0d bb
       0.029377505 0.041444197 -0.10979042 -0.0021597159
000310 40 24 e1 bd 8c 45 48 3a 53 56 c5 3d 8c b1 c4 3d
       -0.10993242 0.0007639758 0.09635606 0.09604177
000320 1a ad ac 3c 02 8c dc bd 8e 6c b7 3c 3d a6 92 bd
       0.021078635 -0.10768892 0.02239063 -0.07160614
000330 33 73 bf bc 9f d9 8c 3d 6a c6 d4 3d b8 53 47 be
       -0.023370361 0.068774454 0.10389407 -0.1946553
000340 54 4f f7 3b 51 f8 20 bd 1c 82 26 be 0a bd 32 3d
       0.0075472984 -0.039299313 -0.1626057 0.043637313
000350 bc ea a0 bc 19 bb 6c 3b 23 02 83 bd ad 00 43 3d
       -0.01964318 0.003612226 -0.06396892 0.047608066
000360 a4 1b ef bd 97 9f 15 be 1e 57 8d 3d 38 ab 6d 3d
       -0.11675194 -0.1461166 0.06901382 0.058024615
000370 f3 69 85 3d a3 83 aa 3d c0 f1 02 bd 8f 9b 82 3c
       0.06514349 0.08325889 -0.031968832 0.015943317
000380 45 6e cb bd 20 e2 17 be 2e c8 cd bc 18 9d 84 3d
       -0.099331416 -0.14832354 -0.025119867 0.06475276
000390 18 a3 8f bd 5f 1d b7 3d c3 55 30 bc e1 08 8b 3d
       -0.070135295 0.08941149 -0.010762635 0.06788803
0003a0 31 09 96 3c e6 de 30 3e a7 58 82 3c 79 41 fb bd
       0.01831493 0.17272529 0.015911413 -0.12268347
0003b0 3a f5 16 be bf d2 1c 3e 35 7d 31 be d7 65 13 bd
       -0.14741984 0.15314768 -0.17332919 -0.035985794
0003c0 61 b3 9c 3d 5a 68 5a bd 1e d4 d4 bc c7 7d 74 bc
       0.07651401 -0.053322174 -0.025980052 -0.014922566
0003d0 16 13 c9 3d 58 c6 03 be 3d cc 01 3d 37 74 a3 3d
       0.098180935 -0.12868631 0.031688917 0.079811506
0003e0 61 d0 2f bd 8d 61 14 3e 8f 8f 8f bc e5 99 0c 3e
       -0.042923335 0.14490338 -0.017524509 0.13730581
0003f0 61 db 2f ba e2 84 bf bd 90 6c 9d 3d ed c1 22 3e
       -0.000670841 -0.09351517 0.07686722 0.1589429

lstm.bias_ih_l0 f4 [256]
000000 23 0b 1c 3d d1 9d fd bd 16 7e 85 bd a5 f1 23 3e
       0.03809656 -0.12383617 -0.065181896 0.16010149
000010 66 9f 99 bd 43 73 b9 bb 88 34 a3 bd e8 cb e8 3d
       -0.07501106 -0.005659492 -0.07969004 0.11367017
000020 08 69 81 3d c7 f0 21 bd 90 18 2a 3e bd 39 1e 3e
       0.06318861 -0.039536264 0.16610932 0.15451713
000030 88 e1 d8 3c 95 76 c1 bd 41 2c 42 3e 67 28 c2 3d
       0.02647473 -0.09446446 0.18962194 0.094803624
000040 8a d1 09 3e 78 a4 40 3d fa e6 a4 bd 9d 66 33 3c
       0.13458839 0.04703185 -0.08051868 0.010949758
000050 12 ca 04 3e d1 5a 50 bd 02 4c 36 bd 7b e7 47 3b
       0.12967709 -0.05086786 -0.04450608 0.0030502963
000060 57 be 47 bd 03 ed df bd a3 a6 9b 3d c4 02 77 bd
       -0.048765507 -0.10933878 0.07600143 -0.060305372
000070 47 bb 1e 3e 42 25 19 3d 56 20 89 3d ec 10 96 bd
       0.15501128 0.037389047 0.06695621 -0.07327446
000080 65 0f f1 bd 47 1d 7c bd e2 49 56 bd dd 57 c9 ba
       -0.117705144 -0.06155136 -0.052316554 -0.0015361268
000090 9a c7 4f bd 21 16 1c 3c bf 44 b1 3d 9e 73 da bd
       -0.050727464 0.00952676 0.086556904 -0.106665835
0000a0 f0 37 25 bc 43 e0 86 3e 57 f6 51 bd 16 d5 5e bd
       -0.010084137 0.26342973 -0.05126032 -0.054402433
0000b0 31 5a ce 3d 53 9b 83 3d 76 8c 0b bd 90 89 29 3e
       0.100757964 0.0642611 -0.0340695 0.16556382
0000c0 13 5d af bd 92 a8 85 3d a1 3f 49 bd 31 e2 8e bd
       -0.085626744 0.06526293 -0.049132947 -0.06976736
0000d0 7d 30 a8 3c ab bd 16 bd c1 64 b7 3b 52 c1 69 3c
       0.020530934 -0.036801975 0.0055967276 0.014267283
0000e0 5d 3d 2e 3d 52 dd bf bd b3 1c f2 3c 48 dc 67 3d
       0.04253899 -0.093683854 0.0295547 0.05660656
0000f0 2d 1c f9 3d 8a 51 51 bd 07 a6 23 3d b2 99 2d 3d
       0.12163577 -0.051103152 0.039953258 0.042382903
000100 eb ca 84 3d fa 3a 0d 3d e1 f0 9f 3c 31 24 be bb
       0.06484016 0.034480073 0.01952404 -0.005802654
000110 6c 40 eb bc b0 8d fa bd 5b 08 93 bd 7c 1a 99 3d
       -0.028717242 -0.12234056 -0.07179328 0.074757546
000120 0e 56 af bd 65 26 fa bd ce 86 64 3d e5 47 12 3d
       -0.085613355 -0.122143544 0.055792622 0.035713095
000130 80 51 d3 3c 33 5e d4 bd 29 66 dc bd f0 de c4 3d
       0.025795698 -0.103695296 -0.10761673 0.096128345
000140 24 4f 30 bd 23 dc 4e 3d 23 a3 d6 bd 8b f8 be 3d
       -0.043044224 0.050502907 -0.104803346 0.093247496
000150 39 7b f0 3d 38 e2 bd bd bb d6 fc bb 0c e7 30 bd
       0.11742253 -0.092716634 -0.0077160276 -0.043189093
000160 93 0e 78 bd f7 70 be 3d 39 b0 1f bd 59 da ab 3d
       -0.060560774 0.0929889 -0.03898642 0.08391256
000170 7d 28 4e 3c ad 3c b5 3c 23 09 21 be 2c 62 46 3d
       0.012582895 0.022123659 -0.15726142 0.048433468
000180 4e 6f 4b 3c 01 50 b3 3b db c7 dd 3d 35 93 2a 3c
       0.012416674 0.0054721837 0.10829135 0.010411073
000190 81 a7 84 bd f6 3a be bd c3 34 5d bd 4f 91 12 be
       -0.06477261 -0.0928859 -0.054005396 -0.14313243
0001a0 2f e5 a9 3d 0b 69 88 bd 50 4e ad 3c 3e 06 6f bd
       0.082956664 -0.0666066 0.021155506 -0.058355562
0001b0 a8 62 2d 3c 4c 9c 87 bd 68 eb 89 3d 27 41 e7 bc
       0.0105826035 -0.06621608 0.06734353 -0.02822931
0001c0 14 2e e3 bc 31 3d e5 bd f4 93 ce bd e0 94 bc bd
       -0.027731933 -0.11193312 -0.100868136 -0.09208083
0001d0 b3 b4 3a 3d 01 d5 a7 3d e8 cf 05 3d 44 2a a8 bc
       0.045582484 0.08194924 0.032668978 -0.020527966
0001e0 66 d6 cf 3c b1 5e 14 be a5 88 af 3d 85 7e 9c bd
       0.025370788 -0.14489247 0.08570985 -0.07641319
0001f0 fe b4 fe bd c8 5e c0 3b 8f ae 0e be 41 f2 65 3c
       -0.12436865 0.005870674 -0.13933776 0.014034809
000200 b7 0f 40 3d 5b 71 3f bc c9 e4 e6 3d b5 60 21 bc
       0.046889987 -0.011684741 0.11274106 -0.009849717
000210 3d c8 17 bd fc 1a c1 bd d8 38 1b 3d 49 36 bd bd
       -0.037056196 -0.09428975 0.037896007 -0.0923887
000220 bb 3f 16 3e 1a 29 15 3b ca 2b c6 3d a6 b4 42 be
       0.14672749 0.0022760094 0.09676321 -0.19014224
000230 27 f6 d6 bc 1e 15 0f be 04 cc 39 be d2 18 01 3e
       -0.026240421 -0.139729 -0.18144232 0.12607124
000240 73 f2 0a 3e 99 e5 ec 3d 51 a8 fb 3d d6 d0 7e bd
       0.1356905 0.1156723 0.12287963 -0.06221088
000250 be c1 3e 3e 01 e8 f4 3d 91 73 2e be e7 3f 2f 3e
       0.18628594 0.11958314 -0.17036273 0.1711422
000260 62 79 b8 3d e2 63 d6 3d 57 9d e2 bb 69 55 06 bd
       0.09007527 0.1046827 -0.006915729 -0.032796297
000270 9c 8f e6 bd 3d 75 22 bd 06 a5 9d 3d a5 58 3c 3d
       -0.1125786 -0.03966259 0.07697491 0.045982976
000280 7b 63 e3 3d 67 9f 70 bc 74 43 26 3e bb 2d 22 3e
       0.11102959 -0.014686442 0.16236669 0.15837757
000290 05 36 ef bd 6d 61 4e bc aa 12 11 3e 61 f4 e8 3d
       -0.11680225 -0.01259647 0.14167276 0.113747366
0002a0 55 ff 0a 3e c6 1f 38 be 7f 80 12 3e 5d 88 06 3e
       0.13573964 -0.1798087 0.1430683 0.13137956
0002b0 5e 32 4a 3e 02 30 33 be c6 2d 78 3d 6e 5e 13 3e
       0.19745776 -0.17498782 0.060590528 0.14391491
0002c0 3e 1c 67 3d 1e c7 17 3c 14 fa 6a bd 8a 37 41 bd
       0.05642342 0.009263782 -0.0573674 -0.047172107
0002d0 b3 ad 9f 3d 08 07 e0 3d 65 93 9d bc 77 55 98 3c
       0.07796802 0.10938841 -0.019235322 0.01859544
0002e0 57 ba 10 3d 61 72 90 3d 1c 7e 27 be 88 cd 1c 3d
       0.035333958 0.07053066 -0.163567 0.038281947
0002f0 da 3c 1d be d6 2f aa bb 8d e4 22 be 48 e3 4c be
       -0.15355244 -0.005193691 -0.15907498 -0.20008576
000300 68 28 d4 bc 98 8b 84 3c fe a2 b2 3d 0d 45 60 bd
       -0.025898173 0.016179845 0.087224945 -0.054753352
000310 0f ee c6 3c 24 7c 0b 3d e1 1f 25 3d 05 9a 9f bd
       0.024283437 0.034053937 0.040313605 -0.07793049
000320 f3 63 73 3e 05 19 d3 bd d4 45 f0 3d 5d 4e f5 3d
       0.23768596 -0.103075065 0.11732069 0.11977837
000330 d9 5b b0 bc cf a1 b6 3d 61 cb 3b 3d 5a 54 be bb
       -0.021528171 0.08917581 0.045848254 -0.0058083953
000340 81 14 69 3b af 4f 0d bd 7f ae fe bd ba f5 10 bc
       0.00355652 -0.03449982 -0.12435626 -0.008847648
000350 04 17 fa 3d f0 fd bd 3d 4a 14 e9 3d 9d 1a bc 3d
       0.12211421 0.0927695 0.11380823 0.091847636
000360 5a fa 02 3e 12 51 5e bd ab e8 ba bd b2 6d 73 3d
       0.12790814 -0.054276533 -0.09126409 0.059430785
000370 f3 88 9a bd b8 d9 35 bd 7a 5c e5 3d 30 23 c1 3d
       -0.07545652 -0.044397086 0.11199279 0.094305396
000380 a7 dc 00 bd fd b1 48 3d 97 a8 54 bd 7e 49 db 3d
       -0.03146043 0.048997868 -0.051918592 0.10707377
000390 82 ea c8 bd c1 fa e0 bd 0b b3 22 3e ca c5 07 be
       -0.09810354 -0.109853275 0.15888612 -0.13259044
0003a0 13 cb d3 3d 5b f1 99 3d f3 24 df 3d df dd b0 bd
       0.10341468 0.07516738 0.108957194 -0.086360686
0003b0 99 93 08 3e 47 ec 02 bd b5 62 db bd 95 8f a6 3d
       0.13337554 -0.031963613 -0.10712186 0.08132855
0003c0 88 e8 67 bd 76 3c ff 3d 04 5a 97 bc 40 79 bf 3d
       -0.056618243 0.12462704 -0.01847554 0.093492985
0003d0 92 12 03 be ff b3 38 3d 06 a2 11 3e 22 7c 42 3d
       -0.12800053 0.045093533 0.14221963 0.047481664
0003e0 cd 17 b8 3d 40 81 80 3c a3 f1 ad bd fd 3d 89 bd
       0.08988915 0.015686631 -0.08493354 -0.067012765
0003f0 79 e4 5b 3c 9c 9f 92 3a 90 e3 a3 bc d2 58 11 3d
       0.013421171 0.0011186483 -0.020005971 0.035485096

lstm.bias_hh_l0 f4 [256]
000000 e8 77 a9 bd c8 7a 69 bb 22 61 a8 bd 7c 2c 14 bd
       -0.082748234 -0.0035626162 -0.082216516 -0.036175236
000010 6c a2 2f 3d fd 76 9d 3d b0 22 e3 3d 8d 5c 24 bd
       0.042879507 0.07688711 0.110906005 -0.040127326
000020 0a f5 a8 3d 22 5f a9 3d 81 d2 06 3e 52 e3 ac 3d
       0.082498625 0.08270098 0.13166238 0.084417954
000030 78 2b 97 bd 29 df ba 3d d4 1d f9 3d ed eb 7e bd
       -0.07381338 0.09124596 0.121638924 -0.062236715
000040 dd 23 e6 3c dc 3d 41 3b 6b 25 af 3d 35 f5 f5 bb
       0.028093273 0.0029486334 0.08552059 -0.0075060376
000050 7f 66 20 3e 01 71 cf 3d 78 55 03 3e 63 3c 70 3d
       0.15664099 0.10128976 0.12825572 0.05865134
000060 23 63 f1 3d 78 4d ad 3c d5 e6 36 bd a6 95 85 3c
       0.11786487 0.021155104 -0.044653732 0.01630671
000070 82 3d 1b 3e e4 a9 7f 3c a3 2e 26 3e 7f 77 c1 3b
       0.15160182 0.01560447 0.16228728 0.0059041376
000080 16 30 68 bc 8a d3 70 3d 9b ae 2e bc 0c d7 d0 3d
       -0.014171621 0.05879549 -0.010661746 0.10197267
000090 44 94 b8 3d 1c e5 2f bd 0d ef 64 3d e5 ad b8 bd
       0.090126544 -0.042943105 0.05589204 -0.09017543
0000a0 bc e5 3f bd 3d d3 42 3d 04 18 b1 bd 6f 76 f0 bc
       -0.04684995 0.047564734 -0.08647159 -0.029353349
0000b0 45 4a a4 3c 4c bc 02 3e 5a d4 88 3d 27 ef 1b bc
       0.020054946 0.12767142 0.06681128 -0.009517468
0000c0 58 a2 87 bd 7b 8d 8c 3d 5f 6a d2 bd fd 0b f2 3d
       -0.066227615 0.06862923 -0.10274195 0.11818693
0000d0 bd 70 80 bd 09 9c e2 3d 3e e4 e4 3d 74 60 a7 3c
       -0.06271503 0.110649176 0.11176346 0.020431735
0000e0 41 0d af 3d 92 ff 5d b9 02 8a df bc bb 43 02 be
       0.0854745 -0.0002117141 -0.027287487 -0.1272115
0000f0 04 00 12 3e 57 d3 da bd b1 40 91 bc 08 f3 13 3e
       0.14257818 -0.10684841 -0.017731043 0.14448178
000100 45 fe 01 3e 09 2b 4b 3c 37 3b 88 3d 5d 07 cb 3d
       0.12694652 0.012400397 0.06651919 0.09913514
000110 3b 45 33 bd c5 2e 1d bd 89 3b 04 be 34 f5 8e bc
       -0.043767195 -0.03837468 -0.12913336 -0.017450906
000120 a8 a8 b0 bd 2b db 7f bc 01 5f b5 bd 35 9c c4 bd
       -0.086259186 -0.015616219 -0.08856011 -0.096001066
000130 52 74 24 bd dc aa 8b bd dd 90 30 bd 13 8d 6f bd
       -0.040149994 -0.06819698 -0.043106902 -0.05848415
000140 72 0f 85 3d a3 34 90 bd 8e 0a f7 3c 22 93 9f 3c
       0.064970866 -0.0704129 0.0301564 0.019479338
000150 f1 9e 86 bc 18 4c 7c bd 1d a5 28 bc 1f cc 95 3d
       -0.016433211 -0.061596006 -0.010293272 0.07314324
000160 ab 5f 62 3d eb ab 7c bc 02 3e 26 bc 26 a9 ac 3c
       0.055267017 -0.015421848 -0.01014662 0.02107675
000170 12 74 9b 3d 5f e4 9d 3a 8a 4c 2a bc d3 1d 89 3d
       0.07590498 0.0012046209 -0.010394225 0.06695142
000180 f9 f1 8c 3c 04 2c 97 3d d6 b5 a3 3d 8b 6c f1 bd
       0.017205225 0.07381442 0.07993667 -0.11788281
000190 96 02 38 3d 71 01 1c be ae 50 96 bc 7e 65 b7 3d
       0.04492434 -0.15234925 -0.018349018 0.08954905
0001a0 40 d2 c7 3d 75 1b e1 3c 7f 18 cf 3c c2 7a 38 3d
       0.09756899 0.027478913 0.025280235 0.045038946
0001b0 c5 39 03 be c1 49 98 bd ad 6d e0 bd 98 c6 ed 3c
       -0.12815006 -0.074359424 -0.10958419 0.029025361
0001c0 f6 fd 73 bc e7 03 c0 bd 05 22 0f be e2 42 f7 bd
       -0.014892092 -0.09375744 -0.13977821 -0.12073304
0001d0 b7 8d 88 3d fa e6 34 bd f5 a3 00 bd 9c 31 ce 3d
       0.06667655 -0.04416559 -0.03140636 0.10068056
0001e0 0e ac dc 3d c3 e8 1f be 2b de 98 bd 6e e7 f9 3c
       0.10775004 -0.15616135 -0.0746425 0.030505862
0001f0 60 49 b9 bb 47 88 5a 3d a5 d8 23 3d 7f 38 9d bd
       -0.005654499 0.05335262 0.04000153 -0.076767914
000200 87 28 19 3e 8c 0c 26 3d 55 b8 07 bd 79 ad 0b be
       0.14956866 0.04053931 -0.033134777 -0.13640393
000210 2a ef 2d 3e bc 82 3e bc 92 14 42 3d b6 5b b1 bd
       0.16985765 -0.011627849 0.0473829 -0.086600706
000220 cc 52 ed 3c d4 c8 da 3c 5b d9 15 3e 3d ef 34 be
       0.028970145 0.02670709 0.14633696 -0.17669387
000230 7d fd 19 3e 91 03 fb bb bb 6f 05 be 6b c0 16 3d
       0.15038104 -0.0076603373 -0.13030903 0.036804598
000240 69 3f 06 3e ce cc 38 3e b9 59 65 bd 8b 31 28 be
       0.13110127 0.18046877 -0.05599377 -0.16425149
000250 11 c9 39 3e c1 95 56 3e 1f 79 28 3d 81 3b 9a 3d
       0.18143107 0.20955564 0.041131135 0.07530881
000260 4a 21 73 3d 42 ef 02 3c 54 e1 35 be 36 40 8f bd
       0.05935792 0.007991614 -0.17761737 -0.06994669
000270 51 0b ac bd 06 8a 52 3d 51 2e d3 3d 0a fb 05 be
       -0.08400596 0.05140116 0.103115685 -0.13084045
000280 f2 d4 94 bc ff 99 ac bc 18 40 21 3e 42 f9 ca 3d
       -0.018167946 -0.021069525 0.15747106 0.099108234
000290 3b e9 21 3c 7b e5 ee bd 91 7f 01 3e 08 16 9d 39
       0.009882267 -0.11664864 0.12646319 0.00029961788
0002a0 db 70 29 3e 69 e3 4d be ff 01 3f bc 7c 66 41 3d
       0.16546957 -0.20106281 -0.011658191 0.047216877
0002b0 c8 9a 44 3d 18 be 1f be 4b 1c c0 bd cf fc 0b 3e
       0.047999173 -0.15599859 -0.093803965 0.13670658
0002c0 e5 91 7d 3d cd 0e ac bb e9 fd 57 bd 75 6c 8a bd
       0.061906714 -0.005250788 -0.052732382 -0.06758968
0002d0 7d 69 c6 3b 99 40 24 3e 11 56 3f be 25 63 06 3e
       0.0060550557 0.16040267 -0.18685175 0.13123758
0002e0 08 b5 99 bc 63 de f0 3c 24 d3 0a bc 18 62 28 bd
       -0.01876308 0.029402917 -0.008473191 -0.041109174
0002f0 79 3a 92 bd 99 84 e0 3d b9 7f fc bc f5 00 8f bd
       -0.07140059 0.10962791 -0.030822622 -0.069826044
000300 3a cd e4 bd 57 50 a5 bd 88 d8 cb 3b 84 12 ae bd
       -0.11171956 -0.08071964 0.006220881 -0.08499625
000310 b9 dd f4 3c 56 80 6e bc 99 f2 5c 3d bc 99 1b 3c
       0.029890882 -0.014556965 0.053942297 0.009497102
000320 2c 6b 53 3d c7 31 2c 3d ba 7c ad bc 5f e5 5d 3c
       0.05161588 0.04203966 -0.021177638 0.013543456
000330 80 25 90 bd 58 3f 11 bd 2e f1 24 3e d1 15 b4 ba
       -0.070384026 -0.0354608 0.16107628 -0.0013739412
000340 54 8c 4d bd 6b 40 51 bd 01 0d 0c be 78 4d 62 3d
       -0.050182655 -0.051086824 -0.13676836 0.05524966
000350 5c ff af bb 4c bb 11 bd 5a d7 fc 3d a4 65 13 bd
       -0.0053710174 -0.03557901 0.123457626 -0.035985604
000360 a2 a8 fa 3d 52 bf 4e bd 03 af 01 3e 05 a0 02 3e
       0.122391954 -0.050475426 0.12664418 0.12756355
000370 e3 0f 92 3d 3f 9c 1d be 62 15 96 3d 20 29 ae 3c
       0.071319364 -0.15391634 0.07328297 0.021259844
000380 11 3b 64 3d f6 d5 a3 3d 5f 86 85 3d db d8 d3 bc
       0.055720393 0.07999794 0.0651977 -0.02586024
000390 5b 77 c8 3c d0 43 5b 3d cc d2 2c 3e a6 1a 90 bd
       0.024470976 0.053531468 0.16877288 -0.07036333
0003a0 37 57 63 3b ec db f6 3d 3e 01 d1 bd 45 8a 11 3e
       0.0034689435 0.120536655 -0.10205315 0.14212902
0003b0 0e 63 de 3d e9 ca 93 bd f0 9f 2e bd c7 1b 69 3d
       0.10858737 -0.072164364 -0.042632997 0.056911256
0003c0 de 16 07 3e 5a 13 ec bd 65 96 42 3d 69 17 f7 3b
       0.13192317 -0.115271285 0.04750671 0.0075406325
0003d0 38 ce 94 bd 73 79 2c 3e 0a 7a f7 3c 9d e9 8f 3c
       -0.072658956 0.16843204 0.03020956 0.01756745
0003e0 3a 00 c3 bd 39 b6 e3 3d 02 6f 0d 3e de ca 1c be
       -0.095215276 0.111187406 0.13811877 -0.15311763
0003f0 fc d6 c3 bd f2 e3 a0 3d 55 c6 15 bc 53 1d 05 3e
       -0.095624894 0.07855977 -0.009141524 0.12999468

output_layer.weight f4 [1, 128]
000000 bc 8c 54 bd 04 5c 40 3d f0 a0 b8 3c ff 05 81 bc
       -0.051892027 0.046962753 0.022537678 -0.01574993
000010 8e 08 a5 3d 7e 4a b8 bd 37 99 ac 3d 3d 48 b2 bd
       0.08058272 -0.08998583 0.08427661 -0.087051846
000020 38 e9 f6 3c 73 21 81 3d 1d 01 68 3d f1 ed 1b bd
       0.030140504 0.06305208 0.056641687 -0.038068715
000030 cc aa df 3b 69 57 74 bd e5 bb 8f 3c 3d 4b 97 bc
       0.0068257805 -0.059653673 0.01754565 -0.018468494
000040 1b 79 a6 3d 41 11 58 3d bb a0 c0 bc a8 e6 19 3b
       0.08128568 0.05275083 -0.023514142 0.002348343
000050 07 62 ae 3c 65 50 e5 3d f7 46 70 bd 28 93 2f 3d
       0.021286977 0.11196975 -0.058661427 0.04286495
000060 89 0a 8a 3d 0d fe 4f 3d c6 54 e5 bc 42 97 8c bc
       0.06740291 0.05077939 -0.027994525 -0.01716197
000070 ef ab d4 bd 6c ae 60 bc 93 8c 3e 3d f8 53 ca bd
       -0.10384356 -0.01371346 0.04652078 -0.09879297
000080 e5 4e 3f bd 64 7a b8 3d 06 d2 c9 3d fc 02 19 3a
       -0.0467061 0.09007719 0.09854512 0.00058369315
000090 e4 76 ab bb d4 4b 9e bd 7a db c0 3d 3e 0c 3a bc
       -0.0052326787 -0.07729307 0.09416862 -0.011355458
0000a0 94 a8 ce 3d ec 81 eb bd 2c d7 a0 3d cf 1f 90 3d
       0.100907475 -0.1149939 0.07853541 0.07037317
0000b0 33 7d 79 3d 74 ba d9 bd 1c 15 26 bd d5 1e 97 3d
       0.060910415 -0.10631266 -0.040547475 0.073789276
0000c0 e9 54 dc 3d 48 4f c9 bc 25 d6 21 bd bf 33 20 bd
       0.10758383 -0.024573937 -0.039510865 -0.03911185
0000d0 bf ac 73 3c 60 3d 04 3e bc 84 13 3d d5 43 3f 3d
       0.014872729 0.12914038 0.036015257 0.04669555
0000e0 78 9c ac bd 2f e5 8a 3d 3b f0 fd bd 9e 3d 38 bd
       -0.084282815 0.067819946 -0.12399336 -0.044980638
0000f0 c8 ff 44 bd 1f 38 9f 3c 86 21 ba bd 48 93 e9 bd
       -0.048095495 0.01943594 -0.09088425 -0.11405045
000100 e5 9c e3 3d b1 16 33 ba 21 7d 27 3d 59 34 ae bd
       0.1111391 -0.00068316894 0.040890817 -0.08506078
000110 78 20 94 3d 7f 5d bb bd c3 11 4f bc 05 d9 a7 bd
       0.072327554 -0.09148692 -0.012638512 -0.0819569
000120 65 e2 09 3e 3a 0d 62 bc 53 a0 26 3d d3 82 70 bd
       0.13465269 -0.013797099 0.04068024 -0.058718514
000130 61 8c d9 3d 1b ce 9c 3a b4 97 c4 bd be 97 82 3d
       0.10622478 0.001196328 -0.095992476 0.06376599
000140 a5 72 89 3d 11 cb 94 3d f8 0c 37 3d be cb e4 bd
       0.0671132 0.07265294 0.044690102 -0.11171673
000150 3a 2d eb 3d ff 01 02 bc e2 fc df bd 44 8e 82 3d
       0.11483236 -0.007935046 -0.109369054 0.06374791
000160 96 48 d2 3d 9d 07 89 3c c0 bb a0 bd 51 72 79 bb
       0.10267751 0.016727263 -0.078483105 -0.0038062523
000170 ed cf 83 bd 4a a2 97 bc 68 c3 32 3d 8e d6 2e 3a
       -0.06436143 -0.018510003 0.043643385 0.00066695444
000180 aa 72 69 3d f3 44 64 3d 31 48 0b 3d 1c e7 a2 3d
       0.056994118 0.055729818 0.034004394 0.07954237
000190 06 f8 60 bc 44 f2 0d bd 79 f2 78 bc b2 d5 2b 3d
       -0.013731008 -0.03465487 -0.015194529 0.041951843
0001a0 c0 03 68 3d 9b ca c7 bd 41 61 7e 3d 34 79 38 3d
       0.0566442 -0.09755441 0.062104467 0.045037463
0001b0 ac f4 24 3d 12 ad db bd e9 ea b8 bc bc ec e8 3d
       0.0402724 -0.1072637 -0.022572951 0.113732785
0001c0 4e 47 b8 3c 26 05 5a bd cf 2c f4 bc 48 f0 61 bc
       0.022494938 -0.053227566 -0.029806523 -0.013790198
0001d0 a3 0a 28 3d 43 fa 6e bd cd 0a ef bd 29 79 2f 3d
       0.04102577 -0.058344137 -0.11671982 0.042840157
0001e0 f7 a9 3a bc 53 5b 69 3c 58 76 6f 3a f0 05 ae bc
       -0.011393062 0.014242965 0.0009134761 -0.021243066
0001f0 88 24 bb bd 49 85 01 3d 6a 4b dc bd 84 28 0e bd
       -0.09137827 0.03162125 -0.107565716 -0.034706607
