model_states/both_0.0001_32_Adam_L1Loss_[].pt (torch, 23455 bytes, 5 tensors)

lstm.weight_ih_l0 f4 [128, 6]
000000 f7 f5 3b 3d 05 1e 2a be 0c 82 11 3e 97 da c8 3d
       0.045888867 -0.16613014 0.14209765 0.09807318
000010 0a 4d 2e be 06 27 7f bd 15 a3 1f be 1e 3e 7e 3d
       -0.17021576 -0.062293075 -0.15589555 0.06207096
000020 e7 88 35 bd 15 96 e7 3b da d7 ef 3d 47 6c 47 be
       -0.044320013 0.0070674517 0.11711092 -0.19474898
000030 36 af 6b be 07 49 53 bd 69 6c 32 be ab d0 c7 3c
       -0.23016056 -0.051583316 -0.17424168 0.024391493
000040 c3 d6 1a be a3 62 2e be 42 b0 12 be 55 f4 8e 3d
       -0.15120988 -0.17029814 -0.1432505 0.069801964
000050 22 e5 f0 bc 25 14 3e be 52 59 01 3e d7 1d e5 bd
       -0.029406134 -0.18562372 0.12631729 -0.11187332
000060 af 47 ec 3d 85 42 c7 bc 6b 5d 5a be a2 70 4e be
       0.1153711 -0.024323711 -0.21324699 -0.20160154
000070 07 f9 23 bd 3d 58 eb 3d 0d 16 1c bc 8d 40 58 bd
       -0.040032413 0.114914395 -0.009526742 -0.052795935
000080 56 02 cf 3d 6a a8 af bd 40 7d c5 bd 7a 9a 4c bd
       0.101078674 -0.08577044 -0.0964303 -0.049952008
000090 06 fa d2 bc 5f 9f c3 bd f0 5d d3 3d c7 2a 75 bd
       -0.025753986 -0.09551882 0.103206515 -0.05985525
0000a0 98 85 7a bd 8e a6 8c bd 72 c0 0f 3e 55 1c 90 3c
       -0.06116256 -0.06867705 0.14038256 0.017591635
0000b0 65 c4 91 3d 8a 7e 89 bd 90 ea 35 3c 7e ba 12 be
       0.071175374 -0.067135885 0.011103287 -0.14328954
0000c0 9d 24 09 bc 66 b2 83 bd fc 2e ab 3d fc d9 66 be
       -0.008370546 -0.06430511 0.08358571 -0.22544092
0000d0 a0 b2 20 be f8 60 94 3d 50 8a 9b bb 51 d7 0b be
       -0.1569314 0.07245058 -0.0047467127 -0.13656355
0000e0 d2 35 94 3d 1c d5 dd bd 9b d5 7c 3d f3 03 5b bd
       0.07236828 -0.10831663 0.061727148 -0.053470563
0000f0 d7 5e 0b bd 6e 82 1d bd c5 d5 d8 bd 8e 83 06 3d
       -0.034025993 -0.038454466 -0.10587648 0.032840304
000100 cd a4 86 bc ef b5 61 bd e5 ec c9 3d 51 c9 89 3d
       -0.016436005 -0.055105146 0.09859637 0.06727851
000110 e9 b2 9c bd 18 74 45 be f5 6d cb bd fa c8 87 3d
       -0.07651312 -0.19282568 -0.09933082 0.0663013
000120 eb 40 22 3e f7 71 1b 3d 09 c3 16 bd 9b 59 80 3d
       0.15845077 0.037950482 -0.036807094 0.06267091
000130 14 4a 1a be 5d fb 0a 3d 32 00 e6 3d 54 1d ae bd
       -0.15067321 0.033931125 0.11230506 -0.08501688
000140 4e b4 3d 3d 24 72 19 be 02 c1 58 bd 54 89 e0 bd
       0.04631453 -0.14984947 -0.05291844 -0.10963693
000150 ad a8 2d 3d 17 55 6f bd 45 63 87 3d e7 81 ba 3d
       0.04239719 -0.058430757 0.06610731 0.09106808
000160 20 3b 76 bd cd 8c 0b be 5c be 10 3d c2 fb db bd
       -0.06011498 -0.1362793 0.03533779 -0.10741378
000170 08 38 df bd 30 c4 0f bd 0f be ee 3d fa ee e0 bd
       -0.10899359 -0.03509921 0.116573445 -0.10983081
000180 00 fb 72 bd ec 5f 45 3d 2a f5 73 3d 89 9a 15 3e
       -0.059321404 0.04818718 0.05955998 0.14609732
000190 9e ed a7 bd 9a dd f6 3c db 8d ad 3d c2 6c 20 3e
       -0.08199619 0.030134965 0.084743224 0.15666488
0001a0 ec 7d c4 3d 94 4c 19 3d 54 3b 83 bd dc a4 09 be
       0.0959433 0.037426546 -0.064078 -0.13441795
0001b0 b8 3c e7 3d cb 88 96 3a 1f 94 12 3d 7e f9 00 3d
       0.11290878 0.0011484859 0.03578579 0.031487934
0001c0 fa cd 69 3d 71 b0 5a 3d c5 cf 40 be ff 21 d1 3c
       0.0570812 0.053390924 -0.18829258 0.025528906
0001d0 fa 14 e8 bc 2a 98 48 be 57 42 d2 bd 4e 7d 61 be
       -0.028330315 -0.19589296 -0.102665596 -0.22020456
0001e0 9b a8 c4 3d 87 3e 42 3e 50 16 27 3e 30 e6 00 3e
       0.096024714 0.18969165 0.16317105 0.1258781
0001f0 0e d7 12 3e d6 e9 cf 3d ed cb 18 be 56 a2 10 3e
       0.1433985 0.101520225 -0.14921542 0.14124426
000200 98 98 64 bd 19 b5 63 3d cf 5a 0c 3c 26 85 aa bd
       -0.055809587 0.05559263 0.008566572 -0.08326177
000210 c4 a8 ce 3c 54 0e 6b 3c 04 4b 00 bc a6 19 13 3e
       0.025226958 0.014346678 -0.007830385 0.14365253
000220 66 ff ff 3c 95 21 91 3c e4 1f 04 be 0d 7a f9 bd
       0.031249713 0.017716208 -0.1290279 -0.121814825
000230 51 e6 48 bc f1 57 e1 bb 86 f2 ea bd 4f 62 bf 3d
       -0.012261943 -0.0068769385 -0.11472039 0.09344923
000240 65 5e 89 3d 3c 82 32 bd ea 7e a4 3d 6c b1 81 bc
       0.067074575 -0.043581232 0.080320194 -0.015831672
000250 7a 4f 9e bd e8 33 11 bd 23 fd 3a 3d 51 87 ab 3d
       -0.07730003 -0.035449892 0.045651566 0.08375419
000260 3f fc 16 bd 44 57 b4 3d 01 44 dd 3d 0e c0 d2 3d
       -0.036861654 0.08805707 0.10803986 0.10290538
000270 cb 1d 1d 3e 72 35 d4 3d 87 bc 8f 3d d2 6c 1b 3e
       0.15343396 0.103617564 0.070183806 0.1517823
000280 2b 9b 15 3e ba 51 6f 3d e1 41 23 be be a3 7a 3d
       0.14609973 0.05842755 -0.159431 0.061191313
000290 46 f4 f4 bd 1d 43 63 3c 40 9b 19 be 8b 9c b2 bd
       -0.11960654 0.0138709815 -0.1500063 -0.087212645
0002a0 cf c9 8b 3d 00 59 3e be e9 38 27 be 9f 6c 99 bd
       0.06825601 -0.18588638 -0.16330303 -0.07491421
0002b0 dc e9 4d be 7e f2 00 3e 81 d2 e1 bd 22 aa 41 bd
       -0.20108742 0.12592503 -0.110264786 -0.047281392
0002c0 9c af 24 bd b0 6e 6f 3d 9f dd 9e bd a3 97 4f bd
       -0.040206537 0.05845517 -0.077571146 -0.05068172
0002d0 78 b0 28 be 98 eb e9 3c 50 5b 7f 3d 58 3a e4 3d
       -0.16473567 0.028554723 0.06234294 0.11143941
0002e0 e9 4f 38 be 3a 7f 9e 3d 8b 4f ed 3d c1 53 42 be
       -0.17999233 0.0773911 0.11587437 -0.18977262
0002f0 84 81 c9 3d 66 c2 dc bc f9 c7 bd bd 3a 98 66 be
       0.09839156 -0.026948165 -0.092666574 -0.22519007
000300 0c 10 a4 3d 99 d2 07 be 58 2f d8 3d 7c ac 13 be
       0.08010873 -0.1326393 0.10555905 -0.14421266
000310 04 86 09 bd 4d e0 8c bd c5 8f 15 be 97 0e 53 3d
       -0.033575073 -0.068787195 -0.14605625 0.051527586
000320 2e 2c bb bc 8e 6b d1 bd 71 a7 34 3e 64 f3 90 3c
       -0.022848215 -0.102255926 0.17641999 0.017694183
000330 cd 9d 8c 3d 94 78 0d be 25 73 8a 3d f7 76 62 bc
       0.068660356 -0.13815528 0.06760243 -0.013822309
000340 f8 b8 0e 3e 18 c1 3b 3e 37 6f b3 bd 3f c1 42 be
       0.13937747 0.18335378 -0.08761447 -0.1901903
000350 49 74 4b bd 93 ce c5 3d 37 4e a5 3b 1c c0 be bd
       -0.049671445 0.096585415 0.0050447243 -0.09313986
000360 b0 0d f3 bd 49 2a 2e 3e 09 b6 fd bd 48 42 1a 3e
       -0.11867845 0.17008318 -0.12388236 0.15064347
000370 db 34 0f 3e da 6f 57 3d 89 2c 0b 3e a3 4b 46 3e
       0.13985007 0.052596904 0.13591208 0.1936479
000380 93 7a 0a 3e bc 02 46 bd e7 7c a2 bc 6e b8 43 3e
       0.13523321 -0.04834245 -0.019834949 0.19113323
000390 c7 25 07 be 54 9f fe bd 43 ce ca ba 87 e1 df bd
       -0.13198005 -0.12432733 -0.0015472848 -0.10931688
0003a0 03 ee 3e 3e 62 aa be 3d ef ab af 3d 17 79 1f bc
       0.18645482 0.09309842 0.085777156 -0.00973346
0003b0 7b e7 93 bd 0b a3 81 bd 72 66 8c 3d 19 0b 36 3e
       -0.07221886 -0.06329926 0.068554774 0.17777671
0003c0 20 d1 98 bb fa d7 36 3e f0 c5 ef bd 8a 8c 84 bd
       -0.0046636015 0.17855826 -0.117076755 -0.06472118
0003d0 c8 c2 c7 3d 6a 1f 86 3d 92 46 5a 3d f4 64 11 3b
       0.097539485 0.065489605 0.053289957 0.0022185417
0003e0 9e bc d8 bd 46 f0 21 bc 65 68 96 3d be 38 85 bd
       -0.10582851 -0.009883946 0.073441304 -0.06504963
0003f0 b7 c2 1c be 7c 5f fa 3d f6 29 1e 3e 6e 95 21 3e
       -0.15308653 0.122252434 0.15445694 0.15779659

lstm.weight_hh_l0 f4 [128, 32]
000000 fb 22 81 bd e4 b4 08 be bb 85 87 bb dd e4 43 be
       -0.063055 -0.13350254 -0.004135815 -0.19130273
000010 02 20 94 3c 39 38 f0 3d 24 66 d4 3d 8f 6a 5a bd
       0.018081669 0.117294736 0.10371044 -0.05332428
000020 4c 7c 10 3d ce 0b 01 3e ce 46 90 bc 47 9d f2 bc
       0.03527479 0.1260216 -0.017611887 -0.029616011
000030 30 6f d4 3d 17 3c a6 bc cd b6 d6 3d 83 52 8c bd
       0.1037277 -0.020292325 0.10484085 -0.06851675
000040 ca 07 1b 3d 7d e2 82 3d a7 69 66 3d 4a 77 8b 3d
       0.037849225 0.063908555 0.0562531 0.06809862
000050 28 2c 23 3e 1b be 07 3e 48 22 b0 bd 10 f1 84 bd
       0.15934813 0.13256113 -0.08600289 -0.064912915
000060 15 52 70 bd 27 6e 0e 3e 08 e5 b2 bd 5d 79 8f bd
       -0.05867203 0.13909207 -0.087350905 -0.0700557
000070 e9 07 28 be 0c dc f8 bd 36 a6 76 bd 20 ec 24 3e
       -0.16409267 -0.121513456 -0.060217105 0.161057
000080 af d7 a2 3d 8c 31 24 be f1 bc e9 bd 93 e9 bf bb
       0.07951295 -0.16034526 -0.11412991 -0.0058567016
000090 56 df e7 bd 1d 28 a1 3d 4e db 72 bd 42 cc 2d 3e
       -0.11321895 0.07868979 -0.059291176 0.1697245
0000a0 83 e7 41 be 99 b7 42 bd c9 1c 81 3d 43 34 d7 3d
       -0.18935971 -0.047538374 0.063043185 0.10508015
0000b0 97 91 9b bd 1a 09 5d 3d 54 b6 60 3e 73 ff 74 bd
       -0.075961284 0.053963758 0.21944553 -0.059813928
0000c0 7b b3 e1 3d e3 4f 13 3e cb ea cf 3d 82 25 02 be
       0.11020561 0.14385943 0.10152205 -0.1270962
0000d0 5d fa ee 3c bf f3 22 be a3 73 64 bd 57 02 3f be
       0.029172117 -0.15913294 -0.055774342 -0.18653236
0000e0 33 94 2f be cd 6b 95 3d 1a 9c ee 3b 29 e8 63 bc
       -0.17146377 0.07295952 0.0072817924 -0.013910332
0000f0 00 3f d8 bd 35 d1 f1 3c 42 71 dd 3d f6 5b 3e 3e
       -0.10558891 0.029518703 0.10812618 0.18589768
000100 71 fe a9 3d d9 30 e0 3d 51 42 d8 b9 1e d1 b2 bd
       0.08300484 0.10946817 -0.0004124814 -0.08731292
000110 3c fd c4 bb 62 67 09 3d c4 83 16 3e f8 e1 15 be
       -0.006011633 0.03354586 0.14698702 -0.14636981
000120 43 8c a9 bb 39 a5 8e bc 7a 10 1c 3e 7b fb 83 3b
       -0.005174191 -0.017412769 0.1524066 0.0040277815
000130 83 a7 5a bd bb f4 d1 bc bc 0c 4e 3e 09 5c 60 bb
       -0.053382408 -0.025629392 0.20122045 -0.0034234545
000140 99 dc 29 be d0 43 70 3d 58 7f 2e be 97 73 9b bd
       -0.16588058 0.05865842 -0.17040765 -0.075904064
000150 98 87 be 3d 3b f2 a6 bd 68 6f e8 3c 84 cd 0c bd
       0.09303206 -0.081516705 0.028373435 -0.034375682
000160 5b de 87 3d d5 be b2 bd 62 9b 4c 3d 95 36 a9 3d
       0.06634208 -0.087278046 0.049952872 0.08262364
000170 ed d9 1a 3e 6a 67 28 3d cb 21 2f bd cd d2 06 3e
       0.15122195 0.04111425 -0.042756837 0.13166352
000180 f5 56 ea 3b 4d 91 4e bd 94 82 62 be 6f c4 6b bd
       0.0071514794 -0.05043154 -0.22120124 -0.05756038
000190 a3 61 13 bc 0b c8 ee 3c 66 e9 ca 3d 23 1e 0e 3e
       -0.008995446 0.029148122 0.099077985 0.13878684
0001a0 74 28 2f 3d 0e 7c f8 3d 20 a5 ff 3c c6 fd 93 3c
       0.04276319 0.121330366 0.031206667 0.018065345
0001b0 c7 10 df 3d d0 fa d4 bd ae 95 55 3c 36 e8 1c 3e
       0.10891872 -0.10399401 0.013036175 0.15322956
0001c0 85 9e fd bd 33 99 09 3e 78 77 36 be dd 21 1d 3d
       -0.12383751 0.13437347 -0.17819011 0.038362373
0001d0 5f 82 a4 3b e8 05 9f 3d 72 69 d5 3d 09 3d ed 3d
       0.0050204243 0.077647984 0.10420503 0.11583907
0001e0 bb 55 78 bb 43 55 27 be 19 ee f1 bc a9 0a d3 3d
       -0.0037892896 -0.16341119 -0.02953248 0.10304768
0001f0 58 79 19 bd f9 d8 f2 bd a2 50 c6 bd df 66 49 be
       -0.037469238 -0.118577905 -0.09683348 -0.19668148
000200 45 fa c4 3d 53 4b eb bc 01 76 a8 bd ae 34 54 be
       0.096180476 -0.02872244 -0.082256325 -0.2072322
000210 a7 93 4a 3d c1 42 e3 3d 34 91 a6 bd f5 e0 eb 3d
       0.04945722 0.11096717 -0.08133164 0.115175165
000220 72 ad 15 3e 46 02 2c bd 6a b7 eb bd 76 d9 18 3e
       0.14616945 -0.041994356 -0.11509593 0.14926705
000230 50 6a 9d 3d 6b b0 3f be 9c a7 01 3d a1 b3 d8 3d
       0.07686293 -0.18719642 0.031653985 0.105811365
000240 ea e1 a1 3d 50 61 a6 3d a4 a5 b7 3c 4a c3 cc 3d
       0.07904418 0.0812403 0.02241785 0.09998186
000250 3e 51 6f bd 7d b0 ed bd 32 0b 23 bd f2 6f 05 3e
       -0.058427088 -0.11605928 -0.0398056 0.13030985
000260 67 1f 2a bd 1d b7 16 be 68 ae 24 be 5d 2d 12 3e
       -0.041533854 -0.1471829 -0.16082156 0.14275117
000270 ff 2f 40 bd c0 f8 08 be 6b 60 10 3e 9e 07 27 3e
       -0.046920773 -0.1337614 0.1409928 0.163115
000280 f1 e2 1b 3e 10 5b 52 b9 82 27 7b bb e4 ef 82 3c
       0.1522329 -0.00020061084 -0.003832311 0.01598353
000290 1e 9d c5 3d be b6 8e bd 79 20 17 be a3 02 b7 39
       0.09649108 -0.06968449 -0.14758481 0.00034906444
0002a0 b4 eb 04 3e 67 bf bc bd 5f 38 42 bd f0 7f 2c be
       0.12980539 -0.092161946 -0.04741704 -0.1684568
0002b0 11 27 84 bd c1 0c c0 3c a0 85 e1 3d 30 33 6a 3d
       -0.06452764 0.023443582 0.11011815 0.057177722
0002c0 5a 5d 0a be 8b 7e 20 be 23 74 a9 bd 91 fd 06 bc
       -0.13512173 -0.15673272 -0.082741044 -0.008239166
0002d0 c9 01 96 bd 20 3b 35 3d ea 9d 26 3e 51 90 2e bd
       -0.07324559 0.04424584 0.16271177 -0.0426181
0002e0 dd 8e e0 bd 94 ce e3 bd 3e 08 e4 3d 30 e9 3a 3e
       -0.10964749 -0.11123386 0.111343846 0.18253016
0002f0 37 19 0b be 15 4e 47 3d e2 8a f7 3c aa e3 d0 3d
       -0.13583837 0.04865845 0.030217592 0.101996735
000300 0b df 15 3e 63 ff a4 3a 34 fe db bd 7f 50 06 be
       0.14635865 0.0012588318 -0.10741845 -0.13116644
000310 af f6 bc 3d 27 2e 06 3e 44 01 56 bd ba b3 5f bc
       0.09226739 0.13103543 -0.0522473 -0.01365369
000320 9d 2c 3a be 96 b8 1f be f7 40 92 bc 0f c0 05 be
       -0.18181081 -0.15597758 -0.017853243 -0.13061546
000330 ad 35 9f 3c 05 9f 71 bd 29 46 4c 3c 57 76 d2 3d
       0.019434774 -0.058989543 0.012467899 0.10276478
000340 fb 3b 37 3e f5 42 fb 3b 38 19 cc 3d a9 b0 40 3e
       0.17893974 0.007667894 0.099657476 0.1881739
000350 c8 7c 00 3e 20 a9 19 3e 60 bb dc bd c2 d7 a2 3d
       0.125476 0.15005922 -0.107779264 0.07951309
000360 fa d3 b1 3d ff de 99 3d 0c 9c b8 3d 9b ad 83 bc
       0.086830094 0.07513236 0.090141386 -0.016073992
000370 1e ac ef 3d b0 3f dd 3d 5d f4 0b be bc a9 f0 bd
       0.117027506 0.10803163 -0.13667436 -0.11751124
000380 e9 3e bf bd 37 5f 5b 3d 2c 68 6b bd 56 82 02 be
       -0.09338171 0.0535576 -0.057472393 -0.12745032
000390 73 0c de 3c 32 59 f8 3d ed ee 67 bd 42 18 83 bc
       0.027105546 0.12126388 -0.05662434 -0.016002778
0003a0 2e ea 60 be e9 18 4c 3d fd 2a 0b be 98 aa 4b be
       -0.21964332 0.049828444 -0.13590617 -0.19889295
0003b0 36 4c c4 bd 14 bc 1b be 03 79 14 3d 42 ff 8e bd
       -0.095848486 -0.15208465 0.03624822 -0.0698228
0003c0 23 a1 6a bc 69 55 a7 3d fe f2 df bd 9f 6c 12 bc
       -0.014320645 0.081705876 -0.10935019 -0.00893703
0003d0 7a e1 02 bc bf fa 40 3e 58 99 11 be fd 9b e6 bd
       -0.007988328 0.18845652 -0.14218652 -0.11260221
0003e0 07 07 25 be fd e8 b5 bd e1 89 1c be 97 48 a4 bc
       -0.16115962 -0.088823296 -0.15286972 -0.020054145
0003f0 b9 b0 67 bd 1f 9e c4 3d 6a f6 7e bd 5f cf 11 3e
       -0.05656502 0.09600472 -0.062246718 0.14239262

lstm.bias_ih_l0 f4 [128]
000000 ab 65 14 be 6e 31 ee bb 82 c2 1a bd df b5 a1 bc
       -0.14491908 -0.007269076 -0.037783153 -0.019740043
000010 43 ab 31 3e 30 2d 41 3e 29 73 28 bd 98 35 6e bc
       0.17350487 0.18864894 -0.04112545 -0.014539145
000020 d7 a7 17 3e eb 8d e8 3d 23 2e c2 3d 7c 30 cd 3d
       0.1481012 0.11355194 0.09481456 0.10019013
000030 e1 c7 a9 bd 82 67 d9 3c c7 25 6c bc c3 c0 e8 bd
       -0.08290077 0.026538614 -0.014413304 -0.113648914
000040 fc 51 79 3d 08 94 46 3e 85 5c f5 3d fd e2 92 3d
       0.060869202 0.19392407 0.11980537 0.07172201
000050 5f 39 67 bd 0a bb 11 3e 61 13 5c 3c 45 a7 3b 3e
       -0.056451198 0.14231506 0.013432355 0.18325527
000060 7d b2 68 bd 2c fc ef bd 34 52 46 bd a1 ad 85 bb
       -0.056810845 -0.1171802 -0.04841824 -0.004079536
000070 65 22 b5 bd 22 c8 09 3d 96 0a 32 bc a4 74 86 bd
       -0.08844451 0.033638127 -0.010866782 -0.06565216
000080 2d 32 12 be 36 4b 47 bd d4 80 24 be 08 d4 a2 bd
       -0.14276953 -0.04865571 -0.16064769 -0.07950598
000090 fc aa 05 be 2b 45 df bd 10 1c 14 be 01 4d 20 3d
       -0.13053507 -0.109018646 -0.1446383 0.039135937
0000a0 b4 57 48 bd fa f0 ce bd 74 85 0d 3d 41 b5 56 bc
       -0.048911765 -0.101045564 0.0345511 -0.013104738
0000b0 98 cd 0b 3e cb 7b 5b bc ef 43 93 3c c7 54 6d bd
       0.13652647 -0.013396214 0.01797673 -0.057942178
0000c0 43 38 ef 3d 11 a4 40 be c7 30 53 3c 5d 3c 0c 3e
       0.11680653 -0.18812586 0.012890047 0.13694902
0000d0 ad 82 20 be c3 69 39 bc d5 e4 33 bc 29 1c 12 be
       -0.15674849 -0.011316719 -0.010979851 -0.14268555
0000e0 b5 0a e1 3d 21 2c 09 be 7f 69 d8 3d 5e f3 07 bd
       0.1098837 -0.1339574 0.10566997 -0.033191077
0000f0 46 6d 05 be 33 3a 0d be 5e 6e a0 3d da 1b 2d bd
       -0.13029966 -0.13791732 0.07833551 -0.04226289
000100 c3 5f 40 3d 45 3b 02 3e 01 2c cd bc 3a fa f7 3c
       0.046966325 0.12717922 -0.025045397 0.030270685
000110 e7 40 28 3d 98 1c a3 3d 8f ce a5 3b 8d da 49 bd
       0.04107752 0.07964438 0.005060024 -0.049280692
000120 92 dd a8 3d 9d 6e 37 bc 85 7e 48 bd 4c d9 ad 3d
       0.08245386 -0.011195806 -0.048948783 0.08488712
000130 c3 ad 44 bd 66 2c 4b 3e d1 09 cf 3d 8c 18 c3 3c
       -0.048017275 0.19841155 0.10109294 0.023815416
000140 c5 a7 b0 3d 20 ed 40 be 0c 0f 34 bd 54 87 1f be
       0.086257495 -0.18840456 -0.043959662 -0.15578967
000150 f9 24 08 bd 69 ca b9 bd ac 60 35 be 1f 51 98 bd
       -0.033238385 -0.0907181 -0.17712659 -0.074373476
000160 35 ce 0d 3e 87 c7 ea bb d5 d7 92 3d 8a 38 37 3d
       0.13848193 -0.007164899 0.07170073 0.044731654
000170 27 f0 39 3c bf a1 f4 3b b0 e9 79 3d 36 7a 05 be
       0.011348761 0.0074655707 0.061013877 -0.13034901
000180 9e e4 88 bd b4 9c b7 3d da ad 21 3e ff be 90 3c
       -0.0668423 0.089654356 0.15788975 0.017669199
000190 1d 38 1d bc 9d 23 51 3e de fc da 3d 93 1f f7 bd
       -0.009595898 0.20423742 0.10692762 -0.12066569
0001a0 58 84 cd 3d be c6 1e 3e 71 02 a4 bc 5c 60 d1 3d
       0.10035008 0.15505502 -0.020020695 0.10223457
0001b0 85 1f ba 3d d3 87 5a 3e a2 3a f2 3d 39 00 dc 3d
       0.09088043 0.21340875 0.118275896 0.1074223
0001c0 bf 28 f2 bd c2 5f 35 3e 6d fb 01 be f6 9e c0 bd
       -0.11824178 0.1771231 -0.12693568 -0.094053194
0001d0 bd 41 7e bd 23 1a 0d 3e bd 84 f9 3c 47 17 8f 3d
       -0.06207441 0.13779502 0.030458802 0.06986862
0001e0 de 31 64 3e 70 3e 48 3d bd 63 6c bd a9 76 20 3e
       0.22284648 0.04888767 -0.057712305 0.15670265
0001f0 cb ac 40 bc 93 8d 1d be dd ef 21 bc ce 0b 6b bd
       -0.011759947 -0.15386038 -0.009883848 -0.057384305

lstm.bias_hh_l0 f4 [128]
000000 f4 82 46 3e ca d3 63 3e f4 d2 53 bd 10 3d 15 be
       0.19385892 0.2224876 -0.051714852 -0.14574075
000010 45 05 f1 bd f6 9d 38 3e ea 87 c0 3d 7e ec 49 bc
       -0.11768583 0.18029007 0.094009236 -0.012324451
000020 59 4d 1a 3e 73 1f 74 3e b8 55 a0 3d aa 8b fe 3d
       0.15068568 0.23840122 0.078288496 0.124289826
000030 6d c9 0d 3e a2 27 3a bd 7b ee 40 bd 6d c4 32 3e
       0.13846369 -0.045447953 -0.047102433 0.17457743
000040 b5 7d 62 3e 76 ed 5b 3e f1 c2 8e 3d 29 f7 81 bd
       0.22118266 0.21477303 0.06970776 -0.0634597
000050 fb ec 36 be 73 af d8 bd 12 46 dc bd cd 70 49 bd
       -0.17863838 -0.10580339 -0.10755552 -0.04917984
000060 27 03 21 bd 8c 0f 33 3d 54 07 a8 bb 1b 54 28 bd
       -0.039309647 0.043716 -0.0051278267 -0.041095834
000070 bd a0 19 3e 93 78 dd 3d e9 5c 36 bd dc 7e ed bd
       0.15002723 0.10814013 -0.0445222 -0.11596462
000080 17 9b 20 3e 1f 85 27 3d 03 58 2b be b1 5e 11 3e
       0.15684162 0.04089844 -0.16732793 0.14196278
000090 24 ce 88 ba 17 8b 46 bc 39 67 17 be 9d 51 8e bc
       -0.0010437411 -0.012118123 -0.1478547 -0.0173729
0000a0 40 33 e3 bd 60 18 cb 3d d8 d5 a1 3d ae 98 2a 3e
       -0.110937595 0.099167585 0.079021156 0.16659805
0000b0 85 01 65 3d db 9f 07 be 00 f5 c9 3d da 6b 33 be
       0.055909652 -0.13244574 0.09861183 -0.17521611
0000c0 96 f0 80 bd f6 05 e0 3d d7 57 e1 bd 08 97 f4 3d
       -0.06295888 0.10938637 -0.11003082 0.119428694
0000d0 78 0b 1b 3e db 5b 90 bd 65 ab d4 3c c6 80 ca bd
       0.15141094 -0.0704877 0.025960634 -0.09887843
0000e0 32 08 13 be 72 67 b6 3d 99 35 03 be a2 e3 e5 3d
       -0.14358595 0.089064494 -0.12813415 0.11225058
0000f0 ce f0 b8 3d d7 a9 18 3e 40 0b f3 bd 5d 68 dc 3d
       0.09030305 0.14908539 -0.1186738 0.10762093
000100 dd 02 15 3d e2 fa 05 bd c1 2e d6 3d 75 61 35 3c
       0.036379684 -0.032709964 0.10458136 0.011070599
000110 72 21 1c be aa 39 f1 3c 59 c8 d6 3d 2c 63 22 be
       -0.15247133 0.029446442 0.10487432 -0.15858144
000120 c4 a8 5a bd ad 1a ff bd 04 5f 8c bd 38 da ee 3d
       -0.053383604 -0.1245626 -0.0685406 0.11662716
000130 3e d6 1f bc 09 84 bd bd db eb 4a be 70 fe ae 3d
       -0.009755669 -0.09253699 -0.19816534 0.08544624
000140 6f 31 2c be 98 0a d0 bd 0f 0d ff bc da ce 50 3d
       -0.16815732 -0.101582706 -0.031134157 0.05097852
000150 b3 83 77 3c 5a 14 07 be ab 7c f6 bd 19 8d ac bd
       0.015107083 -0.13191357 -0.12035497 -0.0842535
000160 67 eb ca 3d 08 21 f7 3d 61 f4 37 3e 78 a4 30 3e
       0.09908181 0.12066847 0.17964317 0.1725024
000170 45 39 bd 3d 01 ff 87 bb be ed b8 3c f5 c0 2d 3d
       0.09239439 -0.004150272 0.022574302 0.042420346
000180 0e e2 95 3d 13 f0 15 3d d8 e1 8a bd e2 2b 58 bb
       0.07318507 0.036605906 -0.067813575 -0.003298514
000190 b2 6f 1e 3e 0d e0 41 3e eb ba 14 bc 81 fc 2d 3e
       0.15472296 0.18933125 -0.009077768 0.16990854
0001a0 17 03 1e 39 d4 54 75 3e e0 e6 f9 bc f6 ac 9e 3c
       0.00015069205 0.2395814 -0.030505598 0.019369584
0001b0 db 20 bd 3d ba 08 db 3d ff c1 d6 3d 8b 2e 10 3e
       0.09234782 0.10695024 0.104862206 0.14080255
0001c0 fd a4 b7 bd 0c 8f ac bd 68 0c 57 bd 73 fc 48 3e
       -0.08967016 -0.084257215 -0.052502066 0.19627552
0001d0 33 85 4e be dd 04 f3 bd 03 b7 30 3e c9 be f0 bd
       -0.20167999 -0.11866162 0.17257313 -0.117551394
0001e0 af 47 74 3e 23 e8 0a 3e 47 84 17 3d 1c fe 13 3e
       0.2385547 0.13565116 0.036991384 0.14452404
0001f0 ce cf a9 bc 4b a8 a8 bd 8f 3f 06 bc 37 76 a0 3a
       -0.020728972 -0.08235224 -0.0081938645 0.0012242262

output_layer.weight f4 [1, 128]
000000 7a db ef 3d ac 68 e2 3c 57 26 93 bd 5a 4b 1d 3c
       0.11711784 0.027637802 -0.07185047 0.009600485
000010 c9 9c be bd aa 6c 43 bd 45 2e e7 3d 0b 75 aa bd
       -0.09307248 -0.047711052 0.11288122 -0.083231054
000020 c4 c3 f5 bc 4b b8 19 3d 4d 38 af bd d5 18 17 3d
       -0.030000575 0.03752927 -0.085556604 0.036888916
000030 5b c5 8c 3d 98 26 ea 3d 77 c3 72 bd 0a 6a 11 b9
       0.0687358 0.114331424 -0.05926844 -0.0001386778
000040 e9 c6 e1 bd 67 4d dd 3c 68 e8 0d 3d 2e a1 a1 bd
       -0.11024267 0.027014447 0.034645468 -0.07892071
000050 fd 97 0a bc 82 c8 8a bd c5 01 20 bd 3a c3 a0 bc
       -0.008459088 -0.06776525 -0.039064188 -0.019624341
000060 79 b8 1a 3c 49 f5 a4 3c b3 23 b9 3d 2b 94 9b 3d
       0.009443396 0.020136492 0.09040012 0.0759662
000070 33 5c 3f bc d1 e3 8f 3d a5 75 5e 3d ad 33 4f 3c
       -0.011679697 0.070258744 0.054311413 0.012646598
000080 97 c4 e7 bc d6 3f c1 3c 62 ae 1a be 1b e3 53 3d
       -0.028291984 0.02359001 -0.15105584 0.051730257
000090 98 be dc bd ed 13 aa 3d eb 07 06 3e 42 f8 66 bd
       -0.107785404 0.08304582 0.13088958 -0.0563891
0000a0 e5 c0 04 3e ad 6b 9f bd 74 3f 7d bd b0 5f f1 3c
       0.12964208 -0.077842094 -0.06182809 0.029464573
0000b0 7f b9 2f bd 4a 9b 1a bc 09 c8 6b bd 73 e6 ee bb
       -0.042901512 -0.009436438 -0.057563815 -0.0072906553
0000c0 ae be 69 bc 08 f3 55 bd cf 7e 22 3d 91 c4 83 bd
       -0.014266653 -0.052233726 0.039671715 -0.064339764
0000d0 bd c7 08 bd 48 95 30 bd 20 ec 4e bd c2 8b d8 3d
       -0.03339361 -0.043111116 -0.050518155 0.10573532
0000e0 a2 64 ef 3c 36 2b ab 3d b2 ae 15 bd d2 df 90 3d
       0.02922279 0.08357851 -0.036543556 0.0707394
0000f0 50 83 a6 3d 5f cd 6b 3d 8c 22 b1 3d 05 c6 58 bd
       0.081305146 0.057568904 0.086491674 -0.05292322
000100 4f 33 15 bd 6b d0 4e 3c b3 3b e4 bd 32 4a ad bd
       -0.036425885 0.012622933 -0.11144199 -0.08461417
000110 1c 97 fb bc a6 6b 24 3d 44 79 4e bd b0 c4 c3 bc
       -0.030711703 0.040141724 -0.050408617 -0.023897499
000120 dc 8e e3 3d 4c 0d eb bd 2f 66 18 bd ae 90 bc 3d
       0.11111233 -0.114771456 -0.037206825 0.09207283
000130 1a e6 f6 3b ee 09 e4 3c f3 bf cf 3d e7 21 92 3d
       0.0075347545 0.027836766 0.10144033 0.071353726
000140 6e 9e ab bd 97 53 d7 bd eb b2 a0 bc c2 b1 b9 bc
       -0.083798274 -0.1051399 -0.019616565 -0.02266777
000150 99 c2 80 3c 30 45 6a 3c 84 31 4c 3c 45 88 4d 3d
       0.015717791 0.014298722 0.012462977 0.050178785
000160 ed b7 66 3d 5c 1d 84 bc 73 ab c9 3d 80 e5 0a 3d
       0.05632775 -0.01612728 0.098471545 0.033910275
000170 9e 4a bd 3c 67 af 25 bc 05 93 91 3a 43 36 9d 3a
       0.02310687 -0.01011262 0.0011106437 0.0011994321
000180 43 ef f4 3d c2 9f b0 3d 6c f3 37 bd a3 c0 af bb
       0.11959698 0.086242214 -0.04490988 -0.0053635403
000190 cd b4 06 3b e1 b9 6e bd 49 b2 d1 3c 14 bd db bd
       0.0020554543 -0.058282737 0.025597708 -0.10729423
0001a0 72 ce 28 3d 92 32 0a bc 4c 46 34 bd 44 54 8b 3d
       0.041212507 -0.008434908 -0.044012353 0.06803182
0001b0 6b 81 73 bd 57 20 67 3d f7 87 15 bd 42 71 c0 3c
       -0.059449594 0.056427326 -0.03650662 0.023491506
0001c0 e9 27 b0 bd 55 2b 8d bd a1 ac 58 bc 39 09 01 bd
       -0.08601362 -0.068930306 -0.013224752 -0.031502936
0001d0 83 90 1e 3d 50 c9 a9 bd bc 40 2a bd 83 b0 56 3d
       0.038712036 -0.082903504 -0.04156564 0.05241443
0001e0 6b 27 43 3d 1a 53 1b 3c b7 ac 55 bd 9a 4e 2f 3b
       0.047645014 0.009480262 -0.052166667 0.002674973
0001f0 10 9b 75 3d 15 10 f0 bc 59 ee 51 bd 3e c1 12 bd
       0.059962332 -0.029304544 -0.051252697 -0.03582882
