model_states/sst_0.0005_64_Adam_L1Loss_[].pt (torch, 76703 bytes, 5 tensors)

lstm.weight_ih_l0 f4 [256, 6]
00000000: 88a8 ce3c 0e6f f1bd e3c5 c63d d651 7b3d
00000010: 1979 03be 4899 5ebd 2032 89bd 664c ac3d
00000020: c7c5 5e3c dee7 743d 681d 0b3e 40ba aabd
00000030: 6d0c bdbd 2779 323d 4f06 52bd b9ce 963d
00000040: 6979 60bd 0122 70bd 6334 e2bd a5cf 3b3d
00000050: bccf f0bc 8585 1dbe 545b 673d 2bde cfbd
00000060: e193 ac3d 5ee6 60bc 3017 13be 2ef0 0bbe
00000070: ae6a dabc 5d83 c03d 7c2c 4e3c dfee c0bc
00000080: c97b 9d3d f05a 07bd 9df7 61bd 8280 abbc
00000090: 51f2 f43c 6049 b7bc 7115 f93d 15cd 823b
000000a0: 1861 82bc 91fa ee3b feab c93d 050c 323c
000000b0: df5e 533d 9d6f 4cbd db90 3f3b c320 c2bd
000000c0: 9229 f4bc bb3a 96bd ebe5 f13c ff24 38be
000000d0: f20a 06be fac7 eb3c 9341 db3c 7f89 a6bd
000000e0: 2a5e 8d3d d583 27bd b82d 993d cede 5fbb
000000f0: 03e8 68bc cd47 5dbc a543 73bd 01b5 123d
00000100: a262 cfbb 612e 08bd 5946 343d 6bc1 c23c
00000110: bb4e 9ebd fef0 23be dd70 babd fcac d23c
00000120: b953 d33d 4c3c a63a 4216 57bd e81d 0c3d
00000130: 5cc0 e6bd 319d a93b 824b de3d 5a0b 09bd
00000140: e12c 883d 2e10 a4bd 610d 8bbb 1d68 02bd
00000150: be75 bdbc 2c8d 8dbd c973 f2ba 194c acbb
00000160: 0c8e 08be 4d8d 26be 2c5c 1c3d ef05 41bd
00000170: ec78 76bd cf97 9bbc bd7e b23d 71f5 96bd
00000180: 36bd 35bd 4bfa 123d 884c 303d f5e9 c83d
00000190: b088 84bd 23d3 a53c 127d b93d cd3f 083e
000001a0: 49ab bd3d 9cff 8a3d 49aa 653b 5e05 5bbd
000001b0: e655 533d 62c7 91bc 5a61 46bb 8e70 a3bb
000001c0: 955b 843c cf21 e53a 9686 0cbe 240a d43c
000001d0: b099 90bc 772f 14be c26b 9dbd 546a 21be
000001e0: bc24 863c 30b7 bb3d 9077 8d3d eb5b 033d
000001f0: 3b9d 193d 7be0 4d3c 0b5e cfbd 12cd c93d
00000200: 2d3f 1bbd bf13 1c3d e119 e639 33e1 3bbd
00000210: 5ee7 8bbc 1725 c0bc 7e44 1cbd 3005 8a3d
00000220: e213 8ebc 7df7 9bbc d60d c2bd 6e01 bdbd
00000230: 1c02 67bc cd28 f0bb 6333 a6bd fc01 903d
00000240: 70e7 7f3d cca7 efbc ea9a 813d cc80 2b3c
00000250: a0b4 0abd 2c46 cfbb a429 123d 7f61 823d
00000260: 2ab6 a3bc 5e37 7f3d 6dae 953d fc5e ab3d
00000270: 7fcc 503d 4074 a13c f8ae cd3b 2e12 863d
00000280: cbaa 6e3d f781 a6bc 4ccf 11be 1b01 283c
00000290: f5c4 01be 8afe a5bc 72c5 0fbe 769e b5bd
000002a0: f75c 993d f8f8 ddbd b31f babd 294f c3bc
000002b0: 0b38 eabd 85c1 f93d 4937 f1bc 7311 093c
000002c0: f7b9 0a3c f43c ae3d 1d37 35bc fb65 b13b
000002d0: c6ee 01be c3d3 9d3c ef02 273d b98b 433d
000002e0: 4543 36be 3ff9 0d3d adac c93d 8e2c 08be
000002f0: 94b8 9e3d 146e e9bb 722d 82bd 9541 09be
00000300: 9468 50bd 40b6 46be 553b 05bc ed9e 34be
00000310: 3b9e dabd bfaa 12be adaa 10be e212 d0bb
00000320: 6269 65bd 5b40 e0bd 62ff ae3d c74c d0bc
00000330: d74b 023c bcbd 0bbe be44 b83b 6799 6cbd
00000340: a6e3 303d 3c43 a73d b45d 16bd 0603 cfbd
00000350: 824c 02bc b869 b43d cbe7 b73c 7dcc 1abd
00000360: edcc 97bd 2d6f 053e 1715 96bd 6b8d fc3d
00000370: 5df2 ec3d 4d00 733d 4b1b bb3d 4869 0c3e
00000380: c7ea d03d 7362 d0bc 59a6 49bc baed 073e
00000390: 3654 08be a831 03be 896d 05bd 033f efbd
000003a0: 2d2e a43d efc7 1d3d 5273 5a3d 9b15 5dbc
000003b0: d714 6bbd dba3 40bd 9a74 503d 6c8f 003e
000003c0: 0b09 54bd 6e5d 953d 077a 04be 9a1b b0bd
000003d0: 522d d73c a89e cf3b eb02 553b 2113 33bd
000003e0: 6b4c e6bd e746 0abd 27f5 043d 20b5 89bd
000003f0: b5cd fdbd ab1d 953d 62a8 d43d 6920 da3d
0.025226846 -0.1178876 0.09705713 0.06135734 -0.12839164 -0.0543454 -0.06699014 0.08413009
0.0135969585 0.05979144 0.13585436 -0.083363056 -0.09230886 0.04357257 -0.051275548 0.07363648
-0.054803286 -0.05862618 -0.11045148 0.045852322 -0.02939593 -0.15382965 0.05648358 -0.10149797
0.08426643 -0.013726799 -0.14364314 -0.1366584 -0.026662197 0.094000556 0.012583848 -0.023551403
0.07689626 -0.03304571 -0.055167783 -0.0209353 0.029900702 -0.022373855 0.12162293 0.003991733
-0.015915439 0.0072930534 0.09847258 0.0108671235 0.051604148 -0.04991113 0.0029230628 -0.09478905
-0.029804979 -0.07335421 0.029528579 -0.17982863 -0.13090113 0.02878188 0.026764667 -0.08131694
0.06902726 -0.04089721 0.07479423 -0.0034159902 -0.014215472 -0.013505888 -0.059390683 0.03581715
-0.0063288966 -0.033247355 0.0440124 0.02377387 -0.077298604 -0.160099 -0.09103558 0.025717251
0.10318703 0.0012682765 -0.05251146 0.03420821 -0.112671584 0.0051762094 0.10854246 -0.03345809
0.06649185 -0.080108985 -0.0042435382 -0.03183757 -0.023127433 -0.06911692 -0.0018497641 -0.005258095
-0.13335437 -0.1626484 0.03817384 -0.0471248 -0.060173914 -0.018993286 0.0871558 -0.07371033
-0.0443699 0.03588323 0.043041736 0.09810249 -0.064713836 0.02024228 0.090570584 0.13305588
0.09261186 0.06787035 0.0035044125 -0.053471915 0.05159559 -0.017795268 -0.0030270428 -0.004987783
0.016156951 0.0017481389 -0.13723215 0.025883742 -0.017651409 -0.14471231 -0.07686569 -0.15763217
0.016374938 0.091657996 0.0690757 0.03207008 0.037503462 0.012565727 -0.10125359 0.09853567
-0.037902046 0.03810477 0.000438883 -0.045869064 -0.017078098 -0.023455186 -0.038151257 0.06739271
-0.017343465 -0.01903891 -0.09475295 -0.09228788 -0.014099624 -0.0073290826 -0.0811527 0.070316285
0.062476575 -0.029254816 0.06328376 0.010467719 -0.033863664 -0.006325504 0.035684243 0.06366252
-0.019984324 0.06230866 0.0730866 0.08367726 0.050976273 0.019708753 0.0062769614 0.06546436
0.05826835 -0.020325644 -0.14239234 0.01025417 -0.1267279 -0.020262975 -0.14040163 -0.08868115
0.07488435 -0.10838503 -0.090880774 -0.023841457 -0.114364706 0.12195114 -0.029445307 0.008365977
0.008467189 0.0850772 -0.011060503 0.0054137683 -0.12688741 0.019266015 0.040774282 0.04774067
-0.17799099 0.034661528 0.098473884 -0.13298246 0.07750049 -0.007123718 -0.06356324 -0.13403924
-0.050880983 -0.1940546 -0.008131822 -0.1763875 -0.10674711 -0.14322947 -0.14127608 -0.0063499073
-0.056008704 -0.10949775 0.08544804 -0.025427235 0.007952652 -0.13646597 0.005623429 -0.057763483
0.043185852 0.08167121 -0.036710456 -0.101079985 -0.007952811 0.08809227 0.022449395 -0.03779267
-0.07412133 0.13030691 -0.07328241 0.12331661 0.115696646 0.05932646 0.09136065 0.13712037
0.1020103 -0.02543757 -0.012307727 0.13274279 -0.13313374 -0.12811911 -0.032575164 -0.116819404
0.0801662 0.03852075 0.053332634 -0.013493921 -0.05739292 -0.047031265 0.05089245 0.12554711
-0.051766437 0.07293211 -0.12937175 -0.085990146 0.026266728 0.006336052 0.003250296 -0.043719415
-0.11245044 -0.033759024 0.032460358 -0.06724 -0.12392751 0.07281049 0.10383679 0.10650713

lstm.weight_hh_l0 f4 [256, 64]
00000000: fccd 9e3d 9ab2 24bd 0173 b6bd 30cc 86bc
00000010: a164 90ba 8d4f 03bd e4c8 a6bd 4624 19bd
00000020: fca5 4bbd cd61 31bd 9f0d b23d 00cb 55bc
00000030: 1da1 0dbd b3bd 9c3d e5c4 eb3d dcb1 5fbd
00000040: 3069 0b3d 8b51 bc3d 5a64 1abc 2ed8 c33d
00000050: 8302 fbbc d276 22bd b497 efbb 6ec0 d9bd
00000060: 7d76 ae3d 7010 8f3d c0ea 8dbc 7f16 133d
00000070: 6259 cb3d 3193 703d d69d 86bd 8bce 013e
00000080: c656 ae3d 0b65 dcbc a3fd 953d 923b 2bbd
00000090: 668c c93c db78 11bc 8f52 773c 9c58 d9bd
000000a0: 8336 bdbc 75ba 0e3e 5c8f 43bd 1e7d 6d3c
000000b0: 2e81 6abd 50ef 7a3d e0bb bebd d402 f63c
000000c0: 405b eabc cf6d 133d 4dd7 cbbc 6f19 123d
000000d0: bb04 46bd 3ca8 72bd b89f d53d eaa0 453d
000000e0: f9d7 5bbd a67a a7bd 6de8 aabd 34b6 023d
000000f0: 61a5 3ebd a683 aebd ebb1 f93d eebc e1ba
00000100: 8e18 bebd 8c31 793d 1dd8 7bbd 6cbb 91bd
00000110: a680 9ebd 129d 7cbc 2a26 8b3d 571f 173e
00000120: bf8b 07be 66b3 25bd b4c1 94bd f978 5c3d
00000130: 8499 a7bd d6c3 f63d 6e38 92bb 3ebf 8d3d
00000140: 3b26 fabd fcb3 853c d0cf 9dbd 83c8 55bd
00000150: 54ae 7a3d c467 03bc 4b43 b43d 87a5 95bd
00000160: 0052 f2bd 8a9d d6bd d8bc bc3d abf6 85bc
00000170: b24c a13d bf0c ce3d 7657 d7bc 4db1 623d
00000180: cad9 03be f03e 443b a306 13be d847 073e
00000190: 3d98 fd3d fb07 6f3d e5e2 683c 433f 8fbc
000001a0: bfa4 fa3c 905b 07be 2809 9ebd f9b4 5a3d
000001b0: 3ec7 493d f84f 9e3c 3bd6 debc dc83 14be
000001c0: 6582 e6bd c28a bf3d c58d c7bc 1529 173d
000001d0: 4c06 ffbc 76c5 da3c 0659 2a3d 7833 0bbe
000001e0: d35e b6bd 311e ed3d 5373 c63d fe1a adbd
000001f0: cc99 66bd 8c5b 74bd f143 44bd 78a8 62bc
00000200: bc4d c13c dd40 c73c 487d b0bd eae4 093c
00000210: f902 d1bd d532 3d3d 3f0d 8bbd 328d 18bd
00000220: b998 c6bd 0375 a13d 2cec 3cbd 9e42 173d
00000230: ab34 f1bd 428d 4c3d 224a f63d f637 c13d
00000240: bce8 44bd f500 74bd 67db 03be 3dd8 a4bc
00000250: e3f7 8a3d 7566 1a3d 3c7c 39bc aa91 e0bd
00000260: ece1 8e3b dd6b f5bd 1bca d83c c748 a5bc
00000270: af7a 5d3d 616a 5a3d 9ccc 973d 8830 bd3d
00000280: 6925 09be ce6d d7bd 8ec4 a83d 6d62 903c
00000290: 805a 33bb 3615 a7bc 583f 21bd 64d2 8ebd
000002a0: 0f08 ae3c e562 e93d 3c62 6abb 3c79 cfba
000002b0: 313c 393d 6140 2c3c d6dc b3bb 73d3 7c3d
000002c0: 42f6 a1bb 7573 a13d 71c4 493d 52c8 a13d
000002d0: dd48 03be d0f5 1439 eed3 123c f2a4 5fbd
000002e0: 680f 2bbd fa90 773d 37a3 c43d 5758 2bbd
000002f0: 0a18 783c 7a4a f73d 6b13 d4bc fba6 213d
00000300: 096e 6b3d 3643 5e3d 7e6c a1bd 58ed f9bc
00000310: 1659 b3bd 9df3 bbbc d139 eb3d 377c 873d
00000320: 01d8 db3c 8595 a7bd 62a2 963d 026e cbbd
00000330: b61a b8bb 2721 1c3d e72f 843d d26b 27be
00000340: e6d3 0f3d 1c51 c0bb c6b1 09be 0c64 983c
00000350: 9f53 e63b 725a fc3c 89ea babd 2833 963d
00000360: 434b d0bd 2e17 fbbd 5fc6 683d 8063 7b3c
00000370: b1a7 293d 11a7 b13d d529 22bb 78d1 75bb
00000380: 12e0 4ebd 4b83 f5bd 5f39 093b 1b05 b83d
00000390: 7d05 c4bd bcac 9b3d dab5 803c d43b be3d
000003a0: 497a 433d 90e7 063e 8a84 203d 225c cdbd
000003b0: c884 f6bd c586 003e 9507 12be 9d14 febb
000003c0: 8eba 883d 5232 9abd eb9a 33bd 3fbe ca3c
000003d0: 6e1c f03d f252 d8bd 9e92 683b 5b13 d93d
000003e0: b87b 8abd cd23 0d3e 875d 2ebd fcb9 fd3d
000003f0: 4125 fcbc 7705 99bd 95ce 8f3d a84e ed3d
0.07754132 -0.04020939 -0.08908654 -0.016454786 -0.0011016318 -0.032058287 -0.081437856 -0.03738811
-0.049718842 -0.04330616 0.08694004 -0.013048887 -0.034577478 0.0765337 0.11512164 -0.05461298
0.03403586 0.091952406 -0.00942334 0.095627174 -0.030640846 -0.039664097 -0.0073117856 -0.10632406
0.085186936 0.06985557 -0.017323852 0.035910126 0.09929158 0.058734123 -0.065730736 0.12676446
0.085126445 -0.02690365 0.07323768 -0.041804858 0.02460308 -0.008878912 0.015095367 -0.10612604
-0.023097282 0.13938315 -0.04774414 0.014495162 -0.0572521 0.061263382 -0.09313178 0.030030645
-0.028607965 0.035993394 -0.024882937 0.035668787 -0.048344355 -0.059242472 0.104308546 0.048249163
-0.053672764 -0.0817769 -0.08345113 0.031912044 -0.046544436 -0.08521204 0.12192138 -0.0017222443
-0.09282027 0.060838267 -0.0614854 -0.07115826 -0.077393815 -0.015418308 0.067943886 0.14758049
-0.13236903 -0.04045429 -0.072635084 0.053826306 -0.08183578 0.120490715 -0.0044622933 0.06921242
-0.12214323 0.016321175 -0.07705653 -0.052193176 0.06120141 -0.008020345 0.088018976 -0.073069625
-0.118320465 -0.10479267 0.092157066 -0.016352972 0.078759566 0.10061025 -0.026286822 0.05534487
-0.12876049 0.002994474 -0.14358 0.13211 0.12382553 0.05835722 0.014214252 -0.01748622
0.030596135 -0.13218522 -0.0771659 0.053395245 0.049262278 0.019325241 -0.027201762 -0.14503425
-0.112553395 0.09352638 -0.024359593 0.036904413 -0.031130932 0.026705485 0.041588806 -0.13593853
-0.08904805 0.11578024 0.09689965 -0.08452414 -0.056299016 -0.05965762 -0.047916356 -0.013834111
0.023596637 0.024322921 -0.086176455 0.008416394 -0.10205645 0.046191055 -0.06789636 -0.03724403
-0.09697098 0.07883646 -0.04612367 0.036928765 -0.11777624 0.0499394 0.120258585 0.09434502
-0.048073515 -0.059571225 -0.12876664 -0.020122642 0.06785562 0.037695367 -0.011321124 -0.10965283
0.004360428 -0.11983464 0.026463559 -0.020176305 0.05407208 0.053324107 0.07412073 0.09237772
-0.13393177 -0.105189905 0.08240615 0.017625058 -0.0027367175 -0.020395856 -0.03936705 -0.069737226
0.021244077 0.11395816 -0.0035764119 -0.0015828977 0.04522342 0.010513396 -0.005488972 0.06172509
-0.0049426863 0.0788335 0.049259607 0.07899536 -0.12820764 0.00014205952 0.008961661 -0.054600663
-0.04176274 0.060440995 0.09601443 -0.041832294 0.01514245 0.12074752 -0.025888165 0.039465886
0.057477985 0.054263316 -0.07882021 -0.030508682 -0.08757226 -0.022943312 0.11485637 0.06615489
0.026836397 -0.081828155 0.07355191 -0.09933092 -0.0056184186 0.038117554 0.06454449 -0.16349724
0.03511419 -0.005869044 -0.13446721 0.018602394 0.0070290114 0.030804846 -0.09126765 0.07333976
-0.10170605 -0.122602805 0.056829806 0.015343547 0.04141969 0.086744435 -0.0024744172 -0.0037508886
-0.05050666 -0.11987933 0.0020938737 0.08985349 -0.09571359 0.07601306 0.015711714 0.09288755
0.047724042 0.13174272 0.0391889 -0.100273386 -0.12037045 0.1255141 -0.14260705 -0.007753922
0.066762075 -0.07529129 -0.043848913 0.02474892 0.117241725 -0.105626956 0.0035487781 0.10599395
-0.06761879 0.13783188 -0.042569663 0.12388989 -0.030779483 -0.074717455 0.07021824 0.11587268

lstm.bias_ih_l0 f4 [256]
00000000: 6dc0 263d a392 eebd 54d7 67bd ba92 383e
00000010: 7cb5 8fbd 5001 ddbc 380f a8bd c25f f93d
00000020: 97c2 4d3d 7b5c 1bbd a832 363e b266 1f3e
00000030: f353 cd3c e800 c2bd 52b1 563e d71e a83d
00000040: 2ee9 043e 1b6d 11bc 0c35 90bd 669a 133d
00000050: a9bb 063e 1139 38bd faff d7bc 406f 033b
00000060: e244 0bbd 6988 abbd e32b 2a3e 9488 1dbd
00000070: 0e4e 013e 26b8 313d 77a1 e53d 5b5e 1abd
00000080: 425e 7e3c 67df cebc 91c7 8abd b157 2cbd
00000090: 6a42 4cbd 0787 c4bb 8270 9f3d 2384 cfbd
000000a0: 3624 99bc b8d6 b83d f5bc 04bc 07d7 83bd
000000b0: 668f d33d 1791 543d eeea cebc d1a5 203e
000000c0: bf9c e4bd 57a1 db3d 70d9 87bc 1b31 96bd
000000d0: ade2 5c3c a6eb 70bd a286 e63c a74b 593c
000000e0: 0c2f 923d aba4 cebd 2add 013d 4b00 8d3d
000000f0: 2452 f23d f30e 58bd c719 733d 277a d8bc
00000100: a466 653d ff10 333d c7b8 df3c 503d 46bc
00000110: f5c9 e7bc 0f35 f7bd 0764 47bd 1b60 8f3d
00000120: 4e14 a5bd 8e08 fcbd b6f9 883d c280 023d
00000130: b5e5 b83c ba8f cbbd 76c1 11be cb6d ac3d
00000140: a680 39bd 9290 873d 486c e1bd fc8c b43d
00000150: 26a2 f43d 5838 c2bd 1369 24bc 4306 4dbd
00000160: b22f 77bd ef63 c93d dd82 4cbd d593 693d
00000170: c437 633c ba54 eb3c 72de 26be d9cc 4e3d
00000180: c9f7 44bc 3747 273c b44f e03d 8028 e93c
00000190: 0991 7dbd e6b4 a7bd 94c7 f6bc 9db8 0ebe
000001a0: d13a a63d 8f0c eabc 53fc a23c 17c4 67bd
000001b0: 3be9 d93b a477 a0bd 0487 8e3d 21e9 02bd
000001c0: d4f1 54bc 28ab e2bd 9029 d1bd bd0f ccbd
000001d0: 50ac 623d 47a2 a93d 1496 053d 046d 97bc
000001e0: 4d77 e63c 35df e6bd 5878 b93d 8a64 89bd
000001f0: ad7d 0abe e184 813c a841 1dbe b5f9 e53c
00000200: e4c5 153c 0b6d 15bd 2fd7 ae3d 7a27 733c
00000210: 58dd 62bd da25 9ebd 7793 db3c bba2 44bd
00000220: 92dc 173e db29 17bc 578b 35bc ddfb 28be
00000230: 4205 71bd f9f3 dfbd 668d cdbd cccc c33d
00000240: af26 ce3d db06 2b3d fe7e cc3d 7145 21bd
00000250: 98ad 253e c719 a43d a51f 10be bfaf 103e
00000260: 8953 793d aeec 9c3d efb6 c93c e35d 22bd
00000270: 2a42 b9bd 661f b1bc 357e dc3c 88df 613d
00000280: 141f 443d 6674 34bd 6fe0 123e 07bd 023e
00000290: 83f6 a8bd b264 b53c 3d20 bd3d 8374 c03d
000002a0: 6e49 d93d bcb6 00be 341a e13d 9ef7 ee3d
000002b0: d860 293e c1b3 04be 6120 a13d b974 e63d
000002c0: c157 ba3c 0fa7 e53c 15b3 30bd f0fa 7abc
000002d0: 303e 603d 65ff c63d 286f 823c f1f0 a2bb
000002e0: 2e1e 803d 2c90 103d 008d 19be 5226 943d
000002f0: c5b3 c1bd bc75 e9bc 5b50 0dbe f8e8 10be
00000300: 27e5 7cbc efa4 b23c f798 cb3d 7995 fbbc
00000310: 1c53 073d c0e5 393c 2023 373d 284a 8abd
00000320: 72ee 683e 97d3 c6bd 580d 113e 6077 003e
00000330: ad9c 85bc ffed ba3d 3717 8b3d 1e1a b0bc
00000340: c34f 683b d1eb babd b456 e1bd 8e7b 5c3c
00000350: 450b f53d 0460 c83d 324e 083e f2d2 ce3d
00000360: c17b 173e 63ed fcbc 3258 013c 74ee 9e3d
00000370: 8a04 c5bd 29c5 24bd c404 1a3e 0044 ed3d
00000380: c6f6 ce3d 27c3 9e3d 47e4 89bd 056f 8c3d
00000390: c824 c3bd 4d71 ffbd 360a e33d 4a2d 01be
000003a0: dfb1 cd3d a1b6 7dbd bdd3 193e e98b c4bd
000003b0: bcdf 103e bafc 0abd ebe8 c5bd c061 9d3d
000003c0: 6e7b 9cbd 976f 1e3e 9079 813c c2bb b43d
000003d0: d678 0abe bc3e c43c de0e 193e 0952 373d
000003e0: 26fc fb3d 882c 433c eeb0 bbbd 77a7 61bd
000003f0: 3382 533c 8be2 563a aad3 67bb 2579 f3bc
0.040710855 -0.116490625 -0.056601837 0.18024722 -0.07017037 -0.026978165 -0.08206028 0.121764675
0.050234403 -0.037929993 0.17792761 0.15566519 0.025064444 -0.09472829 0.2096608 0.08209007
0.12979576 -0.00887611 -0.07041368 0.036035918 0.13157524 -0.044976298 -0.026367176 0.0020055324
-0.03400124 -0.083756275 0.16618304 -0.03846033 0.12627432 0.04338851 0.112124376 -0.03768764
0.0155254025 -0.02525301 -0.067763455 -0.042075817 -0.049868025 -0.005997542 0.07785131 -0.10132625
-0.018694025 0.09025329 -0.0081016915 -0.064374976 0.103300855 0.05189618 -0.025258508 0.15688254
-0.111627094 0.107241325 -0.016583174 -0.07333585 0.013481778 -0.05881848 0.02814037 0.013262666
0.0713788 -0.10090002 0.03170506 0.068848215 0.11832073 -0.05274863 0.059350755 -0.026425434
0.05600609 0.04371738 0.027309788 -0.012099579 -0.028294543 -0.12070667 -0.048679378 0.070007525
-0.080605134 -0.12306319 0.066882536 0.031861074 0.02257047 -0.09939523 -0.14233956 0.08419379
-0.045288704 0.066193715 -0.11006981 0.08815953 0.1194499 -0.09483403 -0.010034817 -0.0500548
-0.06034822 0.09833514 -0.04992949 0.05702575 0.013868276 0.028726924 -0.16295794 0.050488327
-0.012021967 0.01020985 0.10952702 0.028461695 -0.061905894 -0.081888005 -0.030124463 -0.13937612
0.08116687 -0.028570442 0.019895708 -0.05658349 0.0066501177 -0.0783532 0.06959346 -0.03196061
-0.012997109 -0.11067802 -0.102130055 -0.09963939 0.05534011 0.08282905 0.03261383 -0.0184846
0.028133059 -0.11273042 0.09056157 -0.067086294 -0.13524504 0.015810432 -0.15357077 0.028073171
0.009141419 -0.036480945 0.08537137 0.014840955 -0.05538687 -0.07722063 0.026803715 -0.048006754
0.14830235 -0.009226288 -0.0110805845 -0.16502328 -0.058842905 -0.10935206 -0.10036735 0.09560546
0.10065972 0.041754585 0.09985159 -0.039372865 0.16179502 0.08012729 -0.14074571 0.14129542
0.06087068 0.076623306 0.024623362 -0.03964032 -0.09045823 -0.021621417 0.026915649 0.055144817
0.0478812 -0.04405632 0.14343427 0.1276742 -0.082501434 0.022142742 0.092346646 0.09397223
0.10609709 -0.12569708 0.10991326 0.11668323 0.16540849 -0.12959196 0.07867504 0.11252732
0.022746922 0.028033761 -0.043139536 -0.015318617 0.054746807 0.097166814 0.015922144 -0.00497257
0.06255756 0.035293743 -0.14995193 0.072338715 -0.094581164 -0.028498523 -0.13800184 -0.1415137
-0.015435494 0.021807162 0.09941285 -0.030710923 0.033038244 0.011346281 0.044711232 -0.067524254
0.2274721 -0.09708326 0.14165246 0.12545538 -0.01631006 0.091274254 0.06791537 -0.021496829
0.0035447932 -0.0912701 -0.110028654 0.013457192 0.1196504 0.097839385 0.13311079 0.100988284
0.14793302 -0.030874914 0.007894563 0.07760325 -0.096200064 -0.04022709 0.1504088 0.115852356
0.10105662 0.07752066 -0.067329936 0.06857113 -0.095285 -0.12472782 0.11085932 -0.12614933
0.10043692 -0.061941747 0.15022178 -0.09596998 0.14147848 -0.033932425 -0.09663566 0.0768466
-0.0764073 0.15472256 0.015805036 0.088248745 -0.13522658 0.023955695 0.14947078 0.04475597
0.12303953 0.011912473 -0.09164606 -0.055091348 0.01290946 0.00081972097 -0.0035373964 -0.029720852

lstm.bias_hh_l0 f4 [256]
00000000: 3e1d a4bd a8ec 773b bfce 96bd c64f 83bc
00000010: 5376 433d ae9b 633d 0048 de3d b634 03bd
00000020: 456d 8e3d 63a9 ac3d 9eec 123e 2b3d af3d
00000030: ef0e 9abd d554 ba3d e813 113e 7e7f 99bd
00000040: 0be1 be3c e2eb 58bd 57d7 c33d 2a04 903c
00000050: 1b58 223e f581 db3d 84e8 153e d5f4 6b3d
00000060: decf 073e da6f 3f3d 4e7b 3a3d fd44 1c3d
00000070: 95a0 fb3d b6fa b03c 416f 543e 6ef2 293d
00000080: 20d5 f33d 8fc0 c23d c8e1 d5bc 38a1 7b3d
00000090: db56 ba3d 867b 6fbd 6a46 413d 6abe adbd
000000a0: d429 63bd 5aa0 00be e868 31bd 2114 21bd
000000b0: 621f b93c c025 ec3d c7df 9a3d 6315 95bc
000000c0: 02e2 bcbd 3e86 e23d e4c0 8fbd 11bd ea3d
000000d0: 90e0 8ebd 1085 b53d c387 093e 9725 9f3c
000000e0: a41d ea3d ae65 f3bb 6eec cdbc 4975 ebbd
000000f0: f69a 0e3e 0d32 debd 396d da3a bffa 9a3d
00000100: fae4 f13d 6041 b13c 382d 983d 0822 be3d
00000110: e689 31bd 7d7d 16bd c820 d9bd 86de b5bc
00000120: e666 a6bd 1376 87bc b6a8 9ebd c47f ccbd
00000130: 3caa 31bd 56dc 82bd 2665 9fbd 9f37 90bd
00000140: 9b76 803d 5224 60bd 2fe6 cb3c 84c9 6b3c
00000150: 3906 6cbc 2e7c 82bd d5a2 4ebc 99bc 873d
00000160: a73e 633d 4a14 25bc 37c4 acbc b062 bebb
00000170: fe15 9e3d 43d9 ff3b b0d0 83bc 2653 8d3d
00000180: 3a06 edbb eedf a03d aa3d a63d d674 ccbd
00000190: 7dc0 433d 5bbe 10be 6e45 b53b f716 bf3d
000001a0: e227 c43d cd2c 863d 83c6 c43c edbc 3f3d
000001b0: a740 07be 1b25 b1bd 12d2 dbbd 9135 cf3c
000001c0: 58e1 24b9 de71 bdbd b76c 10be da5e 03be
000001d0: 6c89 9c3d 774c 31bd bfdd 00bd f460 d23d
000001e0: 3e54 e23d 5bf3 fdbd 7aee 8ebd d327 233d
000001f0: ba6b 87bc 7c9f 813d d017 d33c 5d78 80bd
00000200: d901 e53d b0f7 803c 8ad3 77bd fbc9 e4bd
00000210: e029 1b3e f14c b23b 76a5 143d 93ed 2cbd
00000220: a039 fa3c 951d 793c 1cab 1d3d 7a36 1bbe
00000230: e935 f13d 3218 ba3c a8a9 49bd 18b6 cf3b
00000240: a2c0 c43d 6137 da3d 2ed6 a1bd acce 10be
00000250: efb4 203e ac2e 2e3e 59e4 903d 2e36 3a3d
00000260: 3904 f73c 4a65 a4bc 8695 15be 7644 9dbd
00000270: c07b 7dbd c837 8e3d c251 593d ae32 f9bd
00000280: 3a89 a6bd 8a99 4ebd 13dd 0d3e cb17 8c3d
00000290: 32f9 343d 29c0 a7bd 12fa 9d3d c28a 9fbc
000002a0: 5716 0b3e 597a 16be 2e8e 37bd 6b34 053d
000002b0: daa9 823c b083 e2bd c912 9bbd 78b1 d73d
000002c0: 0c43 e73c 9c7f 5d3c e4b6 1dbd 2460 12bd
000002d0: 24a0 8cbc cbbc 173e c755 1bbe e881 dc3d
000002e0: bb9d 0a3c 4a2c bfbb 607d a83b c917 e7bb
000002f0: 02a5 4bbc 20ca b03d babb 1fbc 8962 38bc
00000300: e55f cfbd ebc9 99bd 36ce 963c cfaa 79bd
00000310: ec4a 1e3d caa2 18bd dbf5 6e3d 3c0c a33c
00000320: f894 293d 95bc 443d 28b5 4e3b 1374 9d3c
00000330: ac75 85bd f4a6 08bd fc89 3b3e 69c6 8bbc
00000340: 8398 4dbd 37e4 dcbd 43c2 fabd dbd4 9e3d
00000350: ae5d 00bc 5dee f9bc b82f 123e 30ea dbbc
00000360: b9d5 113e dcc9 ddbc da38 673e c93b 153e
00000370: c028 4f3d 2857 19be 77c2 e43d 1756 2f3d
00000380: 50c1 403e 2540 de3d b5ec 4b3d b6d0 83bd
00000390: 6b8e df3c e456 1e3d c049 f73d 82e9 82bd
000003a0: 3fb6 003a 20c3 87bc 7bfd 78bd 51b3 073e
000003b0: 50fb ee3d 1ed3 97bd 5cac 03bd 06c0 563d
000003c0: 90a6 e53d 8070 aebd 0c80 a73d 3980 163b
000003d0: b59a a3bd 4bd4 163e ae70 193d b92a 733c
000003e0: c037 7ebd 70fb db3d 688f 063e c095 10be
000003f0: 58e3 c4bd 4447 a03d ce17 f03b feaf 843d
-0.0801339 0.0037830267 -0.073636524 -0.01602925 0.047720265 0.05556839 0.10853577 -0.03203269
0.06954435 0.084307455 0.14348075 0.08556589 -0.075223796 0.09098212 0.1416775 -0.0749502
0.023300668 -0.05295933 0.09562557 0.01758011 0.15853922 0.10718147 0.14639479 0.057606537
0.13262889 0.04673753 0.04552775 0.03815173 0.12286488 0.021603923 0.20745565 0.041490965
0.11905885 0.09509384 -0.026108637 0.061433047 0.090985976 -0.05846741 0.047186293 -0.08483584
-0.055459812 -0.1256117 -0.043312937 -0.039325837 0.022597972 0.11530638 0.075622134 -0.018198675
-0.09222795 0.11060761 -0.07019213 0.11461843 -0.06976426 0.0886327 0.13430695 0.019427104
0.11431435 -0.0074278926 -0.025137153 -0.1149698 0.139263 -0.1084939 0.0016664631 0.07567357
0.11811252 0.021637619 0.074305 0.09283835 -0.0433444 -0.03674077 -0.10601956 -0.022200834
-0.08125095 -0.016535794 -0.07747023 -0.09985307 -0.04337524 -0.06389682 -0.077829644 -0.07041859
0.06272622 -0.054722138 0.024890034 0.014391307 -0.0144057805 -0.06371342 -0.012612064 0.06627769
0.05547967 -0.010075638 -0.021089656 -0.0058101043 0.077190384 0.007807882 -0.01609072 0.06900625
-0.0072334083 0.07855211 0.0811723 -0.09983222 0.047790993 -0.14135115 0.0055319583 0.09330552
0.095779195 0.06551514 0.024020439 0.046811033 -0.13208257 -0.086496554 -0.10733427 0.025294097
-0.00015724206 -0.09250234 -0.14103971 -0.12829152 0.07643399 -0.043285813 -0.031461474 0.102723986
0.11051224 -0.12399932 -0.069790795 0.0398329 -0.01653086 0.06329247 0.02576819 -0.062729575
0.11181993 0.015743107 -0.060504474 -0.11171337 0.15152693 0.005441301 0.03629061 -0.042218756
0.030545056 0.015204807 0.03849326 -0.151575 0.11777861 0.022716615 -0.049234062 0.006338846
0.09607054 0.10655094 -0.0790218 -0.14141339 0.1569402 0.17009991 0.07074804 0.045461826
0.03015338 -0.02006783 -0.1460782 -0.076790735 -0.061885595 0.06944233 0.053056486 -0.121678695
-0.08131643 -0.050439395 0.13853864 0.06840476 0.044182964 -0.081909485 0.07713713 -0.019475345
0.1358274 -0.1469511 -0.044813327 0.032520693 0.015950132 -0.11060274 -0.07571942 0.10531896
0.028230213 0.013519194 -0.038504496 -0.035736218 -0.017166205 0.14818113 -0.1516944 0.10766965
0.008460457 -0.005834137 0.005141899 -0.007052396 -0.012429478 0.08632302 -0.009749347 -0.011253961
-0.10125712 -0.07509216 0.018408876 -0.06095391 0.03864567 -0.037264623 0.058339935 0.019903295
0.041401833 0.04803141 0.0031541083 0.019220388 -0.06516585 -0.033362344 0.18314356 -0.017062383
-0.050194275 -0.10785716 -0.12244084 0.07755443 -0.007834835 -0.030509168 0.14276016 -0.026845068
0.14241685 -0.027073793 0.22580281 0.14573587 0.05057597 -0.14974654 0.11169904 0.04280671
0.18823743 0.10852078 0.04978629 -0.06436293 0.02728959 0.038657084 0.120746136 -0.06392194
0.0004909969 -0.016572535 -0.060788613 0.13251998 0.11669028 -0.07413314 -0.032146797 0.05242922
0.1121341 -0.085175514 0.0817872 0.002296461 -0.079884924 0.14729421 0.037460975 0.014841729
-0.062064886 0.10741317 0.13140643 -0.14119625 -0.09613675 0.07826093 0.0073270565 0.0647888

output_layer.weight f4 [1, 128]
00000000: 1102 58bd 44ad 523d 28bd bd3c ed89 74bc
00000010: ce85 9e3d 2978 9abd 5741 913d fa79 c3bd
00000020: c6ab 113d fdd8 863d 59d6 b3bc c2a0 f1bc
00000030: 3765 3d3c c29b 0bbd ce53 953c f26c cdbc
00000040: 85a7 993d adca d13c ca17 10bd 5c6a 363c
00000050: ccab 353c 71ec dc3d 39c1 85bd 115c 373d
00000060: 13d6 7c3d d240 8c3d 68ce 90ba 99bd a1bc
00000070: 84f7 afbd 3cf3 09bd 5ab9 6c3d bce7 d2bd
00000080: d94a 0bbe 8730 d23d cd54 b03d 1af6 73bc
00000090: 6dee 0abc c74f 43bd ce03 803d aaf5 82bc
000000a0: b921 c13d 44d0 08bd 57ac a93d 471c 753d
000000b0: 0a52 603d 1c7a cdbd 26a4 30bd 8380 893d
000000c0: 8cce 8d3d eaeb d2bc 2845 2fbd b622 8cbc
000000d0: 8fc5 3bbc 100f f33d b00b e43c 9d52 353d
000000e0: f30b e0bd 4cde 513d c6ed e8bd a2bd 58bd
000000f0: 8355 33bd 337e 173c 704f c7bd d1b8 80bd
00000100: 526a ec3d dcba 4cbb 3991 5f3d 2e15 c3bd
00000110: 96df a93d e463 9abd 1e4c 2fbc 2e44 bbbd
00000120: a181 c23d b047 833b b268 96bd 4c28 85bd
00000130: 113a d23d bffb 113d da38 d5bd d199 6d3d
00000140: 1dfa 873d 9744 163d 824a d23c cd01 e9bd
00000150: 11c6 d93d fbce 34bc 5934 01be 0125 923d
00000160: 8f4b db3d a6fa 2d3d ae1e e2bd da52 d7bc
00000170: 1265 4abd 6a07 50bc 2715 983d 7280 f8ba
00000180: 1f49 26bd 3e49 aa3d bc16 833c bc0d 333d
00000190: a524 92bc 29fa d4bc 31b5 f53b afd1 323d
000001a0: 1b27 873d 985d 253c 02e5 c83d c78a 1f3d
000001b0: 8ca5 3a3d 56b3 d4bd 1242 a8bb 939d eb3d
000001c0: afb4 fdbc 9f99 a8bd f3ce 49bd 700c db3c
000001d0: 6ef2 503c 9a9e 5abd a0b9 04be b30e 293d
000001e0: ddf5 26bd b020 a8bc 3932 04bc a463 52bd
000001f0: d645 b4bd a4d5 6c3c f373 f4bd b2ba 673c
-0.052736346 0.05143477 0.023161486 -0.014925462 0.07740365 -0.0754245 0.07092541 -0.095447496
0.035564207 0.06584356 -0.021952795 -0.0294956 0.011559776 -0.03408409 0.018228438 -0.025076363
0.07502655 0.025609339 -0.035178937 0.0111337565 0.011088323 0.10787285 -0.06530995 0.044765536
0.061727595 0.06848301 -0.0011047842 -0.019743728 -0.08592132 -0.033679232 0.057793953 -0.10298106
-0.13602771 0.10263162 0.086099245 -0.014890218 -0.008479697 -0.047683503 0.06250726 -0.015986282
0.0943026 -0.033401743 0.08284824 0.05984142 0.05476574 -0.10033056 -0.043125294 0.06713965
0.06924161 -0.025747258 -0.042790562 -0.017106395 -0.011460676 0.11868107 0.027837604 0.04426824
-0.10939779 0.05123739 -0.11373477 -0.052915223 -0.043782722 0.009246397 -0.097319484 -0.06285251
0.115437165 -0.0031239307 0.054581854 -0.09525524 0.08294599 -0.07538584 -0.0106993 -0.091438636
0.09497381 0.0040063486 -0.07344188 -0.06501827 0.102649815 0.035640474 -0.10411234 0.05800802
0.06639502 0.036686506 0.025670294 -0.113772966 0.10633481 -0.011035676 -0.12617625 0.07135964
0.10707771 0.042475365 -0.11041008 -0.026284624 -0.049412794 -0.01269708 0.074259095 -0.0018959178
-0.040597077 0.08314751 0.016002052 0.04371427 -0.01783974 -0.025998192 0.0074984063 0.043657
0.06599256 0.010093115 0.09809305 0.038950708 0.045568034 -0.10385768 -0.0051348293 0.11504664
-0.030969946 -0.08232426 -0.049269628 0.02673933 0.012753112 -0.05337391 -0.12961435 0.041273784
-0.040761817 -0.0205234 -0.008068615 -0.051364556 -0.08802383 0.014455233 -0.11936178 0.014143633
