model_states/tas_0.0001_64_Adam_MSELoss_[8].pt (torch, 80909 bytes, 7 tensors)

lstm.weight_ih_l0 f4 [256, 6]
00000000: 23ce e13c 75e0 f1bd 2547 c93d d0eb 9d3d
00000010: 478c e4bd 86e4 30bd 6138 ddbd 0cc7 353d
00000020: 7d9f 22bd 51ae c23c 543e c93d 4d12 1dbe
00000030: 59a4 06be 3126 663a 16ec c1bd ae82 193d
00000040: fc8d b0bd c1eb cfbd f6b7 ccbd 231b 4f3d
00000050: 9ac4 cebc aa6a 01be b30e b43d 10fe c1bd
00000060: e946 a93d fc12 a5bc c5c1 08be 6c76 f2bd
00000070: 73ea 9a3b 4c7b e73d 8e43 a1bc 1ff3 6cbd
00000080: 4746 183d a5f5 86bd 8848 97bd 7dd8 8abd
00000090: f7d1 03bd 4d5e a6bd dc50 803d 10eb 57bd
000000a0: abe6 42bd 8850 79bd 00db d83d ec80 8f3c
000000b0: 05bc 6a3d 39e2 0fbd 0d81 d93c 5731 bebd
000000c0: 144a 39bd 6e77 bebd f0f0 013c 7fb9 37be
000000d0: aedb f8bd 36e9 a23c 393a d03b 4324 c5bd
000000e0: e77a 5c3d d9a9 88bd 2257 943d e532 1abd
000000f0: ae46 aebb af40 f5bb a8e2 55bd 4961 3f3d
00000100: 92c7 cd3c 27be 893b 2ff1 c13d 5e13 923d
00000110: b177 e8bc 42c3 cebd 85b2 edbc 8d3d a93d
00000120: 758e aa3d 97b5 c1bc abc3 a3bd 8884 9f3c
00000130: f5c9 f2bd a234 95bc 5a80 ab3d 5bb9 58bd
00000140: 58b2 3b3d ee60 bdbd 8321 93bc fee9 81bd
00000150: 1cbd c63c 3b51 47bd 45a3 303d 579e 393d
00000160: 0d07 92bd 7b61 c5bd 6516 0e3c ad81 b6bd
00000170: 0743 bebd d8a8 33bd 3247 863d e897 ddbd
00000180: 6cd2 4abc 5f53 893d 9c21 9a3d 0e13 0b3e
00000190: 17e8 b6bc 36c6 6d3d 272c 4b3d b41d be3d
000001a0: e0bc 553d 5c6f da3c 3520 0fbd 4395 d7bd
000001b0: 7b63 213d 4005 1bbd 1e00 acbc 5662 84bc
000001c0: 2e09 263b 980d e3bc 82de f1bd 4145 093d
000001d0: e97c 03ba 17a9 eebd efc0 2abd f4fe 06be
000001e0: 5f1e 803d 0b3a 083e 116a e33d 28fb b33d
000001f0: c8c7 bf3d 76ed 6b3d 46b8 e7bd 4cfa bc3d
00000200: 3c88 3dbd a5c7 233d 675f 373c f124 85bd
00000210: 4871 803b d255 22bb 24d3 50bc 3ee2 c53d
00000220: 37aa b73c 47bf c83b a662 b7bd cb08 b3bd
00000230: fdaa 4cba 1e3a 103b 7aea 7fbd 701f d53d
00000240: 18a3 913d 84f2 a2bc 404f 763d fa23 073d
00000250: bd7f bbbb 3120 55bc 0b55 073d 5b14 783d
00000260: 7451 cbbc b1aa 813d 96db a83d 2759 963d
00000270: dff5 b23d c983 713d 1c74 1b3d 9d9e d53d
00000280: 0ceb d43d 0ceb 9a3c bd3a 28be 114b 44bc
00000290: 81a2 16be 9845 0dbc 8a94 ffbd 77e1 e3bd
000002a0: ddc6 113d 13f2 15be 262d ffbd 250f 7bbd
000002b0: dac1 0ebe 3571 a73d 0144 c1bd 552c 66bd
000002c0: ca72 6bbd 5c03 ae3c 44e5 91bd 5d50 8cbd
000002d0: d7c4 babd 3807 4b3d b1b0 8d3d e374 b73d
000002e0: e10e f8bd 0497 993d 2f02 af3d 15ae 14be
000002f0: 9e33 813d 6f76 aebc 0baa 69bd 960e 1abe
00000300: 1bc0 603d 2e2e d1bd a92e 633d 9948 d9bd
00000310: fd67 bfbc 7ed9 77bd a86d d8bd 78f5 ea3c
00000320: a277 c5bc 0b2a 9cbd 8356 003e e01d 493c
00000330: b7fb 15bd 16e8 38be d0a0 0ebd 0593 dabd
00000340: 189d 9d3b a4a0 6b3d de13 92bd b3ef 12be
00000350: b275 39bd 3e34 4b3d 750b 7abc acbb a4bd
00000360: 18ed f6bd 8a7e ab3d bb34 ffbd ad8c ab3d
00000370: 6fe9 a03d 4556 00bb 6e2c 0e3d d2bc a23d
00000380: ce6d 373d c73b b5bd 4eb9 90bd e1ec 7f3d
00000390: 7259 efbd 86d3 eabd 7d12 87bc 560f c4bd
000003a0: 32f6 f53d c6fd 923d cdb2 a63c f389 4dbd
000003b0: fe8c c0bd 05d9 96bd a555 b63c dc55 ad3d
000003c0: ea18 5fbd cda7 8f3d 9f89 09be 8289 adbd
000003d0: 68e7 073d 2bea b4bb c13e 9fbd ea5a ecbd
000003e0: 8115 3cbe bfa7 d5bd 48c9 f5bc d04d 27be
000003f0: a21e 32be d1fd ad3c f10f 493d 7332 8c3d
0.027564114 -0.1181039 0.09828023 0.07710993 -0.11159568 -0.043186687 -0.10801769 0.04437928
-0.03970288 0.023764761 0.09826341 -0.15339012 -0.13148631 0.00087794947 -0.09468858 0.03747814
-0.08620831 -0.10152388 -0.09996025 0.05056299 -0.025240231 -0.12638345 0.08791866 -0.09472287
0.08265478 -0.020150654 -0.13355167 -0.118389934 0.0047276556 0.11302814 -0.019685533 -0.057849046
0.037176397 -0.06589822 -0.07386881 -0.06779573 -0.03218266 -0.08123455 0.06265423 -0.052714407
-0.047583263 -0.060867816 0.10588646 0.01751753 0.057308216 -0.035127852 0.026550794 -0.092867546
-0.045236662 -0.09300123 0.007930979 -0.17941855 -0.121512756 0.019886594 0.006354597 -0.09626057
0.053828146 -0.06673021 0.07243182 -0.037646193 -0.0053184843 -0.0074845175 -0.05221811 0.046723638
0.025119577 0.004203576 0.0946983 0.071326 -0.028377386 -0.10095836 -0.029015789 0.08263693
0.08327953 -0.02364616 -0.07996305 0.019472376 -0.118549265 -0.018213574 0.083740905 -0.052911144
0.04582438 -0.092470035 -0.017960316 -0.063434586 0.024260096 -0.04866145 0.043124456 0.04531702
-0.07130251 -0.096377335 0.008672331 -0.089114524 -0.09290128 -0.043862194 0.06556548 -0.108199894
-0.01237927 0.06705355 0.07525942 0.13581488 -0.022327466 0.058050357 0.049602654 0.09283009
0.05218208 0.026664428 -0.034942824 -0.10526516 0.039401513 -0.037846804 -0.02099615 -0.016160171
0.0025335061 -0.027716443 -0.11810018 0.03351331 -0.00050158665 -0.11653345 -0.041687902 -0.13183194
0.06255793 0.13303392 0.11104215 0.08788139 0.09364277 0.057599507 -0.11314444 0.09227428
-0.0462725 0.039985318 0.011192179 -0.06501187 0.003919754 -0.0024770391 -0.012745652 0.09662293
0.022420032 0.0061263177 -0.089543626 -0.087419115 -0.00078074617 0.0022007297 -0.062479474 0.10406387
0.07111186 -0.019891031 0.060134172 0.032993294 -0.0057220147 -0.013008163 0.033040088 0.060566287
-0.024819113 0.06331385 0.08245008 0.07341223 0.087383024 0.05896357 0.037952527 0.10430644
0.10396394 0.018910907 -0.16428657 -0.011980788 -0.14710428 -0.0086225495 -0.124795035 -0.111269884
0.03559004 -0.14643125 -0.12459783 -0.06129374 -0.13941136 0.081758894 -0.09436799 -0.056194622
-0.05748252 0.021241836 -0.07123807 -0.068512656 -0.091195755 0.04956743 0.06918467 0.08957841
-0.12112213 0.07499507 0.08545338 -0.14519532 0.06308673 -0.021296708 -0.05704693 -0.15044627
0.054870706 -0.10213886 0.05546442 -0.1060955 -0.023365015 -0.06051015 -0.1056779 0.028681502
-0.024104897 -0.076252066 0.12533002 0.012275189 -0.036617007 -0.18057284 -0.03482133 -0.10672573
0.004809987 0.057526246 -0.071326956 -0.1434925 -0.04527826 0.04961037 -0.015261521 -0.08043608
-0.12056941 0.08373745 -0.124612294 0.08376441 0.07857024 -0.001958267 0.03471034 0.07946171
0.044782452 -0.08849292 -0.07066594 0.062481765 -0.11686982 -0.11466126 -0.016488308 -0.095732376
0.12009849 0.0717731 0.02034893 -0.050180387 -0.09401892 -0.07365612 0.022257635 0.08463642
-0.05446712 0.07014427 -0.13431405 -0.08473493 0.03317967 -0.005521079 -0.07775641 -0.11540778
-0.18367578 -0.10432386 -0.030003205 -0.16338277 -0.17394498 0.021239193 0.04908747 0.0684556

lstm.weight_hh_l0 f4 [256, 64]
00000000: 8120 843d 48e2 953c 0690 65bc 0817 523c
00000010: dc5d 30bc 9f68 31bc d918 e7bd b7ce 90bb
00000020: 1e3d bcbb 5978 4f3b 8aba 303d 97bf b2bb
00000030: 1a55 283d a0f7 753c f96d 343d 07ce 7c3c
00000040: 35b2 ef3c c461 083e 9aa6 7f3d 3adf 013e
00000050: 5599 40bd cb31 7abd 280b 4f3b 2ee1 98bd
00000060: 2a7d 283e 166b cc3c 8f87 e8ba 9f3b 41bd
00000070: 8799 483d eba5 e83b 1b9f 9b3c 073e 1c3e
00000080: 65d0 f73a 0747 3cbb 1cad de3d 47d5 84b8
00000090: 3bcb 653d 0611 6cbd d67b 703d 8cb5 09be
000000a0: 6241 66bd d7c7 8a3d a944 ea3c 93ba 94bc
000000b0: 020e b2bd d0bb 873d a939 cabc 45f9 973c
000000c0: 5f37 c9bd 38b9 9a3c 5c2f 9bbd 04aa 9f3d
000000d0: 0372 a2bd ec62 b6bd fee4 083e 6122 6c3c
000000e0: 6c7c 7ebc c1bb f5bd a615 b5bd 3baa 40bc
000000f0: 5ac7 eebd d420 6abd d7fe 583d ad5b 8fbd
00000100: dd1c c6bd c404 843d db9d 7abd e9e8 94bd
00000110: d94d 90bd 4d1b 3bba 3dd8 8d3d 9e79 123e
00000120: b643 63bd d42f e73c 7283 0abe 513b 2e3d
00000130: b9d9 84bd af4b ca3d d3d1 07bd 850d ad3d
00000140: 5208 d4bd dad2 a33c 1d6b 5dbd 1ee3 6bbd
00000150: 8e30 933d 7489 deba 8602 a93d b9a6 a2bc
00000160: ade6 d2bd a613 d6bd e748 c93d 8a1f 9bbd
00000170: d2e9 5a3d ee11 cc3d 8d76 8fbb 9d47 4c3d
00000180: 8bd7 04be a860 4f3d 0fef b0bd 719c 093e
00000190: 9746 ff3d 2cba 5d3d 4423 823d 46b9 76bc
000001a0: 694f 093d c76f 29be 83c3 73bd 27f2 5b3d
000001b0: 5569 493d 5c9c 8fbb 900b 01bc d74a 08be
000001c0: 41ab 04be 5e7b 7f3d 2adf edbd 1b4d 403d
000001d0: f8ec 03bd 7707 c83c 3478 1b3d 7dca 08be
000001e0: 6616 a6bd a1ee d73d 7f67 4f3d e5d3 abbd
000001f0: 9795 a8bd 1aa2 80bd 5ff9 81bd 96b3 c0bc
00000200: f836 1c3d b539 7b3c dc4b b9bd 92d7 97bc
00000210: 29a6 a3bd e7c8 003d 1cf0 1cbd 4970 88bd
00000220: a6bb 61bc 1ad2 133e 2ede e0bd d97a 633c
00000230: 4938 e2bd eb31 ae3c b26c b53d 494f e73d
00000240: c67a 83bc dfb9 8abd 242b d6bd b3cb 4dbd
00000250: 273e c13d 5fd1 823d 102a 0cbd befc 6abd
00000260: 6993 bf3c 0cf6 b6bd 4520 c83c c618 97bd
00000270: 2c07 b73c 76e1 813d 5b65 d33d 0302 873d
00000280: 1a42 febd ee97 40bd a32b 113e 454b 523c
00000290: cdbf a1bc 88ce 04bc b61a 823c 460f 5bbd
000002a0: b94c 3a3d be94 b43d 9f78 663c cfe4 b83c
000002b0: 09c8 8f3d d79b d4bc 368f 863c d711 bd3d
000002c0: 5b78 a4bc eaea 313d 85b3 dfbc 19e0 d93d
000002d0: 05ad f3bd d11b a13c 702d 82bc 3342 dcbc
000002e0: 67ec 79bd d2bd 583d b281 443d 61fa dfbc
000002f0: 8913 31bc 7553 d73d c660 a9bc 3195 293d
00000300: cee2 363d 06de cb3d d5eb 79bc c5e1 a2bc
00000310: 55be b6bd 8b3f 3fbc 25c3 d03d d5e6 983d
00000320: 95a6 e43d 815f cfbc 15c2 ad3c b1fa ccbd
00000330: 64ea 5a3d d9f7 e0bb cd27 7b3c bacb d5bd
00000340: 8818 2e3d 10bf e73c 1187 a1bd 8dd7 d93c
00000350: d04d bf3b 9a27 cd3c 698c b7bd dc16 e73d
00000360: 24ab 1dbd 5bf4 08be 578b 753d 1a6e a6bd
00000370: 649b aa3b 0381 2d3d 7aa3 823d 5236 873a
00000380: 4c55 bcbd 577f a6bd aa43 643d 0083 ff3d
00000390: 6e73 a6bd 6ee6 253d b041 8e3d 0d3d a53d
000003a0: 73ea 173d bf14 673d 76e4 c53d bb09 e0bd
000003b0: 36f2 07be ed08 ee3d 3669 b7bd 05bd febb
000003c0: f8db 693c e3a8 ccbd fbe0 02be c9fb 983d
000003d0: 9943 cf3d eeb6 f2bd 47e2 583c 64ac c03d
000003e0: b561 41bd 554c ce3d 6832 8dbd 5e9f c23d
000003f0: e8f6 a6bd ac56 59bd 4de7 ae3c dfe2 573d
0.06451512 0.018296376 -0.014011389 0.012822874 -0.010764565 -0.010828166 -0.11284036 -0.0044191736
-0.0057445904 0.0031657426 0.043146648 -0.005454968 0.041096784 0.015012652 0.04405019 0.01542998
0.02925978 0.13318545 0.062414743 0.1268281 -0.04702123 -0.061082643 0.0031592343 -0.074648246
0.16453996 0.024953406 -0.0017740595 -0.047176 0.04897454 0.007099857 0.018996766 0.15258037
0.0018906711 -0.002872886 0.10872862 -6.3339765e-05 0.05610202 -0.057633422 0.05871185 -0.13448161
-0.056214698 0.06776398 0.028597193 -0.018155372 -0.08694078 0.06627619 -0.024685698 0.018551478
-0.09825014 0.018887147 -0.075773925 0.077961 -0.07931902 -0.089055866 0.13368604 0.014412493
-0.015532594 -0.11998702 -0.0884202 -0.011759336 -0.11659117 -0.057160214 0.05297741 -0.06999908
-0.09673474 0.064462215 -0.0611857 -0.072709866 -0.07046098 -0.0007137552 0.0692601 0.14304206
-0.055484496 0.028221048 -0.13526705 0.042537037 -0.0648684 0.09877717 -0.03315909 0.08449844
-0.103531495 0.019998003 -0.05405723 -0.057589643 0.071869954 -0.001697822 0.082524344 -0.01985489
-0.10297904 -0.104529664 0.09828358 -0.07574375 0.053445645 0.09964357 -0.004378146 0.049872983
-0.12972848 0.050629288 -0.08639347 0.13438584 0.12464636 0.054132625 0.06354383 -0.015058821
0.033522997 -0.16546546 -0.059512626 0.05369773 0.049172718 -0.004382653 -0.007876292 -0.13309799
-0.12955953 0.06237351 -0.11614831 0.046948534 -0.032208413 0.024417622 0.03795643 -0.13358493
-0.08109741 0.10543562 0.05063581 -0.08390025 -0.08231657 -0.062809184 -0.06346392 -0.023523133
0.03813836 0.015333583 -0.09047672 -0.01853541 -0.07990677 0.031441595 -0.038314924 -0.06662042
-0.013777649 0.14435616 -0.109798774 0.01388427 -0.11045892 0.021264037 0.088586226 0.11294419
-0.016049754 -0.06773733 -0.10457447 -0.05024309 0.09435683 0.063875906 -0.0342198 -0.05736994
0.02338572 -0.089336485 0.02442945 -0.07377772 0.022342287 0.063418314 0.103220664 0.065921806
-0.124149516 -0.04701989 0.14176802 0.0128353285 -0.019744778 -0.0081058815 0.015881877 -0.053481363
0.045483325 0.08817433 0.014066844 0.022570042 0.070205756 -0.025953216 0.01642571 0.09231918
-0.020076921 0.043436922 -0.027307281 0.10638446 -0.11898235 0.019666584 -0.015890807 -0.026887035
-0.061016466 0.0529154 0.04797525 -0.02734107 -0.01080788 0.10513965 -0.020676028 0.041402046
0.04464989 0.09954457 -0.015253981 -0.019883046 -0.08923022 -0.011672865 0.10193471 0.07465903
0.111645855 -0.025314094 0.02121071 -0.10008753 0.05344619 -0.0068654832 0.015329313 -0.104392484
0.042503864 0.028289348 -0.0788709 0.02659204 0.0058381334 0.025043298 -0.08962328 0.11283657
-0.03849329 -0.13374464 0.059947338 -0.08126469 0.0052065123 0.042359363 0.06378837 0.0010315871
-0.091959566 -0.08129757 0.055728592 0.12476158 -0.08127485 0.040502958 0.06946123 0.08068285
0.037088823 0.05641627 0.09662716 -0.10939356 -0.1327599 0.11622796 -0.08955614 -0.0077739977
0.014273636 -0.0999315 -0.12781136 0.07469899 0.10120315 -0.11851297 0.0132375425 0.09407881
-0.04721232 0.10073153 -0.0689438 0.09503053 -0.081525624 -0.053061172 0.021350527 0.052706596

lstm.bias_ih_l0 f4 [256]
00000000: 035b 683d ce4f 3dbd 0895 f3bc de3d 233e
00000010: 8a16 7ebd 99ed a9bb 8756 febc 4b1d d03d
00000020: 6cdf 5c3d 2099 803b 9df4 0c3e ce25 da3d
00000030: dd8b 793c 8eda 6fbd e4c4 003e 5519 073e
00000040: 084c a93d e024 163d ebeb b9bc f842 433c
00000050: f8e6 a13d d505 53bd d9f6 71bd 571a 90bc
00000060: 8b63 92bd c441 bdbd 9d39 bd3d 3fd4 d43c
00000070: 1140 223e d73f 013e 9be5 b63c 8ce5 40bd
00000080: 7d07 76bd a552 a9bd 9e0e 51bd dc42 3f3b
00000090: e9a9 7f3b c7aa 933d 8c4e 93ba c020 89bd
000000a0: 0f9e 9ebc 6208 5d3e c6ca 6d3c ff55 5ebd
000000b0: fc75 f03d d7c5 19bc e0ab 1f3c 4d32 fb3d
000000c0: 283f 56bd cfbf 473d fe12 b9ba fad4 28bd
000000d0: 2051 823d 9fc4 f5bc 892c 383c d02f af3c
000000e0: 2c2d c43d c7ab 68bd 9483 ddbc 47ba 063e
000000f0: ba15 0a3e f1d2 20bc 6c32 d43c f227 d03c
00000100: ada5 d03c 2d69 583d 2254 493d 9a76 54bc
00000110: 31f6 89bd 077b 00be 15fa 47bd c9de 863d
00000120: f3f9 0dbe 5596 1cbe 49ca 9e3d 642c 743b
00000130: bd2b 773d 34c0 a7bd a417 b9bd 9550 d13d
00000140: 353a 6abd 539f a53d 7b53 c2bd dd08 b23d
00000150: feef d03d a95b d5bd add5 18bd 3ef9 83bd
00000160: d209 a2bc 0564 c73d c48d 78ba 340b 813c
00000170: d357 c93c 0eee 2c3d da66 dabd aab4 363d
00000180: e2c2 303c 96d6 e53b 0b26 d53d 9b6e 3d3d
00000190: 5911 31bd f6c5 9cbd 6281 4fbb aec7 e9bd
000001a0: 461b 983d a823 abbd a2ff 303d 7a8d 7abd
000001b0: 3c0e 36bc cd14 b5bd 2734 983d 3a03 36bd
000001c0: 2770 03bb 8654 dbbd bfbe 86bd 513f d9bd
000001d0: 07ca aa3d 139e 883d 2adf fc3c eef2 f2bc
000001e0: af7a 9c3b 67c7 b4bd 4eb3 ab3d a534 41bd
000001f0: f55c ecbd f246 733c a83c f1bd 7152 313d
00000200: 3ca1 883c f55a 12be c4df f43b 8b83 f23c
00000210: 3ba3 91bd afbf 94bd 447b fe3c 6c49 16bd
00000220: c33c dd3b 1522 b9bd 4eae 823d 059f e7bd
00000230: 896e 0ebe ddbc 0fbd c7d8 3b3d 0201 90bb
00000240: c12b 133d 5c91 70bd 4e81 373c 0d7f 09bc
00000250: b5cf f03d ac27 2a3d 06ad e4bd d93a 9a3d
00000260: f8c6 47bd d7c8 853d fc2c 3f3c a6f8 0d3e
00000270: 7ac2 65bc cdfa 833d 84e2 dcbd 416a 833d
00000280: 7bae df3d f506 00be 195e a33d 0ca2 943d
00000290: 00e2 0abe 4f0a f83d 561f 53bb 7bda 0e3e
000002a0: b318 da3d 60c2 a03c a56f 583c 22b7 ed3d
000002b0: 1d77 163e 13ee 5dbd 08f5 ca3b 8a9b 8e3d
000002c0: e465 ac3d 1026 a93d 3b3b 653d 7b02 b3bd
000002d0: 6b4e e13d f4b0 db3d 272f bb3c a5ad e2bb
000002e0: a83d fb3c 2c46 d73d 9845 97bd c122 163e
000002f0: e8e0 353c dadd 9bbd 10bf 93bd 6254 dabc
00000300: 430b 1a3a e304 a23d 18f8 003e 694e 38bd
00000310: f4e9 3a3d 658d 123d efa9 b13d 52f4 a9bd
00000320: 9d4e 663e bd52 59bd 4f05 d53d 8521 ba3d
00000330: e669 0cbd ee78 023e cb76 aebb a8e9 fd3c
00000340: a02c 1ebd 4903 45bd b3c4 74bd 5c0a 63bc
00000350: 4fa4 983d c851 cc3d 07b8 d83d 0cba bc3d
00000360: a52a d73d c13e 1abd 16fc a5bd c58c 123e
00000370: febd 78bd 7c55 1e3d a877 863d 7e34 f03d
00000380: 56b6 923c c251 fb3c 3bd1 6bbd bee3 e63d
00000390: df1f 36bd c8cb 4abd b7cb 5d3d 50a4 c0bd
000003a0: c237 ca3d 556c 203d b811 293e 02ad afbd
000003b0: 636e 263e 2771 a7bd c112 88bd 5cb5 553d
000003c0: 2ef1 b9bc 6133 d03d 94ec a93c 7c30 033e
000003d0: 3763 afbd 379e 753d db89 0b3e 0f18 473d
000003e0: 8cb1 103e 0a92 673d f63d 0cbe 8c37 733b
000003f0: 2a83 dd3c a1d9 333d e1fb 0cbd 5794 853c
0.05672742 -0.046218686 -0.02973415 0.15941569 -0.062033214 -0.0051857946 -0.031047119 0.10161837
0.05392401 0.003924504 0.13765188 0.10651742 0.0152311 -0.05855804 0.12575108 0.13193257
0.08266455 0.03665626 -0.022695502 0.011917822 0.07905382 -0.051519234 -0.059073303 -0.017590685
-0.071478926 -0.092410594 0.092395045 0.025980113 0.15844752 0.12622009 0.022326281 -0.047093913
-0.060065735 -0.08267716 -0.05103933 0.0029184138 0.0039011186 0.072103076 -0.0011238619 -0.066957
-0.019362478 0.21585229 0.014513677 -0.05428123 0.11741254 -0.009385548 0.009745568 0.122654535
-0.052306324 0.048766907 -0.001412004 -0.041218735 0.063631296 -0.030000983 0.011241087 0.021385103
0.09578928 -0.056804445 -0.02704028 0.13156997 0.1348485 -0.009815917 0.02590295 0.025409672
0.025469625 0.05283468 0.0491525 -0.01296773 -0.067364104 -0.12546931 -0.04882248 0.06585462
-0.1386488 -0.15291722 0.077534266 0.0037257904 0.060344446 -0.08190957 -0.09037712 0.10220448
-0.057184417 0.08087029 -0.09488579 0.08693097 0.10202025 -0.104178734 -0.037313152 -0.064440235
-0.019780073 0.09735874 -0.0009481574 0.015752412 0.02457801 0.042219214 -0.10664149 0.04460589
0.010788651 0.007014106 0.10407647 0.04624806 -0.043229435 -0.076549456 -0.0031662812 -0.11415039
0.07427077 -0.0835641 0.04321254 -0.06117008 -0.011111792 -0.08841858 0.07431822 -0.04443667
-0.0020055862 -0.10709481 -0.06579351 -0.1060778 0.08339315 0.06670775 0.030868132 -0.029656854
0.004775367 -0.088270955 0.08383809 -0.047169346 -0.11541168 0.014848458 -0.117791474 0.043291513
0.016678445 -0.1429251 0.007472964 0.02960374 -0.07111212 -0.07263123 0.031064637 -0.036691114
0.006751628 -0.09039704 0.06380902 -0.113096274 -0.13909353 -0.035092223 0.04586103 -0.0043946514
0.0359304 -0.058732376 0.011200262 -0.008392108 0.11758367 0.04154174 -0.11165814 0.075307555
-0.048773736 0.06532448 0.01166844 0.13864383 -0.014023418 0.06444321 -0.10785392 0.06416751
0.109219514 -0.12502654 0.07976932 0.072574705 -0.13562775 0.12111341 -0.0032214723 0.13950531
0.10649242 0.019623935 0.013210212 0.116071954 0.14693876 -0.054182123 0.006193761 0.069632605
0.084178716 0.08259213 0.05596469 -0.087407075 0.11001285 0.107271105 0.022849632 -0.0069176727
0.030669048 0.10511431 -0.07386321 0.14661695 0.011100985 -0.07610674 -0.07214177 -0.026651565
0.0005876312 0.07911088 0.1259464 -0.044996653 0.04563327 0.035779376 0.086749904 -0.082985535
0.22490926 -0.05305742 0.10401403 0.090884246 -0.03428068 0.12741444 -0.00532422 0.030995205
-0.038616776 -0.048098836 -0.0597579 -0.01385745 0.074532144 0.09976536 0.105819754 0.09215173
0.10506181 -0.037657503 -0.08104722 0.14311512 -0.060728066 0.038655743 0.06565791 0.11728762
0.01790921 0.030678634 -0.057572585 0.11273907 -0.04446399 -0.049510747 0.054149356 -0.0940634
0.09873916 0.039165813 0.16510665 -0.085779205 0.16253047 -0.08175879 -0.06644202 0.05217491
-0.022698011 0.1016605 0.020742692 0.12811464 -0.085638456 0.05996534 0.13626806 0.04860693
0.14130229 0.056535758 -0.13695511 0.0037111966 0.027040083 0.04390872 -0.034419898 0.016306086

lstm.bias_hh_l0 f4 [256]
00000000: e54f 83bd 1daa 973d ae90 3fbd 4bfb 16bd
00000010: 7bca 643d 596f 9e3d de60 233e cab9 55bd
00000020: abfb 953d 9430 013e 015d d33d 052b 153d
00000030: 4c32 aebd 3d34 023e ff9d 6c3d 0bae cdbc
00000040: 3938 c3bc 675c f3bb c5c8 123e 3a3c d6bb
00000050: cf1f d93d 921b ce3d 79d5 e83d 8fb0 1b3d
00000060: bfde c23d 6ffd 1b3d a981 e7bc e41b d23d
00000070: 43c2 1e3e 3ee2 d53d 82f6 f03d 516b 033d
00000080: 350b 323d 714b 1a3d 11c2 19bc 74f6 d93d
00000090: bc3a 143e 65d5 a03c e734 02bd 0bb6 4ebd
000000a0: bbe6 65bd a11c 55b7 028e a9bc 6278 efbc
000000b0: d85c 163d fb48 5d3d fd8f e23d 4bbd 56bd
000000c0: b2c9 06bd a189 553d c15d 61bd d041 163e
000000d0: afae a0bc c189 f03d 9e73 f03d 9caf e13c
000000e0: e00d 0e3e e430 163d a4ca abbd 1702 56bd
000000f0: a887 1f3e f744 86bd 552d 02bd 8c91 023e
00000100: fd5a b33d 05f2 fb3c f8e8 c43d de5a bc3d
00000110: a2c8 a8bd a0ff 29bd c06b d9bd dee3 d7bc
00000120: 3fa3 0ebe 9103 3ebd 30d8 88bd 5b0f 03be
00000130: 238a b7bb 081a 3ebd 9be7 d3bc fba9 56bd
00000140: cb33 503d a906 24bd cd24 243d e4a8 573c
00000150: 2266 02bd 8b9f 95bd 1c64 23bd ed8c 543d
00000160: d1b4 c43d c313 35bc e37c e43c 96da 40bd
00000170: e404 b43d 507d ae3c b7c3 243d ff46 813d
00000180: b937 7f3c 6454 9a3d 0014 9b3d b207 a8bd
00000190: 0220 883d ca46 0bbe 4f14 053d 71c0 f23d
000001a0: 5708 b63d ab62 2c3c a0e4 413d 8cf3 2c3d
000001b0: ca70 19be 43c2 c5bd ef24 d2bd 3f02 523c
000001c0: 5182 313c 3c1b b6bd 9e6e d6bd a6f6 09be
000001d0: 5efd d53d f354 73bd 2d04 08bd 537f bb3d
000001e0: 247e b23d 8edb cbbd 80b3 9cbd 32bc 743d
000001f0: 8f6f 583b 314e 7f3d 7719 7c3d 2c9b 42bd
00000200: 8071 f43d bdc1 b9bd 88b9 0dbe 0f8e c6bd
00000210: 9b0f 0b3e 5d58 243c 7419 263d bc28 fdbc
00000220: d356 e3bd 3719 87bd 5135 e83d 3b14 ccbd
00000230: 28b7 193d 7d9b c63d eaa4 c63d 6fd1 bfbd
00000240: a55f 003d 78b4 c63b 8fb2 2bbe 7d2a e2bd
00000250: 61de e63d bdab 063e b476 cc3d dc25 a8bc
00000260: 3ccc a2bd 347a 00bd 92d9 22be bfdb cf3d
00000270: 0560 6e3c 1c3d 1f3e 3459 a7bd 2db8 e6bd
00000280: 1fa9 a3bc 3490 06be 5d57 993d edfe 593c
00000290: 7588 12bc f5c3 8b3c 85fc 96bc 3b77 d53c
000002a0: f97d 0b3e 0bab d5ba a0e9 10be 3ab3 023d
000002b0: a11e 25bb 7826 10bd f3c1 17be c3b0 7f3d
000002c0: b2a0 b73d 3f6c 8b3d 6737 783d 2fd3 dcbd
000002d0: ca0e 1c3d 8315 223e a03d 14be 3686 d83d
000002e0: 13ec bfbc 530b 833d 435c a63d 7dad 893d
000002f0: 23fb be3d 6a93 1e3d 38d4 653d 8e30 d43d
00000300: 138f aebd 6fb9 91bc c015 383d 3917 9abd
00000310: dae1 513d 863b 52bc 5493 cd3d 8d8e 913b
00000320: 4115 1f3d 6888 bc3d 653f 0dbd a982 7bbc
00000330: 6743 aabd 8109 363b 3915 e13d b01e 113d
00000340: 2425 bdbd 007a 84bd e1cd 93bd 42c8 4d3d
00000350: 67e5 58bd ea26 eabc 127b ec3d ff26 12bd
00000360: 95de cb3d 00ad 0abd 5d25 0c3e 4951 583e
00000370: e739 b03d e920 91bd 3bc2 dc3c 1337 353d
00000380: 5839 d73d b9a2 7c3d 03e4 733d fa6f a5bc
00000390: 7cf8 9f3d d736 e93d 6825 833d 8e66 02bd
000003a0: 5e26 9eba a020 ad3d e705 3cbd ae22 123e
000003b0: 530c 0d3e e9c5 f9bd 62fa ffba c463 e33c
000003c0: c8d2 293e 1a8e 0dbe cd9c b13d 61b2 2c3d
000003d0: 9531 f8bc f6b3 3b3e b4b8 c63c 8a21 993c
000003e0: f369 33bd 67af 1b3e f053 b03d 14be a8bd
000003f0: eff2 a7bd 3086 f83d 4ff7 c0bc 73f3 e23d
-0.06411723 0.074054934 -0.046768837 -0.036860745 0.055857163 0.07736082 0.1595492 -0.052179135
0.073233925 0.12616187 0.103204735 0.03641798 -0.08505687 0.1271524 0.057767864 -0.025107404
-0.02383052 -0.0074267867 0.143344 -0.0065379413 0.1060177 0.10063852 0.11368842 0.038010176
0.09515142 0.03808349 -0.028260069 0.10259226 0.15503792 0.10443543 0.11765768 0.032084767
0.04346772 0.037669603 -0.009384648 0.1064271 0.1447553 0.019633004 -0.031788733 -0.05046658
-0.056128245 -1.2702455e-05 -0.020697597 -0.029232208 0.036709636 0.054024678 0.1106262 -0.052426618
-0.032907195 0.052133206 -0.05502105 0.14673543 -0.019614546 0.117450245 0.11740802 0.027549557
0.1387248 0.03666772 -0.0838826 -0.052248087 0.15579093 -0.06556123 -0.031781513 0.12750834
0.08757589 0.030755052 0.09614748 0.09197019 -0.08241393 -0.04150355 -0.10616255 -0.026353773
-0.13929461 -0.04639012 -0.066818595 -0.12798826 -0.005601184 -0.046411544 -0.025867274 -0.0524082
0.050830644 -0.040045414 0.04007416 0.013162825 -0.031835683 -0.07305821 -0.039890394 0.05189221
0.096048005 -0.011052075 0.027891582 -0.04708346 0.08789995 0.021299988 0.04022571 0.063123696
0.01557725 0.075356275 0.07572174 -0.08204593 0.0664673 -0.13601223 0.03249007 0.118531115
0.088883094 0.010521571 0.047337174 0.042224452 -0.14984432 -0.09656193 -0.10260951 0.012817918
0.0108342925 -0.08891913 -0.10470317 -0.13472995 0.104487166 -0.059407186 -0.033207107 0.091551445
0.08715466 -0.09953986 -0.076514244 0.05974979 0.0033025478 0.06233043 0.061547723 -0.047511265
0.11935711 -0.09070156 -0.13840306 -0.09695064 0.13580172 0.010030833 0.040551618 -0.030903213
-0.11100545 -0.06596606 0.11338294 -0.09964796 0.037528187 0.09697626 0.096994236 -0.09366118
0.031341214 0.006063994 -0.16767333 -0.1104326 0.11272884 0.1315145 0.09983578 -0.020525865
-0.07949111 -0.031366542 -0.15903309 0.10149335 0.01454926 0.15550655 -0.08171311 -0.112655975
-0.019978104 -0.13140947 0.07487366 0.013305408 -0.008943667 0.017061213 -0.018430958 0.02605783
0.13622274 -0.0016301585 -0.14151621 0.031909205 -0.0025195258 -0.035192937 -0.1482008 0.062424432
0.08966197 0.06807756 0.06059971 -0.107824676 0.03810004 0.15828519 -0.14476633 0.10572474
-0.023427999 0.06398644 0.08123066 0.067225434 0.09325244 0.038714804 0.05611059 0.103608236
-0.08523383 -0.017788617 0.044942617 -0.075239606 0.05124078 -0.012831574 0.10037866 0.004442042
0.03883863 0.09205705 -0.034484286 -0.015350976 -0.08313637 0.002777666 0.10990376 0.035429657
-0.092356 -0.06468582 -0.07217003 0.05023981 -0.05295315 -0.028583009 0.11546911 -0.03568172
0.099545635 -0.033856392 0.13686128 0.21124758 0.08604794 -0.07086355 0.026948085 0.044241976
0.10508984 0.061678622 0.05954362 -0.020194996 0.078110665 0.11387413 0.06403619 -0.031836085
-0.0012065878 0.08453488 -0.045904066 0.14271042 0.13774233 -0.121959515 -0.0019529576 0.027757533
0.16584313 -0.13823739 0.086724855 0.042162303 -0.03029708 0.18330368 0.024257995 0.01869275
-0.043802213 0.1520363 0.0860976 -0.082393795 -0.08200633 0.12134969 -0.023555426 0.110815905

fc_layers.0.weight f4 [8, 128]
00000000: fde3 d5bd dd39 cd3d 0cba 8b3d c905 133d
00000010: c38d 183c d7ec 50bd 6585 e43b e21f 46bd
00000020: b311 313d 79e9 6b3d aff0 003d ba46 043d
00000030: e306 5f3c 9c2f cebd 2e1f cbba ba8e 093d
00000040: 90b6 b13c 480e 823d 93bd ff3c d6f5 8a3d
00000050: 9369 5ebd 2806 363d 3910 20bc 069e 81bc
00000060: 3342 9c3d 40a1 cc3c b4f0 a93d df33 80bd
00000070: d486 d4bd d43b d1bd 890b 6a3d de2e 34bd
00000080: d8e6 85bd aca5 8e3d fc04 523c 339a fa3b
00000090: 3012 323d 5791 c8bd 3f5f fb3b 3b28 92bd
000000a0: 8df4 413d 6d85 92bd ccaf fe3d 5bd1 183c
000000b0: 2260 9ebc 3061 2abd 5518 ba3c bc64 2f3c
000000c0: 75ef acb9 f59e a23c bb7c e33c dd6e 5b3d
000000d0: e145 77bd a75b 7b3d 61ba b03d 5b5c 8eba
000000e0: eb1f 42bd c01e 5fbc f2b3 81bd f6ff e1bd
000000f0: 607b 78bd 2757 813d 7c03 63bd 10cd cbbd
00000100: b9a4 3b3d 8028 363d c16f bb3d 0854 cabc
00000110: 4845 c63a 19ff 32bd df25 b1bd 6385 0bbd
00000120: 61d0 ef3d b7e7 17bc 37b1 193b c45f d63b
00000130: 317a b33d cf6e f7bc bb17 e8bd 0744 ea3d
00000140: 470d 933b 78de 9b3d 08f1 c53d c365 3fbd
00000150: f1b9 0e3d 5deb a1bd 3cb4 57bd c067 933b
00000160: 3054 da3d bf94 1ebc 65a3 84b8 a7a0 90bd
00000170: b463 92bd 6188 a5bd 5c0a 6d3d 0cf1 953d
00000180: f405 0c3d ee4e ec3c c8bf 6ebd 02d8 ad3d
00000190: cb27 263d 1f3e a0bd e2c9 59bd 36d8 b6bc
000001a0: f3fa 2f3c 8fcc 4cbd ac57 073e 88bf a0bc
000001b0: 90a8 04bd 80f1 29bd 351b 6b3d 1614 433d
000001c0: f1a9 cdbd 2917 acbc 336a f53c ab7e 9f3d
000001d0: dddc 25bd 0139 f5bd b09a 6fbd 723e 6fbc
000001e0: 9316 123d 0be3 afbd 5d2c 313d 8a26 dfbd
000001f0: 8da5 cdbd 44a7 a03d 9122 95bd f018 01bd
00000200: ef6f 703c 7f0c edbc 06b9 583d 9591 dabc
00000210: 5122 d0bd eb25 893d d432 d7bd e6fc a93d
00000220: 2ef2 2a3b d18c b53d 5c30 813c 9d8f d13c
00000230: 171c bd3d 41b3 dfbd b59d f03c e7ae d63d
00000240: 6a62 bebd e4e8 75bd 598b be3d a902 e33c
00000250: 6509 05bc c7bd 6bbd b764 03bd 52c6 f7bd
00000260: bbca b33d 4d66 04bd 0e5e 123d 4658 bbbd
00000270: 8bfc 8fbc 7cc2 87bd 7bf4 62bd 6b50 7fbc
00000280: 5f2c 94bd 9f1a afbc 457a 03be 7aa2 d63c
00000290: b572 d1bc 0691 afbd 2eab df3c 607f 94bd
000002a0: 5086 56bb 84bf bb3b 4f74 843d 0416 42bd
000002b0: cf4d 9bbd 56a2 4dbd 8352 cebc a20e 33bd
000002c0: 6337 1ebd f621 2c3d 375f 883d 4310 233d
000002d0: 8cac 993c 219f 11bd 6945 913d 9cec acbb
000002e0: 0ca3 ec3d 02a4 bcbd 28a8 173d c29f 16ba
000002f0: b11c c1bd 2890 4bbb 5523 f0bc b60e c6bd
00000300: 47db 563c a0fa 44bd 5da3 dc3d 117d 50bd
00000310: c45e 55bd e04a 6b3d 06c1 063d 571a 6f3c
00000320: 8d22 003e abc3 8c3d 7304 b23c 2af4 6e3c
00000330: 9399 5fbb c540 d0bb 1e38 d8bb 284b 263d
00000340: f694 42bd 1fa1 dd3d 313e aa3d b63e 983d
00000350: 2d92 223d 4ec8 cfbd 2365 c03d 7253 4bbd
00000360: fa1b 47bd 78ca 14bd e91a e6bc f22f 3cbd
00000370: 71d1 f33b 119a 223d 5f6a 893d 5950 ad3d
00000380: bba0 823c f3b2 4c3d cf59 53bd a60d 533d
00000390: 049a d43c 2f4b e6bd da50 e0bb 3503 e73c
000003a0: ed10 25bd 90f4 e1bc 8330 963d 4cad 79bd
000003b0: 9d31 fbbd 011a 693c c56c 553c b04b fdbd
000003c0: a3d3 d5ba 1731 bd3c 5f30 673c 2bec fd3d
000003d0: 41e0 083c c32a 6e3b 84b7 a43d 255d debd
000003e0: 9561 963d a762 ccb8 68e6 2a3d 659a ebbc
000003f0: 8325 72bd 9b3d 57bd 98b9 0f3d a1f9 2e3d
-0.10443876 0.10020802 0.06822595 0.03589419 0.009311142 -0.051007118 0.0069739097 -0.04837025
0.04322977 0.057595704 0.031479534 0.032294013 0.013612482 -0.100676745 -0.0015496963 0.03358338
0.021693498 0.0635038 0.031218326 0.06785171 -0.054299902 0.044439465 -0.009769493 -0.015822422
0.07629814 0.024979234 0.082978636 -0.062598936 -0.10377279 -0.102164894 0.057139907 -0.04399001
-0.065381706 0.06965193 0.012818571 0.0076477765 0.043474376 -0.097933464 0.0076712663 -0.071365796
0.047352362 -0.07154355 0.12435874 0.009327258 -0.01933295 -0.04159659 0.02271668 0.010705169
-0.00032984806 0.019851187 0.027769437 0.053572524 -0.060369376 0.061366703 0.08629299 -0.0010861264
-0.04739372 -0.013618171 -0.0633315 -0.11035149 -0.060664535 0.06315451 -0.055423245 -0.09951222
0.04581139 0.044472218 0.09152175 -0.024698272 0.0015126849 -0.04370031 -0.086498015 -0.034062754
0.11709667 -0.009271554 0.0023451576 0.006542178 0.087635405 -0.030204205 -0.11332651 0.114387564
0.0044876668 0.07610792 0.09665114 -0.046727907 0.034845296 -0.0790622 -0.05266212 0.004498452
0.10660589 -0.0096790185 -6.324685e-05 -0.07061892 -0.07147923 -0.08082653 0.057871208 0.07321367
0.034185365 0.02884623 -0.058288366 0.08488466 0.040565293 -0.07824349 -0.053171046 -0.022319894
0.010740983 -0.04999977 0.13217038 -0.01962258 -0.032387316 -0.041490078 0.057398994 0.047626577
-0.100421794 -0.021007137 0.029957866 0.07787832 -0.040493835 -0.11973763 -0.05849713 -0.0146022905
0.03566606 -0.08588227 0.0432552 -0.108960226 -0.10041342 0.078444034 -0.07281984 -0.031517923
0.014675125 -0.028936623 0.052910827 -0.026680747 -0.10162795 0.066966854 -0.105077416 0.0830019
0.0026084292 0.08864749 0.01577013 0.025581175 0.09233873 -0.10922862 0.029372076 0.10482579
-0.09296115 -0.060036555 0.09303922 0.02771123 -0.008119916 -0.057554033 -0.03207847 -0.120983735
0.08778902 -0.032324124 0.03573423 -0.09147696 -0.017576477 -0.06628892 -0.055408936 -0.015583138
-0.072350256 -0.021374999 -0.12839611 0.026200522 -0.025567392 -0.08572583 0.027303305 -0.07250857
-0.0032733865 0.0057296176 0.064674966 -0.047384277 -0.075832 -0.050203644 -0.025185829 -0.043715127
-0.03862704 0.042024575 0.06658786 0.03981043 0.018759035 -0.035552148 0.07093317 -0.0052772295
0.11554536 -0.092109695 0.0370256 -0.00057458517 -0.094293006 -0.0031061266 -0.029313723 -0.09670775
0.013113803 -0.048090577 0.107733466 -0.050900523 -0.05209233 0.057444453 0.032898925 0.014593682
0.1251318 0.06873258 0.021730637 0.01458458 -0.0034118637 -0.0063553774 -0.0065984866 0.04059902
-0.04750534 0.10821747 0.08312643 0.07433836 0.039690185 -0.10145627 0.0939429 -0.049640127
-0.048610665 -0.0363259 -0.028089004 -0.04594416 0.007440739 0.03969771 0.06709742 0.08462591
0.015945783 0.049975347 -0.05159932 0.051526688 0.025952347 -0.11244809 -0.0068455758 0.028199771
-0.040299345 -0.027582437 0.073334716 -0.060956284 -0.12265322 0.014227391 0.013026421 -0.12367952
-0.0016313683 0.023094697 0.014110654 0.12398561 0.008354248 0.0036341406 0.08042815 -0.1085761
0.07342831 -9.7458535e-05 0.04172364 -0.028760144 -0.059117805 -0.052548986 0.035089105 0.042718533

fc_layers.0.bias f4 [8]
00000000: c8d5 8ebd bd6c 2fbd 6dfd ed3c 4f2f 11bd
00000010: 8e7f 39ba b1ee aabd 6a54 913d cc68 22bd
-0.06974369 -0.04282831 0.029051507 -0.035445508 -0.0007076197 -0.08346308 0.07096179 -0.039650723

output_layer.weight f4 [1, 8]
00000000: 8a49 bcbe a2df d4bd ba07 99bd d0cf b0be
00000010: d342 57be 70c4 07be 7b89 a73e 4a5f a4be
-0.36774856 -0.10394217 -0.07472177 -0.34533548 -0.21021585 -0.13258529 0.32722077 -0.3210395
